best_model_epoch_2.pth (torch, 741122 bytes, 15 tensors)

encoder.0.weight f4 [16, 1, 3, 3]
000000 89 28 12 3d 9e 90 4e be a5 64 80 be 3a 1a cc be
       0.03568319 -0.20172355 -0.25076786 -0.3986376
000010 b4 a4 61 be 4c c5 56 be 28 75 d4 be 17 ed df be
       -0.22035486 -0.209737 -0.41495633 -0.43735573
000020 d7 6c d8 3d b3 1c 75 bd 9c 50 1c be 45 e0 05 3e
       0.105676346 -0.059841823 -0.15265125 0.13073833
000030 f3 f0 2d be 95 46 f4 bd e9 dc fd 3e 16 1b c8 bd
       -0.16986446 -0.11927525 0.49582604 -0.09770791
000040 e0 2a 99 be 5c fd c9 3e b2 43 05 3e 56 28 9e 3e
       -0.29915524 0.3945111 0.13014105 0.3089015
000050 c8 1a b0 be 15 95 f4 3e 6e 4f 03 be 45 4d e4 3d
       -0.34395432 0.4776999 -0.12823269 0.111475505
000060 12 be b5 3e dc fc 82 3e 5e 30 aa be 46 2c 2b 3f
       0.35496575 0.2558354 -0.33240026 0.6686443
000070 ac 64 8f bb 0f aa a1 3d 00 b5 09 3e f9 91 e1 bc
       -0.0043760147 0.07893764 0.13447952 -0.027535425
000080 2d aa b3 3d b0 fe 26 3e 00 6c 8b be fb c8 1c bf
       0.08772693 0.16308093 -0.27230835 -0.6124417
000090 fc 30 ba 3e 8a d0 dc 3e e8 77 69 3e 26 ca 00 3f
       0.36365497 0.43127853 0.22799647 0.50308454
0000a0 ee 3c 56 3d ed 00 d0 bd 66 36 94 3d d9 b5 17 bd
       0.0523042 -0.101564266 0.07236938 -0.037038658
0000b0 65 f4 18 bc 9b 20 ef bd 34 4f f4 3c 49 15 a4 be
       -0.009335612 -0.11676141 0.029822923 -0.3204749
0000c0 e6 ad e3 3e dc 8d 1d 3f 43 e2 df 3e c1 74 39 3d
       0.4446861 0.61544585 0.43727311 0.04527736
0000d0 ba 8e e4 3e b1 fc 18 3d 46 e8 84 be 9f 18 86 be
       0.44640142 0.03735036 -0.2595846 -0.2619066
0000e0 c0 33 1b bf 90 96 31 3d 25 22 10 bf 41 2b 02 be
       -0.6062584 0.04335648 -0.563021 -0.12711813
0000f0 8b c3 c3 be 91 e2 56 be f2 a9 8b be e4 b0 6b 3c
       -0.38235125 -0.20984866 -0.27278095 0.014385436
000100 45 87 cd be 59 f5 06 bf ac e7 01 bf dd 56 8d be
       -0.40142265 -0.5271812 -0.5074413 -0.27605334
000110 e8 0d 57 bc 2f 5b fe be 73 84 d8 bd 8f 08 f4 be
       -0.013125874 -0.49678943 -0.10572138 -0.4766278
000120 35 c1 07 3e 61 da 03 bf 46 54 3c be 31 3c e7 be
       0.13257296 -0.51505095 -0.18391523 -0.4516311
000130 0b 97 0b be 19 9b 6c 3e 9d 87 a5 bd c6 3e 13 be
       -0.13631837 0.2310604 -0.08082507 -0.14379415
000140 bd cb 9f 3e 5a 7d c3 3e 0f 3a 26 be af d3 f5 be
       0.31210127 0.38181573 -0.16233085 -0.48013064
000150 f6 fa c0 3e 3b ac 1d be 1f 7e 1c be 74 f2 c9 3d
       0.37691468 -0.15397732 -0.15282486 0.098606974
000160 2b 73 a5 3c 52 65 b3 3e 7f 06 3d 3d 05 53 29 bd
       0.020196518 0.3503824 0.046148773 -0.04133894
000170 15 b3 b7 3e b3 c5 87 3e 7d a9 ff 3e a8 a9 dc 3e
       0.35878816 0.2651802 0.49933997 0.43098187
000180 80 34 43 3e 8a fe 15 3f ec 9c d2 3e ac aa 5a be
       0.19062996 0.5859152 0.41135347 -0.21354169
000190 2e 1c 6d be 11 99 b5 be 4e d1 4c 3d 87 3e 4f bd
       -0.23155281 -0.35468343 0.050004296 -0.05059674
0001a0 c6 1e c1 3e e0 19 ca 3e 83 70 e6 3e 6c 94 d5 3e
       0.3771879 0.39472866 0.45007715 0.417148
0001b0 02 8d ba 3e d9 6c 86 3e 07 ab 5b 3e ca ab 25 bc
       0.36435705 0.2625492 0.2145196 -0.0101117585
0001c0 84 9b da 3e 39 5c 6b 3e 03 12 92 3e d5 02 2d bc
       0.42696774 0.22984399 0.28529367 -0.010559757
0001d0 53 d4 15 3e 1d b0 a5 be c1 97 03 be 12 6f a8 3e
       0.14631777 -0.32360926 -0.12850858 0.3289724
0001e0 33 b0 ba be 6c bf c5 3e cd c5 83 3e a2 bf c2 3d
       -0.36462554 0.38622606 0.25736848 0.09509207
0001f0 e2 71 20 3e f7 8e 04 3f b9 54 7c 3d ea a3 03 3f
       0.15668443 0.5178065 0.061604235 0.5142199
000200 0d 83 8d 3d c6 dd d6 3d 02 ba 00 3f 33 03 88 bd
       0.069097616 0.10491519 0.50283825 -0.06641235
000210 b8 b4 02 3e d4 c2 05 3f ce c8 36 3c 0c a2 83 be
       0.12764251 0.5225041 0.011156274 -0.2570957
000220 85 fa 1e be aa 6c c5 3e b6 a5 4c be 85 9a 9c 3e
       -0.15525253 0.38559467 -0.19985089 0.3058664
000230 f8 8e 1c be 16 9d 2d bd fc 2a e0 3e 39 66 bf be
       -0.15288913 -0.042386137 0.43782794 -0.37382677

encoder.0.bias f4 [16]
000000 b2 f7 94 3e 48 0e 81 3e ab 3e ac 3e e3 ff 38 3d
       0.29095227 0.25206208 0.33641562 0.045165908
000010 1f d8 a0 3d 7b 69 b6 bb 84 b7 53 3e ea 59 c4 3e
       0.07853722 -0.0055667735 0.20675474 0.3834985
000020 8b 57 34 3e ae 9a 80 bb da fa fb 3b 1a 7c d6 ba
       0.1761152 -0.0039246893 0.007689816 -0.001636389
000030 18 01 18 3e 95 98 e0 3b 81 3b 11 3d eb 19 20 3a
       0.14844167 0.0068541267 0.035457138 0.00061073777

encoder.2.weight f4 [32, 16, 3, 3]
000000 dd fd 91 be c1 f8 e5 3d aa 9b 37 3d d0 e7 1d be
       -0.28513995 0.11229087 0.044826187 -0.1542046
000010 39 e4 88 3c 84 c5 46 3d a6 1c 4f be bd 36 1a 3e
       0.016710388 0.04852821 -0.20225772 0.15059943
000020 83 33 c4 3d bc 4c 11 3d a9 bf 14 be 10 02 b1 3d
       0.095801376 0.03547357 -0.14526238 0.086429715
000030 24 d4 1f bc d6 42 20 be 2f 8f 06 bd 36 f8 48 bd
       -0.009755168 -0.15650496 -0.032851394 -0.049064837
000040 bf e8 f7 3c f1 5b 07 3e 0f 01 57 3e 03 2b ad 3d
       0.03026235 0.13218667 0.20996498 0.084554695
000050 b1 8d 8c bd c7 27 24 3e 91 10 ad 3c cd 86 21 be
       -0.06862963 0.16030799 0.021126064 -0.15774079
000060 56 90 85 3e e4 d4 f5 3b 96 1a 71 bd 5e ad cb 3d
       0.26086682 0.007502185 -0.058863245 0.099451765
000070 0a 4d 61 3e ea e7 f7 bd 6e 05 51 3e 9a 62 03 3e
       0.22002044 -0.12104781 0.20412228 0.12830582
000080 ee d4 4b be ae a7 f5 3d 76 75 34 3e c5 92 8f be
       -0.19905445 0.11994873 0.17622933 -0.28041664
000090 1e d5 4b 3e 83 95 04 3e 6e 03 2d be b6 f6 67 3e
       0.19905517 0.12947659 -0.1689584 0.22652707
0000a0 23 31 a3 3b 72 13 0f be 64 5b 88 3e db 5e 8b 3c
       0.004980223 -0.13972262 0.26632226 0.017013004
0000b0 84 f0 01 be 17 53 21 3e 2f 2c 17 3c 69 4b 82 be
       -0.12689406 0.15754353 0.009226843 -0.25448158
0000c0 af 59 80 3e c8 10 2d be 2a 56 a2 be ff 5f 37 3e
       0.25068423 -0.16900933 -0.31706363 0.17907713
0000d0 cc 23 3e bd 3e ed d6 bd b7 13 96 be 98 ab b4 3d
       -0.046420857 -0.10494469 -0.29311916 0.088217914
0000e0 34 9a 11 3d 86 84 8a be f7 8c 02 3e f5 ae 0b 3e
       0.03554745 -0.27054232 0.12749086 0.1364096
0000f0 a9 ef 59 bd 24 e3 2e 3e 2f da 18 3d 15 f7 6a be
       -0.053207073 0.17078835 0.03731745 -0.22945817
000100 1c ab 1a 3e 93 d6 a1 3d 63 18 22 be 13 c2 9b 3b
       0.15104336 0.07902255 -0.15829615 0.00475336
000110 54 17 ef 3d 5e 4a 19 be e7 ef 34 3d 65 0d a4 3c
       0.11674371 -0.14969775 0.0441741 0.020025918
000120 24 49 ec bd ba 94 f6 3d be 37 42 3e 06 b4 6d be
       -0.11537388 0.12040086 0.18966576 -0.23213205
000130 18 30 8b bd 92 00 1b 3e 22 4a 21 be 8b 49 84 3d
       -0.067962825 0.15136936 -0.15750936 0.0645934
000140 c3 dd de 3d e5 f1 34 3e 71 09 37 3e 93 41 78 bd
       0.108821414 0.176704 0.17874695 -0.06060941
000150 2f 67 48 3e 2f a9 08 3e 21 73 c4 bd 93 c3 35 3e
       0.19570611 0.13345788 -0.095922716 0.17750387
000160 e2 8d 95 3e 27 b6 7c bd 6d 6b 53 3e 3f 69 f7 bd
       0.2920981 -0.06169715 0.20646448 -0.12080621
000170 e5 75 7a be 02 3b 7d 3e bb a7 bf bd 38 d4 92 be
       -0.24459036 0.24729541 -0.09358164 -0.28677535
000180 03 8d 1c 3e e5 3e 0c be bf 18 b7 bb b7 66 d5 3d
       0.15288167 -0.13695867 -0.0055876668 0.10419982
000190 4b 08 1f be 1a 19 3c be 3f a4 68 3e eb 34 c0 bd
       -0.15530507 -0.1836895 0.22718905 -0.09385093
0001a0 1d 65 67 be b4 bb 15 3d 64 a7 92 bd 84 93 83 3d
       -0.22597165 0.03655596 -0.071608335 0.06424621
0001b0 9c a8 13 3e 2b 6c 17 bd e2 84 ea bd cc ac 57 3e
       0.14419788 -0.03696839 -0.11451127 0.2106201
0001c0 53 d9 a8 bd bb da 1b be b5 de db 3d 81 92 e1 bd
       -0.08244576 -0.15220158 0.10735837 -0.110142715
0001d0 d3 ef 00 be 67 97 57 3e 6e d9 7c be d8 a3 c7 bd
       -0.12591486 0.21053849 -0.24692318 -0.097480476
0001e0 3f f5 c6 3d a1 85 4d be 85 ef 11 3b 62 ba 7d 3d
       0.09714746 -0.20070507 0.002226801 0.061945327
0001f0 cd 8b 6b be d5 1e 12 3e d1 f2 8b 3e de be a9 3c
       -0.23002549 0.14269574 0.27333692 0.020720895
000200 f8 73 83 be ea 65 45 3e dd f2 c3 bd 84 af 7a be
       -0.25674415 0.19277158 -0.09567807 -0.24481016
000210 ee c9 88 3e 9e a6 27 bd 1d 5d e5 bd 8a 0f 15 3e
       0.2671656 -0.040930383 -0.111994006 0.14556709
000220 c3 4b 36 be 21 fc 8b 3d 3d 0b 90 3e e4 de 84 be
       -0.17802338 0.06835199 0.28133574 -0.25951302
000230 15 7c 36 3c f4 74 7c 3e c5 55 07 bf 0c 1d 20 bc
       0.011137982 0.24653989 -0.5286525 -0.00977255
000240 0b 48 b9 bd a3 4b 6c bd d6 ab cb bd 13 e1 06 bd
       -0.09046944 -0.05768932 -0.099448845 -0.03292949
000250 b1 0a 7b 3d 40 82 d4 bd ea b9 f6 3d fa 49 47 3e
       0.061289493 -0.10376406 0.12047179 0.19461814
000260 2a 3f be 3d 84 7b c3 bb c9 dd d5 3c 51 a8 b6 3d
       0.09289391 -0.005965652 0.026106732 0.089188226
000270 e6 79 44 3d 67 c3 94 3d ac 7d e4 3d f6 9d 0b be
       0.047967814 0.072638325 0.111567825 -0.13634476
000280 ca cd 4d 3d 03 7c 6c 3d 48 38 50 be 30 a5 e7 3d
       0.050245084 0.057735454 -0.2033397 0.11310804
000290 f9 96 5a 3e d7 2a 3b bd 57 79 36 3d 63 0a 27 3b
       0.21346654 -0.045695152 0.044549312 0.0025488369
0002a0 3d 49 f5 bd cd a3 18 be 37 30 87 3c b5 41 2c be
       -0.1197686 -0.14906235 0.016502483 -0.1682194
0002b0 84 e4 34 bd c0 02 44 3e 15 f4 79 3d 39 d2 49 bd
       -0.044163242 0.19141674 0.06102379 -0.04927275
0002c0 58 24 8e bd 0b 70 1c 3e aa 6f a6 bd 02 50 31 be
       -0.06940526 0.15277116 -0.08126767 -0.17315677
0002d0 3d 4e 6b bd 94 c3 dc 3d 53 39 90 3e ce 6f 2f bd
       -0.05744766 0.10779491 0.28168735 -0.042831235
0002e0 9a cc 9e 3d 53 96 65 3e 1c b7 5b bd 80 6f ef bd
       0.077538684 0.22420625 -0.053641424 -0.11691189
0002f0 d0 21 a4 3c b3 52 3e bd 59 c3 81 3e a0 09 81 3e
       0.020035654 -0.046465587 0.2534435 0.25202656
000300 f2 1c 1c be 6e ea ed 3d 3c 97 a0 3d eb 6f 9d be
       -0.15245417 0.116169795 0.07841346 -0.3074945
000310 d3 c3 94 be 05 08 9c 3c b6 ef a7 bd 7a bc e6 bd
       -0.29055652 0.019046793 -0.08200018 -0.11266418
000320 47 a6 02 be e5 a9 07 bd 31 ca a3 3c a9 3b 7f bc
       -0.12758742 -0.03312101 0.019993873 -0.015578189
000330 bd 17 f2 3d b5 2d ba 3d aa 81 c3 3d 2b ea 1e be
       0.11820934 0.09090749 0.09546216 -0.15519015
000340 8f 4d 4f be 50 db f6 bd d6 d8 28 bd 05 d7 2a 3e
       -0.2024443 -0.12053549 -0.041222416 0.16683586
000350 9e 46 9b bd cc 43 7e 3d 81 50 05 3e da 10 bf 3d
       -0.075818285 0.062076375 0.13018991 0.09329386
000360 40 c6 5d be 3e 3f 37 be 55 79 70 be 96 03 dd bd
       -0.21657658 -0.17895219 -0.23483784 -0.107916996
000370 04 da e9 bd a3 1d 6d be 5c d8 50 bd 16 2d 66 3e
       -0.11418536 -0.23155837 -0.050987586 0.22478136
000380 6b dc 6d bd 11 86 40 be a2 41 86 3d e2 df b7 3e
       -0.058071535 -0.18801142 0.06555487 0.35912997
000390 55 16 ad be ee 08 33 be e9 e9 82 bb 02 1b 1b be
       -0.338061 -0.17483875 -0.0039951694 -0.15147021
0003a0 c9 ed 7b be 6a 6b 3d bd af 2a 13 bd 01 22 55 3e
       -0.24602427 -0.046245016 -0.035929378 0.20813753
0003b0 3d ca 64 3e 21 a2 6d bd 48 9c 40 3d e9 7f 30 3e
       0.22342773 -0.058015946 0.04702404 0.17236294
0003c0 a3 ff 9b be df 4f 45 be e9 c3 86 bd a4 e6 11 3d
       -0.30468473 -0.1926875 -0.06580336 0.035620347
0003d0 1a 23 8f 3d 80 2e 47 3e 34 c7 ae bc 0d 71 16 be
       0.06989117 0.19451332 -0.021335222 -0.14691563
0003e0 1b e6 ee bc 0f be 95 be 8e 6e 9c be b9 77 12 be
       -0.029162457 -0.29246566 -0.30553097 -0.14303483
0003f0 f1 1c 68 bd 42 13 4a 3e 5b 6e 60 3e ef b3 99 3c
       -0.056668226 0.19733909 0.21917097 0.018762557

encoder.2.bias f4 [32]
000000 53 66 cc bc 5b 2c bd 3d c0 81 95 3d 67 4c 87 3d
       -0.024951136 0.09236976 0.073001385 0.066063695
000010 96 84 69 3d 36 1f e1 3d 52 0a d8 3d 3b 2a 59 3d
       0.05701121 0.10992281 0.105488434 0.05301879
000020 7e ea 07 3d 90 b1 9e 3c a3 45 bd 3d 5c c0 3d bc
       0.033182614 0.019371778 0.09241798 -0.011581507
000030 c8 9d c3 3d 0d ef e5 3a a4 32 bf 3d 0e 26 fa 3c
       0.09551579 0.0017542556 0.09335831 0.030535724
000040 53 11 32 bc c6 2d ff 3c 2c a7 26 3e a5 68 97 3d
       -0.010868388 0.031149756 0.16274709 0.07393006
000050 d6 a6 be 3d 1b 34 31 bd 3a 3a 6a 3d 2f 11 80 bc
       0.09309165 -0.043262582 0.057184435 -0.015633194
000060 23 b6 4b 3e 57 bb 9c 3d 28 5d 8b 3d af b5 d0 3d
       0.19893698 0.0765292 0.068048775 0.101909034
000070 74 f2 3a 3e a4 a3 27 bd 51 03 bd bb 8f 26 60 3c
       0.18256551 -0.040927544 -0.0057682176 0.013681068

encoder.4.weight f4 [64, 32, 3, 3]
000000 ab 9d bd 3c 0b 09 41 3d 4f 23 07 3e 19 38 f6 3d
       0.023146471 0.047127765 0.13197063 0.120224185
000010 37 3b 04 be d4 1a b7 bc 6d 5f 69 be 02 ae 0f be
       -0.12913214 -0.02235166 -0.22790308 -0.14031222
000020 79 0c 42 be a2 d1 06 bc b8 81 06 3d 4d d5 fe bd
       -0.1895007 -0.008228691 0.032838553 -0.12443028
000030 d2 37 18 bd 0e b2 0e bc d5 6b 7e 3b 80 09 2d bd
       -0.03716261 -0.008709444 0.0038821597 -0.042245388
000040 cf 3c c0 3d b4 60 e2 bd 50 63 a8 3c 8f c5 c5 3c
       0.09386598 -0.11053601 0.020555168 0.024142055
000050 16 84 5f bc 01 7b d1 bd 1d 51 b4 3d 04 ce c4 3d
       -0.013642332 -0.10228539 0.08804534 0.09609607
000060 0a ad 59 3d e5 96 ed 3c fb f6 8c bd 74 2e c6 bd
       0.05314354 0.029002616 -0.06883045 -0.09676829
000070 b8 15 a0 3c 41 15 73 3c 1d 88 28 3e d6 f1 7d bc
       0.019541606 0.01483661 0.16458173 -0.015499553
000080 6c 2d 22 be 9d be 4d be 9c b1 d6 bd 0a 96 aa bd
       -0.1583764 -0.20092244 -0.10483095 -0.08329399
000090 11 d1 88 bd 70 63 25 be 84 73 e6 3c 90 d5 23 3d
       -0.06680501 -0.16151214 0.028131254 0.03999859
0000a0 de 14 09 3e 93 18 af 3b de 36 27 3e f4 9e 53 bd
       0.13386866 0.0053435056 0.16329524 -0.05166526
0000b0 e0 f3 07 3e f7 d9 86 bd 72 3a bb 3d 96 75 e3 bd
       0.13276625 -0.06584542 0.09142007 -0.11106412
0000c0 83 0d 4a bd 0b 99 c7 bd a3 44 48 bd a8 ef a8 bd
       -0.049329292 -0.097459875 -0.048893582 -0.08248836
0000d0 a0 43 6a 3c 5e e4 22 3d 05 6f 17 3c 5f de 8f bc
       0.01429835 0.03976857 0.009242778 -0.01756209
0000e0 09 48 da bc 42 ef 90 3c 91 28 cf 3d d6 b8 d6 3d
       -0.026645677 0.017692212 0.10115159 0.104844734
0000f0 31 fb 40 3d 54 70 fb 3b 52 86 2c be 9f 47 42 bd
       0.047114555 0.0076733027 -0.16848114 -0.047431584
000100 f2 8b 03 3d 6f d6 ba bd 45 09 c7 bd e7 55 a0 3d
       0.032115884 -0.09122931 -0.09718565 0.078288846
000110 9d 0e cd 3d 39 ea 45 bd 6b 15 3b 3d 99 ac 4a bd
       0.10012553 -0.048319075 0.045674723 -0.04948101
000120 6c f1 01 be 44 37 7a 3c 85 93 bf bc 8b 43 d6 3b
       -0.12689751 0.015271965 -0.023385772 0.0065388135
000130 0e b3 4d bc ea 9c e4 3d f3 f6 69 bd 87 bf ae bb
       -0.012554897 0.111627415 -0.057120275 -0.0053328904
000140 fb 15 f2 bc b8 e7 e0 bc 6d 46 c4 3d a8 77 2b 3c
       -0.029551497 -0.027454242 0.09583745 0.01046554
000150 0c 47 63 bd da a6 01 be 82 c8 14 3e c1 16 19 be
       -0.055487677 -0.12661305 0.14529613 -0.14950086
000160 1c 7a e7 3c be c2 5d bc ba b3 a7 3c 08 ea b6 bc
       0.028256468 -0.0135352 0.020471442 -0.022328392
000170 20 d7 12 bd 17 5f 58 bd a4 17 b0 3d c1 ab f5 3d
       -0.03584969 -0.05282506 0.08598259 0.1199565
000180 f0 f9 40 3d 27 06 b4 3d 3c 00 ce bd 1c 56 4d bd
       0.04711336 0.08790236 -0.100586385 -0.05013095
000190 42 55 3b bc 68 91 8b 3c 3e 1d 95 3d b6 1d 98 3c
       -0.011433901 0.017037109 0.07280968 0.018568855
0001a0 19 bf 93 3c 01 ba 59 bd be 07 22 3d 2b 83 59 3c
       0.018035458 -0.053155903 0.039558165 0.013275902
0001b0 c4 d2 cf bd cd 97 76 bd 9f b8 8d bc 94 d0 2e 3e
       -0.10147622 -0.060203362 -0.017299948 0.17071754
0001c0 2a 5c 73 bc d1 d1 d5 bd 94 c7 24 be a6 1e 06 be
       -0.014853517 -0.1044041 -0.16091758 -0.13097629
0001d0 cc 83 67 bc 78 e0 28 3d 05 61 87 bd 7f 6d a5 3d
       -0.014130544 0.041229695 -0.06610302 0.08077525
0001e0 18 1c 33 3e bd 14 02 3d 9a f2 10 be a3 4e 9d 3d
       0.17491186 0.03175806 -0.14155045 0.076810144
0001f0 95 14 1b be 21 42 a7 3c 35 8a f7 bc e8 6c bd 3c
       -0.1514457 0.020417275 -0.03021727 0.02312322
000200 66 63 a9 bd cc 4b ca bd ef 4e 92 3b 65 3c 0b 3d
       -0.08270912 -0.09877738 0.004464976 0.033993144
000210 48 41 e6 3c 3a 8b 72 3d 44 cf 44 3d 1b 00 c4 bd
       0.0281073 0.059214808 0.048049226 -0.095703326
000220 7f 44 f3 bd 33 14 71 bd 25 5d 8b bd 80 5a 44 3d
       -0.11878299 -0.058857154 -0.06804875 0.04793787
000230 3d d2 ca bb b5 0f f1 bc 56 86 ec 3b 71 0e 78 bd
       -0.006189613 -0.029426435 0.0072181625 -0.060560647
000240 f8 9f 04 bd ae 91 43 3d c6 4f ce bc 71 c3 bb bd
       -0.03237912 0.047746353 -0.025184523 -0.09168137
000250 d5 e2 5c bd 8e 84 5f 3d 23 e3 0d 3d 65 ae 3a bc
       -0.05392726 0.054569773 0.034640443 -0.011394118
000260 84 a6 a0 3c fa 6d c9 3b fd 87 12 3c ed ed 18 3d
       0.01961065 0.0061471434 0.008943555 0.03733628
000270 e5 ce 53 bd e9 98 72 3d 51 7a 16 bd 36 f3 54 3c
       -0.051710982 0.059227858 -0.036737744 0.012997439
000280 ba 63 c6 3c 7b e0 df bc 41 ed 9c bb d9 3f 3d 3c
       0.024217475 -0.02732872 -0.004789025 0.011550867
000290 5e ac e3 bd 6d f9 b4 bd dd a0 76 bc dc 4e 19 3e
       -0.11116861 -0.08836637 -0.015053001 0.14971489
0002a0 5c 7f 3d 3d be 62 dc 3d 9d c6 be bd 60 90 86 bd
       0.046264037 0.10761021 -0.09315226 -0.06570506
0002b0 fa 50 ee 3b 43 fc 92 bd 93 9d e9 3c 70 9f aa 3d
       0.0072728368 -0.07177021 0.02851752 0.083311915
0002c0 db bb f5 3d b7 88 92 3d 37 15 c6 bd ec 02 dd bc
       0.11998721 0.071549825 -0.09672015 -0.026978932
0002d0 9c 18 65 bd 81 48 54 3d 08 28 f1 3b ff b6 c1 3d
       -0.055931672 0.051826958 0.0073595084 0.09458732
0002e0 2a 87 0a be 61 b7 27 be 42 77 89 be fb 70 80 bd
       -0.13528123 -0.16378547 -0.268488 -0.06271549
0002f0 ec 0f 32 3d 18 c1 b3 bd 63 8f b1 3c 54 64 b4 3d
       0.043472216 -0.08777064 0.021674817 0.088081986
000300 eb 20 6c 3d ef 87 d6 bd 04 74 b7 bd 04 bf e2 bd
       0.05764858 -0.10475146 -0.08957675 -0.110715896
000310 fe b4 bc 3c e1 33 8a bd c6 40 3a bd b8 fd 12 3a
       0.023035523 -0.06748176 -0.04547193 0.0005607265
000320 4a 1b 22 be 96 04 1a bd be b6 59 be 4e ad 1e 3e
       -0.15830722 -0.03760203 -0.21261117 0.15495798
000330 f6 52 81 3c c7 ce 51 3e d1 72 88 bd 34 6b 28 be
       0.01578663 0.20489036 -0.066625245 -0.16447145
000340 ec 83 43 bd 6d 99 9a 3d 3b a4 a6 3d 5c 10 50 bc
       -0.047733232 0.07548795 0.08136793 -0.012699213
000350 08 00 26 be 7a 08 ee bd 48 d3 ee bd 3e 41 8a bd
       -0.1621095 -0.116227105 -0.116613925 -0.06750725
000360 b2 eb cd ba 54 d7 5e bd bf 68 51 3c 89 6a 3d bd
       -0.0015710501 -0.05440457 0.012781321 -0.046244178
000370 a6 df 9f 3d bb bd a5 3d ed 2a 21 3d 8e 29 02 3d
       0.078063294 0.08092829 0.039347578 0.03177791
000380 c6 50 e2 bd 82 02 70 bd d5 3f 8f 3b 3b 41 85 bd
       -0.110505626 -0.05859614 0.004371623 -0.06506582
000390 e8 54 9c 3c 24 44 22 3e 43 4f 23 be 15 f2 6f bc
       0.019083455 0.15846306 -0.15948205 -0.014645119
0003a0 da ec f6 bd c8 43 65 bd ac a7 b9 bd 55 be ec 3b
       -0.120568946 -0.055972844 -0.09065184 0.007224838
0003b0 fa aa fb bd c7 6a a9 3c ba dd 94 bd bd 25 f7 3d
       -0.122884706 0.020680798 -0.072688535 0.12067745
0003c0 e3 09 80 3d 57 ed bc 3c e2 7c 8e 3c 7b c7 f6 bc
       0.06251886 0.023062391 0.017393533 -0.030124417
0003d0 c6 28 bf bd fd 28 35 3c eb 5f 15 bd 83 70 c0 3d
       -0.09333949 0.011057136 -0.036468428 0.0939646
0003e0 aa 16 92 3d fd af db bc 9e 85 05 bd ec 2d bb bd
       0.07133229 -0.026817316 -0.03259813 -0.09139618
0003f0 27 87 39 3d 05 6c 83 3c 00 ef d4 3b c0 ba 3b bd
       0.045294907 0.016042719 0.0064982176 -0.045832396

encoder.4.bias f4 [64]
000000 2b 5b c0 3c 44 25 ec bd a3 0c 73 3d b8 17 2f bd
       0.023480972 -0.11530545 0.059338223 -0.04274723
000010 49 cd 08 3d 7f 02 7d bd 5a f0 31 3d ea 5d 27 bd
       0.0333989 -0.06176996 0.043442108 -0.040861048
000020 9e 0f 1f be 45 13 46 3c f4 bc 87 3d c3 a6 90 ba
       -0.15533301 0.012089555 0.06627837 -0.0011036027
000030 fc a3 7c bd 64 11 c4 bd 56 9b be 3d 5d ab 7e bc
       -0.061679825 -0.095736295 0.09306972 -0.015543786
000040 c5 8c 19 bd 27 cd 3a 3d 67 44 b8 3d 37 ea b8 3c
       -0.037487764 0.045605805 0.08997422 0.02257262
000050 44 75 16 3d c7 2a 03 3c 21 04 5e bd 51 87 be bd
       0.036732927 0.008005804 -0.054203156 -0.09303153
000060 a3 86 3c 3b 97 aa 9a 3d d5 54 2a 3b 9c e3 69 bc
       0.0028766773 0.07552069 0.0025990505 -0.014275458
000070 e9 e8 09 be 1b d5 f2 3c 40 fc d6 bd 74 3a c9 3c
       -0.13467754 0.029642632 -0.104973316 0.024564005
000080 0c 3b 13 3c 3d 62 db 3b ec 15 87 bb 8c 84 05 be
       0.008986246 0.0066950605 -0.0041224863 -0.13038844
000090 33 22 20 3d 5e d9 9e bd 27 2a b9 bd 3f 34 ae bd
       0.039095115 -0.07756303 -0.09041243 -0.08506059
0000a0 a8 97 97 bb 16 54 c9 3b 15 53 8b bd f9 06 c3 bd
       -0.004626233 0.006144057 -0.06802956 -0.09522814
0000b0 82 e1 d5 bc d7 57 7f 3d 72 df a6 bc eb e2 60 bd
       -0.026108507 0.06233963 -0.020370219 -0.054903906
0000c0 ca dc bf bc b8 0f 1d bc af c8 d3 3a 27 63 14 be
       -0.02342071 -0.009586267 0.0016157831 -0.14490949
0000d0 a4 6f cd bd ac 1b ac 3d fa c8 ca 3d 3c de 07 3d
       -0.100310594 0.084037155 0.099016145 0.033170924
0000e0 5e 78 9b bc 2e ad c3 bd d2 97 e8 ba a1 80 09 be
       -0.018978294 -0.09554516 -0.0017745441 -0.13427974
0000f0 d4 93 dd bd 20 a0 05 bd d4 93 bf 3c c5 4e 89 bd
       -0.108192116 -0.03262341 0.02338592 -0.06704477

decoder.0.weight f4 [64, 32, 3, 3]
000000 82 2d 4b 3c e5 37 52 3b 26 46 79 3b b7 b5 1a bd
       0.012400987 0.0032076773 0.0038036196 -0.037770953
000010 40 48 c6 3b 60 f6 db 3c 2c 4d 7f bc 54 ce 01 3d
       0.0060510933 0.02685088 -0.015582364 0.03169091
000020 0f f6 8c bc d6 1c 81 3c 4b 4e 72 3c ea d0 e3 3c
       -0.017207174 0.01576082 0.014789174 0.027809579
000030 b2 00 48 3d fe 07 e3 bc 84 b6 ab 3c 60 a5 6a bd
       0.048828788 -0.027713772 0.020961054 -0.05728662
000040 5d f0 3f 3d 3c 86 28 3b 69 da 8d ba 0e e7 aa 39
       0.046860088 0.0025714776 -0.0010822538 0.00032597076
000050 a0 ce 5d bd a8 9b 64 bd 73 e6 5a 3b 57 48 4a bd
       -0.05415213 -0.055812508 0.0033401519 -0.049385395
000060 3a 1a ef ba 13 db 9b bc 72 56 09 bd 77 56 68 bc
       -0.0018242069 -0.019025361 -0.033529706 -0.014180771
000070 0a d7 4c 39 87 ab 4e 3d d1 39 e4 bc b4 97 d7 3c
       0.00019535064 0.05045655 -0.0278596 0.026317455
000080 80 87 2e bd d7 0d 81 3c f6 88 1b 3d e6 77 6f 3d
       -0.04260969 0.01575367 0.037972413 0.058463953
000090 b2 80 3a 3d 77 a1 54 bc 5d 5f 3b 3d c1 a0 d3 3c
       0.04553289 -0.012977949 0.045745242 0.02583349
0000a0 e4 65 aa 3c 8a f9 25 3d 29 bd ba 3c bb f7 05 3d
       0.020800538 0.040521182 0.022795277 0.032706957
0000b0 92 33 03 bb 73 47 ee bb 2c 76 45 3d 06 20 c9 bc
       -0.0020019752 -0.007271701 0.0482084 -0.024551403
0000c0 7d f6 cb 3c a6 76 fb bc 99 55 4a bd 88 41 00 bd
       0.024897808 -0.030696224 -0.04939804 -0.031312495
0000d0 ad 84 3a bd b6 44 45 3c 6b 3e 8b 3c 18 aa 67 3d
       -0.045536686 0.012040308 0.016997537 0.0565587
0000e0 9b 92 61 3d c3 95 59 bd 55 cb 1e 3c 53 d5 57 bb
       0.055071454 -0.05312134 0.009692033 -0.0032933548
0000f0 67 79 f3 bc d5 54 b8 3b 5c b1 81 bc 3a ff b8 3c
       -0.029720975 0.005625347 -0.015831642 0.022582639
000100 59 37 69 bd c5 20 1c 3c c4 d3 bc bc 1b 5a 2f bd
       -0.05693755 0.009529297 -0.023050196 -0.04281054
000110 5d 03 94 3c d4 d5 e7 3a 6b 93 58 bd 19 98 b3 bc
       0.01806801 0.0017687627 -0.052874964 -0.021923112
000120 c7 19 9e 3c 61 97 5e bb 45 94 57 3d 40 d3 c4 ba
       0.019299401 -0.003396474 0.052631635 -0.0015016571
000130 77 eb 7a 3a 4b 5c 39 3d 4b 38 36 bd 58 5b a5 3c
       0.000957183 0.045254033 -0.04448728 0.020185158
000140 d8 0a 67 bd 48 a9 6d 3d 9d ea 85 3c e0 ab 3e 3c
       -0.056406826 0.058022767 0.016347224 0.011637658
000150 28 28 5b 3d 49 20 ab bc 2b e9 07 3d 31 0d a4 3a
       0.053505093 -0.020889418 0.03318135 0.0012516138
000160 31 34 84 3c b2 71 91 3c b3 88 1c 3d 5f 97 d3 3c
       0.016138168 0.01775441 0.038216304 0.025829015
000170 ec cc 7f 3c eb d0 59 3d ad a2 2f bd 9d 5f 34 3d
       0.015612822 0.053177755 -0.04287975 0.044036496
000180 55 85 65 bc 3c 96 36 3c 1d 98 c9 bc e3 f4 c5 bc
       -0.01400884 0.011144217 -0.024608666 -0.024164623
000190 5b 1d f9 bc e8 04 8b 3c 34 e9 b1 3c e6 32 84 bc
       -0.030409506 0.016970113 0.021717645 -0.016137552
0001a0 3e 2a 80 3c c1 2b 8b bc 0c 03 1f bd 02 b6 58 bc
       0.015645143 -0.016988637 -0.038821265 -0.013226988
0001b0 5c 22 f6 3c a0 90 a4 3c 2d 6d 5b bd e1 ed 41 bc
       0.03004568 0.020088494 -0.053570915 -0.0118365
0001c0 99 29 97 3a fc 7b 1f 3d 9f 24 27 bc fe c3 aa 3b
       0.0011532783 0.0389366 -0.010201602 0.0052113524
0001d0 67 c5 85 3c e0 dc 49 3d 8f db 33 3d 48 43 6a 3d
       0.01632948 0.04928291 0.04391056 0.05719307
0001e0 ee 3c 51 bc 87 f2 5d bd 3b bb 70 bd af 41 cf bc
       -0.012770874 -0.05418637 -0.058772307 -0.025299875
0001f0 68 b9 41 bb 9e 01 a5 ba 5b 62 81 bc c0 1d 9c 3c
       -0.0029559974 -0.0012588983 -0.01579397 0.019057155
000200 ed c1 5c bd 0d 0a 25 3d 82 2f 07 bd 47 d3 6d 3d
       -0.05389588 0.04029279 -0.03300429 0.058062818
000210 ac 37 af 3c 78 c2 3c 3c 51 10 28 3d ed 55 65 3d
       0.021388851 0.011520974 0.041031186 0.05599015
000220 86 8b 48 bd ef 07 38 bb 2d 5f 9f 3b bb 57 4c bd
       -0.048961185 -0.00280809 0.0048636408 -0.049888354
000230 05 da 44 3d 31 7f 3c bd 2f 5e 0e bd 14 ae 17 3d
       0.048059482 -0.046019737 -0.03475779 0.03703125
000240 32 8f 61 3d f3 88 68 3d 54 77 cc bc 43 60 18 bd
       0.055068202 0.05677123 -0.024959244 -0.037201177
000250 cf b3 0e bd 68 4a 00 3d fb 3c 40 bb 46 dc 88 bc
       -0.034839448 0.03132096 -0.0029333222 -0.016706597
000260 1f 2c e6 3c 29 88 d7 3c 29 99 6b 3d bd c9 62 3d
       0.02809721 0.026310043 0.05751911 0.055368174
000270 14 84 4b bd fc b4 2c bd 41 f3 63 3c f4 08 4f 39
       -0.049686506 -0.042164788 0.013912977 0.00019744394
000280 78 16 fb bc 1e 7c c5 bc c2 8c d7 bc 59 02 23 3c
       -0.030650362 -0.024107035 -0.026312236 0.00994929
000290 b9 02 6f 3d b6 59 ea 3c 44 d5 61 3d 2a 9e 04 bd
       0.058352206 0.02860723 0.055135027 -0.0323774
0002a0 56 5b 9a bc ac 0f 5d 3c 92 41 38 3d 91 88 18 bd
       -0.01884238 0.013492506 0.044984408 -0.037239615
0002b0 3e c1 1b bd bc 27 18 3d dc 23 7b 3c c1 a8 87 3c
       -0.038026087 0.03714727 0.015328374 0.01655996
0002c0 51 cb ce 3b ac 9c 1e bd f3 65 12 3d dd 15 28 3d
       0.0063108583 -0.038723633 0.035741758 0.041036475
0002d0 0f bd d5 3c 5e 13 22 3d 93 3f 08 3b e1 e8 46 bc
       0.026091127 0.03956925 0.0020789846 -0.012140484
0002e0 a2 2b ec 3b ed c3 07 3d f6 22 6e bd c9 35 6d 3d
       0.00720735 0.033145834 -0.05813881 0.05791262
0002f0 ef 19 46 bc 9a 7d 4a bd 84 e5 4e 3d 66 65 fc 3c
       -0.012091144 -0.04943619 0.050511852 0.03081007
000300 03 ab 40 3d e2 23 09 3c b8 d5 d5 3c a3 b7 5c 3d
       0.04703809 0.008370372 0.026102886 0.053886067
000310 6e 1c 6c 3a 5b 36 34 3d fc 55 1f bc 2a e5 d8 3c
       0.0009006922 0.04399715 -0.00972509 0.026476461
000320 ac 13 65 3d be 80 3d bc 3f b4 38 bd 1a 2c 1e bd
       0.055926964 -0.011566339 -0.04509377 -0.038616277
000330 ec f7 0e 3d b4 70 0f 3d cf 31 59 3d 47 94 fd 3c
       0.034904405 0.03501959 0.053026017 0.030954493
000340 ce 16 58 bd 39 1f 69 bd c0 9f 47 bd 5d a9 3e bd
       -0.052756123 -0.056914542 -0.048736334 -0.046548236
000350 d0 16 2e 3d e7 d9 17 bb 31 bb 3f 3d de fa aa bc
       0.042502224 -0.0023170651 0.04680938 -0.020871576
000360 dd fd 37 3d c0 98 43 3d a1 92 0e 3d 64 1d 71 bd
       0.044919837 0.047753096 0.034807805 -0.05886592
000370 1c c0 ac 3c d3 9b e3 bc 8c 70 04 3d 48 c2 0c 3d
       0.021087699 -0.027784264 0.032333896 0.03436497
000380 8c ab 6d 3d 17 f6 e6 3b a6 c2 4b bc 4e 6d 2c 3d
       0.058024928 0.007048379 -0.0124365445 0.04209643
000390 c9 22 14 bd 65 52 f4 bc d9 bf 9a bc b3 8d 5e bd
       -0.036165986 -0.029824445 -0.018890308 -0.054334354
0003a0 f5 4e 64 3d a0 70 2c 3d ca 43 6b bc 9b 93 f8 3b
       0.05573936 0.042099595 -0.014359424 0.0075859553
0003b0 8f b7 b7 bb dd 4d f7 3c f9 70 ec bc 63 ef 1d 3d
       -0.0056065987 0.030188495 -0.028862463 0.038558375
0003c0 24 1d a0 bc d5 ac 29 3c 3e 3d 93 bc 27 e4 31 bc
       -0.019545145 0.010356148 -0.017973538 -0.010857618
0003d0 6f 31 2b 3d f2 91 55 bd 98 f3 6e 3d 0d fa 5b bd
       0.04179519 -0.052141137 0.058337778 -0.053705264
0003e0 ff 93 cc bc 87 16 09 bd b6 bd 50 bd ba f3 2f 3d
       -0.024972914 -0.03346875 -0.050962172 0.042957045
0003f0 c6 58 d8 3c af 80 0a 3d 71 79 17 3c 2b 80 d3 bc
       0.026409518 0.03381413 0.0092452625 -0.025817951

decoder.0.bias f4 [32]
000000 24 06 45 3d a0 43 71 bc d7 f4 28 3d 69 05 67 bd
       0.04810156 -0.014725596 0.041249122 -0.056401644
000010 16 ec 0b bd fc 78 7f bc e6 f7 68 bd 57 ae 02 bd
       -0.034160696 -0.01559281 -0.05687704 -0.031904545
000020 10 a3 05 bd 5b 3e 17 3d 88 e9 67 3d f1 24 ba bc
       -0.03262621 0.0369247 0.056619197 -0.022722693
000030 69 85 52 3c 53 88 0e 3d cd b1 70 bd dc 64 6d 3d
       0.01284919 0.034797978 -0.058763314 0.057957515
000040 65 0c da 3c 76 a8 aa 3c 0b bc 9e bc f8 51 c4 bc
       0.026617238 0.020832282 -0.019376775 -0.023964867
000050 47 e6 ba 3c ab 97 54 bd ca 6a 36 3d 95 04 9a bc
       0.022814883 -0.051902454 0.044535436 -0.018801013
000060 cf 85 fc bc 3d 54 2c bd 66 5a 53 3d ef 09 53 3c
       -0.030825524 -0.042072523 0.051599883 0.012880786
000070 c4 b4 98 bc bc 45 10 bd 32 90 5d bd ce fc fa bc
       -0.018640883 -0.035222754 -0.054092593 -0.030638125

decoder.2.weight f4 [32, 16, 3, 3]
000000 2b ce 91 bc bf 79 87 3d a6 20 ff bc 70 10 bc bc
       -0.017798504 0.06615018 -0.031143498 -0.022957057
000010 76 29 0c 3c 5c 71 92 bd 36 09 2c bd 20 91 66 bc
       0.008554807 -0.07150528 -0.04200097 -0.014072686
000020 de 2f 88 bd 96 57 02 3d d0 5f a4 bc 9b f4 a4 bc
       -0.06649755 0.03182181 -0.020065218 -0.020136168
000030 26 86 cd 3c 8b f3 a5 bc 56 15 df 3a 46 e4 ab 3c
       0.025088381 -0.020257732 0.0017019908 0.020982873
000040 3e 75 11 3d ef b3 a7 bd ce 00 a3 bd 6b f0 ac bc
       0.0355122 -0.081886165 -0.07959138 -0.021110734
000050 1b 15 dc 3c e0 95 76 3c 3e 48 91 3d 76 05 09 3c
       0.026865533 0.015050381 0.07093857 0.008363118
000060 78 0e 34 3d 4b 1e d8 3c b8 19 41 3d 96 fe fe bc
       0.04395911 0.026381632 0.047143668 -0.031127255
000070 f6 9e 0e 3d 86 90 b9 bc 16 ac d7 bc 68 25 18 bd
       0.034819566 -0.022651922 -0.026327174 -0.03714505
000080 db 75 c0 3c 43 db a4 3d 50 cd 6e 3d 36 4f ea bc
       0.023493698 0.08049633 0.05830127 -0.028602224
000090 88 0c 03 3d b4 b7 83 bd 2b e8 41 3d 03 31 76 bd
       0.031994373 -0.06431523 0.047340553 -0.060105335
0000a0 50 ea 30 3d c2 15 9d bd 2b bb 4a bd 2b b9 92 bd
       0.043192208 -0.076701656 -0.049494904 -0.07164224
0000b0 80 a0 5e bc 53 8a 30 3d d3 fe 00 bd 56 76 6e bc
       -0.013588071 0.043100666 -0.03149302 -0.014554581
0000c0 6e 23 25 3d eb 6e 50 bc 7e 7f a8 bd 36 42 c0 bc
       0.04031699 -0.012721757 -0.08227442 -0.023469072
0000d0 bb 8b 9d 3c a0 97 f2 3c 30 60 91 3c c8 50 89 bd
       0.019231668 0.029613316 0.017746061 -0.06704861
0000e0 90 42 6e bd f0 f1 67 3d e3 85 07 3d 42 76 80 3d
       -0.058168948 0.056627214 0.03308667 0.06272556
0000f0 2b 23 a0 bd a6 f4 b0 3c 76 d1 12 3d a2 e0 9a 3d
       -0.07819208 0.021601032 0.03584429 0.075623766
000100 a0 61 44 bc eb d9 8f bd b4 a7 88 3d 4b 86 d4 3c
       -0.011986166 -0.070239864 0.06672612 0.025942942
000110 00 f1 44 3b 20 d8 92 3c cb 45 48 3c 5e 74 03 bd
       0.0030050874 0.017925322 0.012223671 -0.0320934
000120 10 2c 51 bd eb 53 89 bb 2e 8f 89 3d b6 be 3a bd
       -0.051067412 -0.004190912 0.067167625 -0.045592032
000130 9b 62 be bc ab c8 99 3c a6 e1 4f bd 0b 6c 9c 3c
       -0.023240378 0.018772444 -0.050752304 0.019094488
000140 9e bc 83 bd 5b 6e 51 bd 4b 76 89 3d a0 69 4e 3c
       -0.0643246 -0.051130634 0.06712016 0.012598425
000150 20 c8 0e 3d d6 d6 cc 3b 6e db 51 3d d6 f3 d3 3b
       0.034858823 0.0062511964 0.051234655 0.0064682765
000160 ab 38 55 3d 2b fa 41 3c b6 10 16 bc 90 da cc bc
       0.052055996 0.01183943 -0.009159258 -0.025006562
000170 06 dd a9 3c bb ac ac bc 86 b7 5f 3d bb 44 ac bc
       0.020735275 -0.021078458 0.05461838 -0.021028867
000180 ab 00 84 ba 78 5f 2e bd 08 88 7d bd 76 98 97 3c
       -0.0010071 -0.042571515 -0.061897308 0.018505316
000190 e6 db d1 bc 06 01 60 3d 8a d0 9a bd c6 9c 60 bd
       -0.025617551 0.054688476 -0.07559307 -0.05483701
0001a0 d0 c7 a2 3d 40 ef e1 bb 88 08 92 bd 28 24 67 bd
       0.079482675 -0.006894976 -0.071305335 -0.056430966
0001b0 00 66 1a 3b 60 2a 31 3d ce 67 88 bd 28 b0 7e bd
       0.0023559332 0.043253303 -0.06660424 -0.062179714
0001c0 23 0e 16 bd 3e 62 51 bd f8 a7 19 bd 33 bd 35 bd
       -0.036634576 -0.05111908 -0.037513703 -0.044369888
0001d0 33 9f 9f bd eb bc 8d 3c 2b e4 f3 bb 93 4f 5d bd
       -0.07794037 0.017301997 -0.007442971 -0.054030966
0001e0 54 65 84 bd 46 33 af 3c 54 b3 95 bd d6 f2 ca bc
       -0.06464639 0.021386754 -0.07309595 -0.024773996
0001f0 80 d6 77 3b db 91 88 3c 0b 50 a5 3c 56 8a 5a bd
       0.003781706 0.016671112 0.020179769 -0.053354584
000200 bb b3 d9 bc d0 58 f8 bc 76 30 34 bd e0 ba 37 bc
       -0.02657496 -0.030315787 -0.04399153 -0.011213988
000210 00 15 19 bc 9e 58 0e 3d 80 d7 8a 3c 4b 40 10 bd
       -0.009343386 0.03475248 0.016948462 -0.035217565
000220 8e 3a a6 3d ae 5e 3b 3d 00 69 94 3c 52 ba 88 3d
       0.08116637 0.04574459 0.018116474 0.06676163
000230 00 f6 85 3d 7e 33 2d bd 00 bb af bc 9b 2a e0 bc
       0.065410614 -0.042285435 -0.021451473 -0.027364066
000240 64 63 83 3d 90 ed 20 3d ab 7a cd ba a8 ba 0d 3d
       0.06415442 0.039289057 -0.0015676817 0.034601837
000250 73 18 5d bd c6 5b 2e bd 08 26 0b 3d 9b 0e 5b bd
       -0.053978395 -0.04256799 0.033971816 -0.053480726
000260 16 bc dc 3c 3b f4 12 bd 53 cf 2c bd 0a 05 8d bd
       0.026945155 -0.035877448 -0.042189907 -0.06885727
000270 76 92 b0 bc b0 c3 d2 3c 8b 85 0b 3d 60 06 d3 bc
       -0.021554213 0.025728077 0.034062903 -0.025759876
000280 26 bc 09 bd f0 5e 47 3d 3b 91 90 bc 80 6c f9 3b
       -0.033626698 0.048674524 -0.017647376 0.007611811
000290 fe 1a 2b 3d 2b c8 5b 3c 4c 54 83 3d dc 0f 89 bd
       0.04177379 0.013414423 0.06412563 -0.06692478
0002a0 f6 e3 2a bc 80 83 d8 3c e0 36 4f 3c 4b 44 98 bd
       -0.010430327 0.026429892 0.012647361 -0.07434901
0002b0 da 5b 81 bd 76 eb 8e 3c 80 f7 19 3b 23 95 05 3d
       -0.063163474 0.01744626 0.0023493469 0.03261293
0002c0 2b a2 7e bd 6e c2 23 bd 8b ba 39 bc b8 ab a0 3d
       -0.062166374 -0.039980344 -0.011335979 0.07845253
0002d0 3e fa 60 3d 56 ca 28 bc 62 eb 98 bd 9b 6e dd 3c
       0.05492615 -0.010302147 -0.07466771 0.02703028
0002e0 93 9e 79 3d 56 85 2e bc 56 3b ba ba 98 da 87 3d
       0.060942244 -0.010651907 -0.0014208357 0.0663349
0002f0 48 5c 58 bd 86 79 0a 3d a3 d3 50 3d f8 1d 4c 3d
       -0.05282238 0.0338073 0.050983083 0.049833268
000300 ab 40 a9 ba ab 90 7b bc 70 73 1e 3d 16 40 dd bc
       -0.0012912949 -0.015354316 0.03868431 -0.027008098
000310 56 2b 7f bd 60 96 81 bd 16 a3 85 bb ab 0f fa bc
       -0.062297188 -0.0632751 -0.0040782792 -0.03052505
000320 20 80 1a bd a6 2d 83 3c 0a 61 86 3d 58 32 8a 3d
       -0.037719846 0.016012978 0.065614775 0.067478836
000330 fe 4d a7 3d 9b fa 32 3d f6 2f ee bc 93 a5 a8 bd
       0.08169173 0.043696027 -0.029075604 -0.08234706
000340 7e fc 46 3d 56 d5 4c 37 2e b5 7e 3d 03 72 7f bd
       0.04858064 1.2209019e-05 0.062184505 -0.06236459
000350 4a 5d 85 bd e8 54 3d 3d ab 9f 9a 3b e4 59 a1 3d
       -0.06511934 0.04622355 0.004718741 0.078784734
000360 3b cd 7e 3d eb 44 d6 3b 00 bd c4 3c a6 d4 97 bc
       0.06220744 0.0065389774 0.024015903 -0.018534016
000370 8b 9d a0 bc 33 1a 79 3d 80 ad 77 bc 80 46 3b bc
       -0.019606372 0.060816 -0.015117049 -0.011430383
000380 20 c5 64 bd 2b a3 c4 3b 50 d9 bf 3c f2 40 a4 bd
       -0.055852056 0.0060008965 0.023419052 -0.080202
000390 ea 7a 83 bd 06 af 8c bc d0 53 96 bd 9e 23 2d 3d
       -0.06419928 -0.017173301 -0.07340205 0.042270295
0003a0 ab e2 b0 39 12 a9 a6 3d a6 57 8b bc a2 a8 a0 bd
       0.00033738217 0.08137716 -0.017009567 -0.07844664
0003b0 4b ff 8a 3d 46 6f 8a 3c 78 16 85 bd db dc c9 bc
       0.067869745 0.016898762 -0.06498426 -0.024641445
0003c0 18 42 01 3d 2f 71 86 3d 03 a1 0b bd e6 9e 12 3d
       0.031557173 0.06564557 -0.0340891 0.03579607
0003d0 d6 d4 45 bb a0 62 59 bd 28 c1 86 bd 0b b2 e6 bc
       -0.0030186675 -0.05307257 -0.065798104 -0.02816107
0003e0 eb f4 b4 3b fe 30 69 3d ec 2f 89 bd f8 fd 1b 3d
       0.0055223606 0.05693149 -0.066985935 0.038084
0003f0 1b 17 64 bd 40 77 d8 bb bb 1e a4 3d 0e 58 5a bd
       -0.055686098 -0.0066060126 0.08013674 -0.05330663

decoder.2.bias f4 [16]
000000 c0 b5 5c bc a0 54 46 3d 03 74 96 3d bb fd 48 3d
       -0.013471067 0.04842055 0.07346346 0.0490701
000010 76 73 c4 3c f0 a8 1b bd 40 cb 5b bd 8e bb 0a 3d
       0.023980837 -0.03800291 -0.05366063 0.033870272
000020 97 3d 93 3d 70 62 d9 3c b0 ab dd bc 56 d7 2a 3d
       0.07189482 0.026536196 -0.027059406 0.041709267
000030 9b 74 63 3d 0a ee 8f 3d d6 8f a7 3d b6 15 d5 3c
       0.055531126 0.07027824 0.081817314 0.02601133

decoder.4.weight f4 [16, 1, 3, 3]
000000 96 c9 61 be 1f df 8e 3e 5e fd 60 be 0b 31 91 3d
       -0.22049555 0.27904603 -0.21971652 0.07089432
000010 d0 31 08 be 20 73 a1 3d 66 6d 7a be 96 fd 1d be
       -0.13300252 0.078832865 -0.24455795 -0.15428767
000020 76 ae 4f bd 13 f1 42 3e c3 f4 7b 3e b8 e3 14 be
       -0.05070349 0.19037275 0.24605088 -0.14539993
000030 5b cf e3 3d 78 6d aa 3e c0 e2 d0 3c fe ea 63 3e
       0.11123534 0.33286643 0.025498748 0.22257611
000040 e3 4d 34 be 86 7f e0 3d 16 2c 0b bd 60 17 7c 3d
       -0.17607836 0.10961823 -0.03397759 0.06154573
000050 00 5c 9a 3a 96 20 d8 3c c2 b6 88 be 9b a5 d0 3d
       0.0011776686 0.026382726 -0.26701933 0.10187837
000060 ae ed 39 3e a0 20 3d be 6a 46 8e 3e 78 45 07 be
       0.18157074 -0.18469477 0.27788097 -0.13210094
000070 96 1f 08 bd 1b ca 6a 3e 43 20 26 be ab 88 ec 3d
       -0.033233248 0.2292866 -0.16223244 0.11549505
000080 62 28 a9 3e 9b d7 a1 3d 80 5b c3 bc 38 30 43 be
       0.33038622 0.079024516 -0.023847342 -0.19061363
000090 00 1c fb bc 56 02 ad 3c 07 b4 a5 3e 30 99 5e be
       -0.030653 0.021119278 0.32363912 -0.21738124
0000a0 2f e6 9c 3e b6 d0 de 3d 68 0c 9b be 74 93 82 3e
       0.30644366 0.10879652 -0.30282903 0.25503123
0000b0 56 d5 b7 3a 60 84 30 be 56 fd 7f bd 3f 9d a1 3e
       0.0014025371 -0.17237997 -0.06249746 0.31565282
0000c0 8b 95 42 3d 0b 33 5d 3e 4b 92 ea bd 48 5b 25 3e
       0.047505897 0.21601503 -0.114536844 0.16148102
0000d0 87 50 8f 3e 40 01 48 3d 4b 01 82 3e b6 c2 69 3e
       0.27991125 0.048829317 0.2539161 0.22828183
0000e0 e0 fc 8a bd 28 d4 22 3e 7b 46 2f be 40 57 c8 bd
       -0.06786513 0.15901244 -0.1711673 -0.097822666
0000f0 b3 a6 75 be 16 03 54 bd 2b 7e 0b 3e 3c 07 98 be
       -0.23989372 -0.051760755 0.13622348 -0.2969302
000100 d4 12 9b be c8 16 76 3e 28 6c 2a be 1b 35 14 be
       -0.30287802 0.24032128 -0.16642821 -0.14473383
000110 f6 3a 8f be 3b 66 9f 3d ff de 9f 3e ab ce 91 3e
       -0.2797467 0.07783171 0.3122482 0.28477988
000120 a6 b8 2e 3e 3b 0d 8d be ab d5 81 bb 66 fd 0c 3e
       0.17062625 -0.27549157 -0.003962239 0.13768539
000130 86 69 a4 3d 26 0f 6a 3e f3 45 92 be 6e 28 a9 3e
       0.080279395 0.22857341 -0.28568992 0.33038658
000140 b3 4b 90 3e eb 80 bb bc 43 fb 77 be cb 0a fb 3d
       0.28182754 -0.022888621 -0.24216942 0.12257918
000150 a6 c2 47 be 8e 21 33 be 26 9f 8d bd 9b 71 15 3e
       -0.19507846 -0.17493269 -0.06915121 0.14594118
000160 2e dc 8f be 2b d7 1d 3d 28 3b 89 be 26 3b 0a 3e
       -0.2809767 0.03853528 -0.26802945 0.13499126
000170 88 dd 4a 3e c8 1d 08 3e 00 28 c1 bc 00 3d 35 3d
       0.1981107 0.1329261 -0.023578644 0.044247627
000180 10 2a 7b be f3 10 95 3e 00 54 ac 3d 60 50 d1 3d
       -0.24527764 0.29114494 0.08414459 0.102204084
000190 af f9 96 be 7e 9e 4a 3e 48 b5 1f be 60 08 18 bd
       -0.29487368 0.19787022 -0.15596497 -0.037117362
0001a0 d6 16 7a 3e 40 af 93 3c a6 f8 b7 3d 80 a1 91 be
       0.24422774 0.018027902 0.08982973 -0.28443527
0001b0 76 ae 10 3d 30 80 f4 3d 00 93 0d 3c cb 20 44 be
       0.03532263 0.11938512 0.008641005 -0.19153135
0001c0 e0 ba 9f 3e a0 1c 86 3e 56 d5 87 3d 0b 36 c8 bd
       0.31197262 0.26193714 0.066324875 -0.09775933
0001d0 5e 7d 8f be 38 e8 63 3e a8 97 8f 3e 40 50 81 bd
       -0.28025335 0.22256553 0.28045392 -0.063141346
0001e0 00 f8 17 3e 76 23 bb 3d e0 2d b7 3d ab bc 00 be
       0.14840698 0.09137623 0.08944297 -0.12571971
0001f0 b0 d2 97 be 57 60 87 3e 4a c3 a5 3e f2 97 8d 3e
       -0.2965293 0.2644069 0.32375556 0.27654988
000200 00 9f 05 3c 93 aa 7c be 50 d5 b4 bd 2f 75 88 be
       0.008155584 -0.24674444 -0.08829749 -0.26651904
000210 d0 2f 9e 3d 5b d3 d8 3d 06 6d 1b be 96 50 b6 bc
       0.07723963 0.10587188 -0.15178308 -0.022255223
000220 cb 64 06 be 20 54 aa be b6 b3 89 bd 1e d0 52 3e
       -0.13124387 -0.33267307 -0.0672373 0.20587203
000230 76 97 00 be 80 72 f6 bd 46 38 4e be 13 1e 73 3e
       -0.12557778 -0.12033558 -0.20138654 0.23741941

classifier.1.weight f4 [128, 1024]
000000 6b d6 57 3d 8c 4d 44 bc f8 36 38 bd 0e 1a b9 bc
       0.05269472 -0.011981379 -0.044974297 -0.022595432
000010 ed 5c f4 bd bc 10 46 bb 37 13 49 3d 07 46 7b bd
       -0.11931787 -0.0030222377 0.04909059 -0.06134608
000020 8a 45 ca bd b6 94 45 bd aa b3 b4 3d 6f 0b e0 bd
       -0.09876545 -0.048237525 0.08823331 -0.10939681
000030 06 62 8b 3d 25 53 cf 3d 2c 25 bd 3c e3 0a bd bc
       0.06805806 0.101232804 0.023089014 -0.02307648
000040 a5 78 cf bd 0c 2c 6f bd 8a 15 00 3e 3a 1a 4e bd
       -0.10130433 -0.058391616 0.12508217 -0.05031798
000050 1c 5b 04 bc e2 91 c4 3d 2d 15 22 bd 47 58 34 bc
       -0.008078363 0.095981374 -0.039570976 -0.011007375
000060 13 6b d6 3c 1b 3b 88 bb 4e 2b b6 bc 1c 97 23 3d
       0.026174104 -0.0041574365 -0.022237446 0.03993903
000070 b3 1a a6 3c f8 8f 80 be f8 44 a3 bc 38 d7 9a 3b
       0.020276403 -0.2510984 -0.019930348 0.004725363
000080 c1 5b 3e bb a1 76 7e bd c0 1d d0 bd 77 ac 43 3b
       -0.0029046389 -0.062124852 -0.10161924 0.0029857436
000090 3d f1 67 bb 2e 2d b6 bc 1f 65 48 3d ba 8a a4 3d
       -0.0035391592 -0.02223834 0.04892456 0.080342725
0000a0 be a8 4a 3d 8b fa f7 bc f2 4f e9 bc c0 50 ac bd
       0.04947733 -0.030270835 -0.028480504 -0.08413839
0000b0 2e d7 c7 bc 4c 82 5b 3d 8d e7 32 3d 52 72 2f bd
       -0.024394598 0.053591058 0.043677855 -0.042833634
0000c0 63 54 c9 3d ba 8c ab 3b e8 22 7b 3d 99 19 dc 3d
       0.098305486 0.005235282 0.061312586 0.1074707
0000d0 b7 d2 15 bd 16 a7 64 3d 83 ca 10 be 93 67 0f bd
       -0.036577906 0.055823408 -0.14139752 -0.035010885
0000e0 83 45 7c 3d 8b b7 75 bd 93 1c c6 3b c8 0b ad 3d
       0.06158973 -0.059989493 0.006045887 0.08449513
0000f0 a2 cf b1 3b 3d bc 08 be 91 87 c4 3d ff 8c 4b bd
       0.005426363 -0.13353057 0.0959617 -0.04969501
000100 43 1e 84 bc 8c 29 f7 bc c7 5f a7 3d 89 1e f5 3c
       -0.016127711 -0.030171178 0.08172565 0.029921787
000110 3f 0a 7f bd 53 ce 82 bd 94 3b 6d 3d 39 b2 1c 3d
       -0.06226563 -0.063870095 0.057918146 0.038255904
000120 dd 57 4b bd 3b 56 08 be 53 87 a5 bd 76 ca 99 3a
       -0.04964434 -0.13314144 -0.08082452 0.0011733312
000130 e9 8b 50 bd ed 8e 9a 3d 54 07 a2 3c 95 ac ae bd
       -0.05091468 0.07546792 0.019778885 -0.08529011
000140 ff cb 20 bd 59 91 24 be 6f 82 35 bd 3f 19 fd bc
       -0.039257046 -0.1607107 -0.044313844 -0.030895827
000150 6c 3a 5a bd 32 70 c4 3d 71 79 70 3d 3a f3 c7 bc
       -0.05327837 0.09591712 0.058709566 -0.024407972
000160 b3 03 07 bd 7f da 23 3d ce 5a 0f 3d 4a f3 8e 3c
       -0.032962512 0.040003296 0.034998707 0.017449994
000170 98 cb 0c be 49 61 d0 bd f9 2c 64 3c b8 60 80 bc
       -0.1374954 -0.10174806 0.013926738 -0.01567112
000180 19 42 f3 bc b5 f3 31 be f4 11 0b be 95 cc ad bd
       -0.029694604 -0.17378123 -0.13581067 -0.084862866
000190 6f fd 40 bc 7e 94 a3 3c ae eb 0a 3c dc 5d 06 be
       -0.011779173 0.019968268 0.008479042 -0.13121742
0001a0 b1 67 86 bc 2f 34 fa bb ac 7b c0 bd 74 de 1d be
       -0.016406866 -0.0076356153 -0.093985885 -0.1541689
0001b0 be 07 84 3d 4b 73 87 3d 8e 58 de bc 9c b7 91 3b
       0.06446789 0.06613787 -0.027141836 0.004446937
0001c0 76 1b 9e bb b9 c8 3c 3d a1 4a b2 3d ec ad 8f 3d
       -0.004825051 0.04608986 0.087056406 0.07015595
0001d0 66 6b e8 3c 9d 3e f2 3d 2c 3e e4 bd ad 02 9e bd
       0.028371524 0.11828349 -0.11144671 -0.07715354
0001e0 4d f6 54 3d b8 73 87 3d 67 41 37 3c 6d 80 35 3d
       0.051992703 0.066138685 0.011185027 0.04431193
0001f0 3e c5 c6 bd 91 32 38 bd 4e aa f6 bd 8b 39 27 bc
       -0.0970559 -0.0449701 -0.12044202 -0.01020659
000200 f2 21 3b bd 45 d8 0f be 60 38 7f 3d 16 8c 96 3d
       -0.04568667 -0.14047344 0.062309623 0.07350938
000210 e2 a0 ec bc 7f 57 41 3e 7c 90 7e 3d 55 9d 9d bd
       -0.028885309 0.18881033 0.06214951 -0.07696024
000220 28 aa 4d bd 78 bc db 3d 83 57 78 bd a0 2c cb 3c
       -0.0502111 0.10729307 -0.060630333 0.024801552
000230 2e cf 84 bd 91 82 c9 bc b2 72 c7 bd 27 0c af bc
       -0.06484829 -0.024598392 -0.09738673 -0.0213681
000240 a5 62 83 bc dd 25 f4 bd 08 4a eb 3c 7f 6e 88 3c
       -0.016038248 -0.11921284 0.028721824 0.016654251
000250 19 cd 1d bd 5a a0 4f 3b 4c 9d 89 3a 70 f7 11 bd
       -0.038525674 0.003168127 0.0010499149 -0.035636365
000260 f5 22 bb 3b 72 69 15 3c 35 f4 39 3d 0c 6b b9 bc
       0.0057109543 0.009119378 0.04539891 -0.022634052
000270 d7 b1 12 3d 5b b2 13 be c1 61 8d bd 53 aa 1a bc
       0.035814133 -0.14423506 -0.06903411 -0.0094400225
000280 72 2e 6b bd fd 22 b1 bd 7e 3a 1a be b7 34 78 bd
       -0.05741734 -0.086492516 -0.15061375 -0.060597148
000290 58 bb bd bc 91 25 b2 3c 51 0e cc bb f6 f1 5a bd
       -0.023160622 0.021746429 -0.0062272926 -0.05345341
0002a0 3f 44 3d bc e5 b7 77 bc 1b 50 4d 3c 35 79 85 bc
       -0.011551916 -0.0151195275 0.012531306 -0.016293148
0002b0 5b 89 92 3d 84 b6 2a 3d 12 b4 e5 bd a7 63 93 bd
       0.07155105 0.041677967 -0.11215986 -0.071967416
0002c0 8d ac 4d bd 9f 4e cd 3d 68 0e 77 bd 13 52 98 3c
       -0.050213385 0.100247614 -0.060316473 0.018593824
0002d0 31 44 5f 3d 50 ab 25 bd ed 1f 4d 3d 0d 49 cf 3c
       0.05450839 -0.04044658 0.050079275 0.025303388
0002e0 a6 a7 c6 3d 08 85 d7 bd f8 aa 6c bd ff b9 82 3b
       0.09699945 -0.105234206 -0.057780236 0.0039894576
0002f0 2b ca 3e be 85 12 a2 3c 70 69 87 3c 96 da ef 3b
       -0.18631808 0.019784221 0.016529769 0.0073197586
000300 e7 92 8e bd 2f cf cb bd b7 03 55 3d 90 02 f4 3c
       -0.06961613 -0.099516265 0.052005496 0.029786378
000310 ed 27 16 be 99 15 e6 bb 5b 0b 1e 3c 9c c8 af bb
       -0.14663668 -0.0070216176 0.009646262 -0.0053644907
000320 88 74 69 bd 1a aa 74 bd 28 58 a1 bd d2 ef 31 bd
       -0.0569959 -0.059732534 -0.078781426 -0.0434416
000330 45 c1 f2 3c 0e 98 cb bb 30 ca ac 3d f9 16 b0 bc
       0.029633174 -0.0062131947 0.08437002 -0.02149533
000340 ee 4b 9d bd 89 81 02 bd fb 31 b6 3c 4c 92 7a ba
       -0.07680498 -0.031861816 0.02224063 -0.0009558543
000350 d4 35 2c 39 bd 54 b5 3d 36 14 b7 bd 42 5d d5 3c
       0.00016423251 0.08854053 -0.08939402 0.026045445
000360 42 58 7a 3d 86 1f 24 bc d1 62 34 bd 2d d2 21 bd
       0.061119325 -0.010017281 -0.04403955 -0.03950708
000370 d5 ed 19 be 6f 74 01 be eb 0d 8e 3d af 4e 8a bc
       -0.15032132 -0.12642072 0.069362484 -0.016883222
000380 42 a9 c2 bc a2 10 23 bc d0 da 9c bd 5f 8d 72 bd
       -0.023762349 -0.009952696 -0.07658923 -0.059216853
000390 2c 71 a5 bc fb b2 38 bc aa 2e 60 3d b9 e8 b1 bc
       -0.020195566 -0.011273141 0.054732002 -0.021717416
0003a0 ee 4d c7 3d 3c 56 19 bd f7 d2 c2 bc 7f 52 01 bd
       0.09731661 -0.037435755 -0.023782237 -0.031572815
0003b0 af 09 79 bd 07 51 a3 3d 27 00 47 3a 84 4c 8b bd
       -0.06080025 0.07974439 0.000759127 -0.068017036
0003c0 b6 1a bc 3b 0a ca 6e bd 36 1c 8e bd 44 db 28 bd
       0.005740489 -0.05829815 -0.069389746 -0.041224733
0003d0 c7 4b 50 bd c4 15 3b 3d 74 ca 08 3e 7f f7 8f 3d
       -0.050853517 0.045675054 0.1335848 0.07029628
0003e0 49 6d ce bd 17 33 1a bd 1b 3d e6 3c 0b 3e 10 bd
       -0.10079438 -0.03764638 0.02810531 -0.03521542
0003f0 1c 2a c6 bc c3 42 94 3d 93 48 44 3d 95 07 87 3d
       -0.024190001 0.07239296 0.047920775 0.06593243
