best_model_epoch_1.pth (torch, 741122 bytes, 15 tensors)

encoder.0.weight f4 [16, 1, 3, 3]
000000 d8 a0 30 3c 85 5d 2d be 0e f8 67 be e1 b7 ad be
       0.010780536 -0.16930206 -0.22653219 -0.3392935
000010 70 6a 0a be 01 ac 2f be 90 a3 9f be 42 ab ca be
       -0.13517165 -0.17155458 -0.31179476 -0.39583784
000020 71 89 d1 3d dc 86 bb bc 7c c4 28 be 09 bb c7 3d
       0.10231293 -0.022891454 -0.16481203 0.09752471
000030 ba 35 ea bd 37 03 fa bd 2a 46 ee 3e d1 af 22 bd
       -0.11436029 -0.122076444 0.46537906 -0.039718453
000040 34 3c 93 be 0e a1 c2 3e 55 53 28 3e c1 b8 aa 3e
       -0.2875687 0.380135 0.16438039 0.3334408
000050 8b 3c a2 be fb 21 f5 3e 39 21 0b be 10 b2 13 3e
       -0.31686816 0.47877488 -0.13586892 0.14423394
000060 7d 20 c8 3e 0e b8 8a 3e 82 95 9d be a1 c2 21 3f
       0.39087287 0.27093548 -0.30778128 0.63187605
000070 88 41 ec bb fa bd 98 3d b0 4f d7 3d c0 18 74 3c
       -0.0072099604 0.0745811 0.10513246 0.014898479
000080 2b 5f 24 3e 88 51 22 3e db 7b 43 be d5 72 03 bf
       0.16051929 0.15851414 -0.19090216 -0.51347095
000090 c2 b4 c0 3e 5b 20 d6 3e 14 e1 7a 3e d1 0c f8 3e
       0.37637907 0.4182156 0.24499923 0.48447278
0000a0 84 cc 85 3c d8 0e a8 bd e8 b4 de 3d f0 b1 b2 bc
       0.016332872 -0.08205956 0.10874349 -0.021813363
0000b0 aa 7c 04 3d ec 62 5c bd 00 35 32 3d ac e9 8a be
       0.03234545 -0.053805277 0.043507576 -0.27131402
0000c0 fd 5d e2 3e 5b 21 0d 3f de 9b d8 3e 96 15 9c 3d
       0.44212332 0.5512902 0.42306417 0.07621305
0000d0 0a f7 d3 3e b4 cf 5d 3d 89 34 58 be 76 2e f8 bd
       0.41399413 0.05415316 -0.2111379 -0.12118237
0000e0 b3 04 fa be e8 93 f4 3d 6e 2f fe be 89 97 e8 bd
       -0.4883171 0.119422734 -0.4964556 -0.11357028
0000f0 69 7e a3 be 58 5f a9 bd 59 33 51 be a3 23 37 3d
       -0.3193238 -0.082701385 -0.20429744 0.04471172
000100 1f 8b a1 be 84 52 f0 be 04 ee d5 be 0b 09 4e be
       -0.31551453 -0.46937954 -0.41783154 -0.20120637
000110 70 f3 89 3d 71 5e d5 be 57 38 b2 bb 69 85 c9 be
       0.06735885 -0.41673616 -0.005438845 -0.39359596
000120 ba 97 ba 3d 5e a1 f8 be 4b 07 36 be 35 9b d8 be
       0.09110971 -0.48560613 -0.1777622 -0.42305914
000130 3c 39 3a be 82 cb 3d 3e 5c d8 18 bd 49 3a 40 be
       -0.18185896 0.18534663 -0.03731571 -0.18772234
000140 71 dc 55 3e 97 6d bc 3e 48 b7 f2 bd 73 ec d2 be
       0.20884873 0.3680236 -0.118513644 -0.4119602
000150 34 d6 a6 3e d9 f5 24 be 73 e9 d0 bd fa fa 63 3d
       0.325853 -0.16109408 -0.10200777 0.05565927
000160 be 0e 02 bc cb d1 b1 3e 5c fa e3 3d 09 26 8e bd
       -0.007938085 0.34730372 0.11131737 -0.069408484
000170 33 12 c3 3e 49 cd 89 3e 4d f3 d1 3e d3 f3 ca 3e
       0.38099822 0.26914433 0.41005936 0.39639148
000180 88 f1 5d 3e de 9a 06 3f 3a 62 d1 3e f1 ed da bd
       0.21674168 0.5258006 0.40895253 -0.10689915
000190 f1 02 09 be f4 37 89 be 8e 67 9a 3d 1c 0a 8b bd
       -0.13380028 -0.268005 0.07539283 -0.067890376
0001a0 84 b6 bd 3e 2d 0a c5 3e dd ed c2 3e 2d 99 c6 3e
       0.3705331 0.38484326 0.380721 0.3878874
0001b0 a8 83 d3 3e ec 07 84 3e 52 67 71 3e e7 14 00 3c
       0.41311383 0.25787294 0.2357457 0.0078174835
0001c0 f7 b5 c8 3e 4c dd 6d 3e b0 71 b0 3e 83 7f aa ba
       0.39201328 0.2322895 0.34461737 -0.0013007972
0001d0 d4 ef 3e 3e e5 0c 4d be 23 4c f3 bd 19 e0 a6 3e
       0.18646175 -0.2002445 -0.11879756 0.32592848
0001e0 0d 6e 87 be 28 9b b6 3e 87 d3 47 3e 9f f8 23 3e
       -0.2645115 0.3566525 0.19514285 0.1601281
0001f0 f4 b6 01 3e 07 42 fa 3e 5c b2 de 3d 77 bb fc 3e
       0.12667447 0.488785 0.10873863 0.49361774
000200 d2 f0 cd 3d 2d 2a d2 3d a5 fb db 3e e7 0f 91 bd
       0.100556985 0.10261951 0.42965427 -0.07083111
000210 d7 12 31 3e b0 f3 fc 3e ea 05 29 3d 6a 77 54 be
       0.17292343 0.4940467 0.041265406 -0.20748678
000220 78 b1 31 be 52 81 b8 3e 1c a4 62 be ee c4 68 3e
       -0.17352855 0.36036164 -0.22132915 0.22731373
000230 46 b0 2e be eb 58 81 bc fa e3 dc 3e c8 d9 91 be
       -0.1705943 -0.01578947 0.43142682 -0.28486466

encoder.0.bias f4 [16]
000000 16 c0 99 3e ea 76 85 3e 6b c6 aa 3e f0 4b 61 3d
       0.30029362 0.26067287 0.33354506 0.05500406
000010 72 32 94 3d 06 b4 1c ba 2b 3c 5f 3e b3 c3 cb 3e
       0.07236184 -0.00059777533 0.21800296 0.39797744
000020 9f d6 38 3e f9 60 ac 3b 17 cb 24 3c a2 53 80 bb
       0.18050621 0.0052605835 0.010058186 -0.00391622
000030 19 ef 13 3e c4 37 bb 3b 56 38 d9 3c e7 61 92 bc
       0.14446677 0.005713435 0.02651612 -0.01786895

encoder.2.weight f4 [32, 16, 3, 3]
000000 b3 6c 89 be dd 1c c6 3d ab bc 17 3d 32 87 10 be
       -0.26840743 0.09673474 0.037045162 -0.14114073
000010 1c c5 88 3c c1 06 1b 3d 12 5e 48 be f8 7b 0e 3e
       0.016695552 0.037848238 -0.19567135 0.13914478
000020 c7 b8 a9 3d c7 13 d5 bb 8d a3 01 be 90 19 6a 3d
       0.082871966 -0.006502602 -0.12660046 0.057153285
000030 de 3f 00 bd 25 ba f0 bd 33 3d 35 bd 4e 4a 30 bd
       -0.03131091 -0.11754254 -0.044247817 -0.043039612
000040 b0 04 06 3d 6e 0e 02 3e bd 76 62 3e ca 06 92 3d
       0.032719314 0.12700817 0.22115608 0.07130201
000050 45 0d 51 bd dc 6e 23 3e 3d fc 19 3c c4 6b 02 be
       -0.051038045 0.15960258 0.009398517 -0.12736422
000060 94 0a 7f 3e 6a ca 4c 3c b0 66 48 bd 43 e6 cd 3d
       0.24906379 0.012499431 -0.048926055 0.100536846
000070 36 ad 53 3e 29 e6 cc bd b0 93 63 3e 18 03 d8 3d
       0.20671543 -0.10004837 0.22224307 0.10547465
000080 e1 e4 23 be 84 f2 e3 3d b1 5f 43 3e e2 71 47 be
       -0.16005279 0.111302406 0.19079472 -0.19477037
000090 bc 8c 51 3e fe e6 00 3e 79 42 12 be b1 86 68 3e
       0.20463842 0.12588117 -0.1428317 0.2270763
0000a0 6c ce 1c bc be 86 d6 bd 66 3e 80 3e 7f 6c be 3c
       -0.009570699 -0.10474919 0.25047606 0.023245094
0000b0 b6 9a c9 bd 5a 0b 31 3e fd 51 8e 3c fc ab 5d be
       -0.09843962 0.17289487 0.01737308 -0.21647638
0000c0 dd 3d 62 3e 00 43 21 be 37 31 8f be 95 a8 22 3e
       0.22093911 -0.15748215 -0.27967235 0.15884621
0000d0 ed 18 0c bd 7b 7e fa bd af 07 82 be 57 bc a7 3d
       -0.03420346 -0.122311555 -0.25396487 0.0819022
0000e0 10 51 fc 3c 15 7c 81 be 22 22 f6 3d 8a 68 0b 3e
       0.030800372 -0.2528998 0.12018229 0.13614097
0000f0 7c 85 31 bd 27 9a 1f 3e 2c 23 c8 3c 3d 3f 56 be
       -0.04334019 0.15586148 0.024430834 -0.20922561
000100 03 a2 07 3e d9 8d 9a 3d b1 d9 14 be 22 47 77 3b
       0.13245396 0.075465865 -0.14536168 0.0037731607
000110 1a 4f e5 3d 9d 85 15 be 21 95 00 3d b9 73 da 3b
       0.11196728 -0.1460175 0.03139222 0.0066666272
000120 04 69 09 be 17 56 ec 3d 84 db 33 3e af 47 6b be
       -0.13418967 0.11539858 0.17564207 -0.22976564
000130 a5 4f 50 bd e6 99 12 3e c4 2b 05 be 25 e2 61 3d
       -0.050857205 0.1431652 -0.13004977 0.05514731
000140 05 f4 ca 3d e9 4b 37 3e ed 3b 03 3e 18 f6 66 bd
       0.09909824 0.17900051 0.12815829 -0.056387037
000150 a7 13 50 3e 0f 48 e2 3d ec 6b cb bd a6 6f 39 3e
       0.20319997 0.110489 -0.09932694 0.18108997
000160 50 7b 7a 3e 6a 99 1b bd 12 48 54 3e 25 2b e4 bd
       0.24461102 -0.037988104 0.20730618 -0.11141042
000170 94 af 63 be 3c 8c 62 3e 2f 3b 9d bd 3e 4f 84 be
       -0.22234946 0.22123808 -0.07677304 -0.25841707
000180 1c f4 0a 3e fa 55 fe bd 73 f5 b8 bc a0 1c e4 3d
       0.13569683 -0.124187425 -0.022577977 0.11138272
000190 aa d3 0f be 9a 82 0d be c4 2e 56 3e 13 61 54 bd
       -0.14045587 -0.13819352 0.20916277 -0.05185039
0001a0 fa e4 40 be 36 c1 21 3d 3e 42 6b bd f8 2b 19 3d
       -0.18837348 0.0394909 -0.05743622 0.037395447
0001b0 f0 dc 0f 3e ef a4 10 bd 72 38 c6 bd 8d fb 4b 3e
       0.14049125 -0.035313543 -0.09678735 0.19920178
0001c0 b0 4c a2 bd 24 1f 02 be 32 27 bb 3d 10 b1 ce bd
       -0.07924783 -0.12707192 0.09138335 -0.10092366
0001d0 d4 1e f5 bd 12 3a 33 3e 1c 79 6b be db f4 e1 bd
       -0.119687706 0.17502621 -0.22995418 -0.110330306
0001e0 88 ea 39 3d fb d1 11 be 60 e8 e8 3b 21 1c 24 3d
       0.045389682 -0.14240257 0.0071077794 0.04006589
0001f0 fe 69 5a be d0 c4 e8 3d 7a 8c 8b 3e 87 93 ca 3c
       -0.21329495 0.11365664 0.27255613 0.02472855
000200 af 17 65 be 5e d5 32 3e 37 e1 b8 bd 22 63 50 be
       -0.22372316 0.17464206 -0.09027331 -0.20350316
000210 ff 49 78 3e d4 14 9f bc 18 c8 e9 bd 22 03 27 3d
       0.24246977 -0.019419111 -0.11415118 0.040774472
000220 80 f3 5c be db 6d 80 bd 03 10 33 3e ad 5f 6b be
       -0.21577263 -0.06270953 0.17486577 -0.22985716
000230 51 de 97 bd 9c 8e ff 3d ed fa ca be 72 24 8f bd
       -0.0741545 0.124783725 -0.39644566 -0.06989373
000240 94 0f de ba 2d ce a3 bc d4 49 5c bd 53 a0 73 3c
       -0.0016941899 -0.019995773 -0.053781345 0.014869767
000250 1c 80 72 3c 4d 7a 94 bd 25 9a 24 3e a2 cc 17 3e
       0.0148010515 -0.072498895 0.16074426 0.14824155
000260 c9 b9 e5 3d f2 2b 51 3d 94 74 e4 3c 4e 3b a3 3d
       0.11217076 0.0510673 0.02788762 0.07970296
000270 7f 43 dd 3d e2 9a 63 3d fc af 4a 3d 35 86 87 bd
       0.108038895 0.05556763 0.049484238 -0.06617395
000280 55 ef 64 3d f9 dc d9 3a ec b5 49 be ea 1f e2 3d
       0.055892307 0.0016621641 -0.19698304 0.110412434
000290 5b 8e 50 3e 37 bd 20 bd 2e 77 87 3d 00 55 47 3c
       0.20366804 -0.03924295 0.066145286 0.012166262
0002a0 d5 a9 b3 bd e7 22 e1 bd e8 17 67 3d 00 ef 31 be
       -0.08772627 -0.10992985 0.056419283 -0.17376328
0002b0 79 97 c6 bc 6a 92 6d 3e 17 d4 c4 3c 95 f7 bd 3b
       -0.02424215 0.23200384 0.024026914 0.0057973363
0002c0 59 ba 87 bb 14 18 0e 3e 67 b2 95 bc 49 02 0c be
       -0.0041420874 0.13876373 -0.018273545 -0.13672747
0002d0 20 d0 94 bd 73 5f b9 3d b6 d8 8e 3e 81 a4 5c bd
       -0.07266259 0.090514086 0.27899712 -0.05386782
0002e0 a2 d3 ae 3d ee ef 46 3e 80 c5 d1 bc 08 4e 96 bd
       0.085364595 0.19427463 -0.02560687 -0.07339102
0002f0 57 61 5b 3c be 2b 88 bd 8c 87 7a 3e 57 8d 44 3e
       0.013389907 -0.06648968 0.2446577 0.19194542
000300 39 d2 0d be 3d ef f7 3d b3 8e bf 3c 6e b1 7f be
       -0.13849725 0.12106178 0.023383474 -0.24970028
000310 1f 99 74 be aa d5 ae 3c fc c8 b8 bc 40 4d 7d bd
       -0.23886536 0.021342117 -0.022556774 -0.06184125
000320 3e bf 82 bd 75 fb 88 bc 35 b3 63 bc 6b a6 7b 3c
       -0.06384133 -0.016721467 -0.013897707 0.015359501
000330 4e e8 0b 3e ca f4 31 3d 5a 73 db 3d 7b 71 b2 bd
       0.13662836 0.04344634 0.10715361 -0.08713051
000340 76 bf 24 be 15 38 8b bd ac cb 3a bc 1d d6 f8 3d
       -0.16088662 -0.06797806 -0.011401098 0.12150214
000350 f0 b1 41 bd 18 bc b6 3d 84 fc b3 3d 3f 9e e7 3d
       -0.047288835 0.08922595 0.08788398 0.1130948
000360 cd 6e a6 bd c5 2d 01 be 0b 05 51 be 8b 58 b1 bb
       -0.08126602 -0.12615116 -0.2041208 -0.0054121665
000370 c5 46 b8 bd 2e 1a 3f be fb 77 b1 3c 5d a6 54 3e
       -0.08997873 -0.1866233 0.021663656 0.20766588
000380 e3 04 2c bd e1 da 55 be 00 ba bf 3c 33 81 91 3e
       -0.041996848 -0.20884277 0.023404121 0.28418884
000390 96 80 8d be 9f 10 76 bd 71 27 2f 3c a3 47 6d be
       -0.27637166 -0.060074445 0.010690556 -0.23171858
0003a0 3e 23 e4 bd 8c 7b 26 3d 5a ff 43 bd c5 75 4f 3e
       -0.111395344 0.040645167 -0.047850944 0.2025977
0003b0 42 1d 39 3e 1e f7 13 bd d7 51 66 3d 7b 46 dc 3d
       0.18077567 -0.03612434 0.056230392 0.107556306
0003c0 75 bd 7e be 18 c9 16 be b2 94 bd bd 49 27 54 3c
       -0.2487696 -0.14725149 -0.09256877 0.012948819
0003d0 40 eb 25 3d 3c a8 db 3d d4 8e 5b 3c 04 18 fd bd
       0.040507555 0.107254475 0.013400752 -0.12358096
0003e0 9c 72 b7 bd 8e e4 87 be 83 af 7b be 85 71 06 be
       -0.08957407 -0.2654156 -0.24578671 -0.13129242
0003f0 02 2e 86 bd 4a e1 3f 3e 82 27 47 3e c7 30 dd 3c
       -0.06551744 0.18738285 0.19448665 0.027000798

encoder.2.bias f4 [32]
000000 6b 81 8d bc b7 36 b0 3d 87 ed 89 3d 01 5b 70 3d
       -0.017273625 0.08604186 0.06734758 0.058680538
000010 69 1e 80 3d dd 6e e7 3d 01 70 a6 3d 68 68 08 3d
       0.062558 0.11300442 0.08126832 0.033302695
000020 64 54 cb 3c 2d 6f ec 3c ed 94 9f 3d 5c c0 3d bc
       0.024820514 0.028861606 0.07792077 -0.011581507
000030 c6 9c c4 3d 05 96 9a 3c 01 c0 bd 3d c4 39 c8 3c
       0.09600215 0.018870363 0.092651375 0.024441607
000040 93 c9 90 bc c6 2d ff 3c d1 0a 12 3e 88 71 77 3d
       -0.017674243 0.031149756 0.14261939 0.060411006
000050 6d fb b6 3d 43 e3 07 bd 4f 1f 8a 3d 19 11 c1 bb
       0.089346744 -0.033175718 0.06744253 -0.005891931
000060 70 05 28 3e c0 de 8c 3d 9a b6 9c 3d 09 56 b2 3d
       0.16408324 0.06878424 0.07652016 0.08707816
000070 83 54 21 3e e8 59 ca bc bb 7c 5b bc 02 66 27 bc
       0.15754895 -0.024701074 -0.013396437 -0.010217192

encoder.4.weight f4 [64, 32, 3, 3]
000000 e3 2f 9b 3c 96 06 93 3d 48 5d c6 3d e4 98 82 3d
       0.018943733 0.071789905 0.09685761 0.06376818
000010 25 a2 c1 bd f3 98 9a bd 3b 92 33 be fc e9 0c be
       -0.09454755 -0.07548704 -0.17536251 -0.13761133
000020 2b ec 3c be a3 6a d5 bb 10 4c 75 bb 26 a5 a9 bd
       -0.18449466 -0.006512956 -0.003742937 -0.08283453
000030 b6 d1 2b bd 42 63 99 bb fe 7e ed bb 44 0b 57 bd
       -0.041948043 -0.004681022 -0.0072478047 -0.052500978
000040 30 c5 b9 3d 0c 8d 86 bd 5a 6a 16 3d 20 d4 cf 3c
       0.09070814 -0.06569871 0.03672252 0.025369704
000050 52 6e 3c bc 30 95 bf bd fb c7 b1 3d d0 c7 7d 3d
       -0.011500912 -0.09354627 0.08680721 0.061958134
000060 1d 0b 4a 3d 5b e9 e1 3c e2 f4 60 bd 23 aa 1e bd
       0.049327005 0.027577093 -0.05492104 -0.038736474
000070 74 a3 67 3d 8f 55 5a 3d a7 5d 10 3e 86 5d 9e 3c
       0.056552365 0.05330425 0.14098226 0.019331705
000080 7d d7 b6 bd d5 b1 1e be 9b f4 a6 bd 5a 92 a7 bd
       -0.0892782 -0.15497525 -0.081521235 -0.08182211
000090 1f a2 53 bd 88 8a f0 bd c0 a8 12 3d b2 69 68 3d
       -0.051668283 -0.11745173 0.035805464 0.056741424
0000a0 70 01 1e 3e cc 24 73 3d 0f 9e f4 3d 05 2e 52 bd
       0.15430236 0.059361264 0.1194421 -0.05131342
0000b0 71 97 9b 3d 49 be 81 bd 50 ac ca 3d b0 a4 e2 bd
       0.075972445 -0.06335122 0.09896147 -0.11066568
0000c0 db ff 31 bd 41 97 c6 bc 04 86 cd bc f5 f7 51 bd
       -0.043456893 -0.024242045 -0.025088318 -0.05126186
0000d0 c6 d7 ea 3c d5 e9 36 3d 86 01 71 3c 84 a8 78 bc
       0.028667342 0.044656593 0.014709836 -0.015176896
0000e0 71 45 0e bd e7 1e 00 bb d0 d7 84 3d fd d4 d7 3d
       -0.034734193 -0.001954967 0.064864755 0.10538671
0000f0 19 a4 65 3d db c9 0b bb d9 d8 09 be 46 fc 1c bd
       0.0560647 -0.0021330032 -0.13461627 -0.038326524
000100 36 a7 86 3c a5 14 b1 bd b6 26 a6 bd c9 51 b9 3d
       0.016437154 -0.08646516 -0.08112852 0.090488024
000110 2b cc a5 3d ae 9d 2f bd 42 47 54 3d ae d9 1b bd
       0.080955826 -0.042874984 0.05182577 -0.038049392
000120 68 f1 eb bd 10 d3 7c 3c aa 06 93 bc 85 3b e0 3b
       -0.11520654 0.015431181 -0.017947514 0.006843033
000130 99 05 38 3c 02 d7 99 3d 5f 55 75 bd cf 55 5a bb
       0.011231803 0.075117126 -0.05989587 -0.0033315306
000140 07 b8 b9 bc 37 7b 0b bd 21 74 c3 3d 16 dc b9 3a
       -0.022670759 -0.034053054 0.09543634 0.0014179971
000150 9c 96 6c bd d7 bf 95 bd 13 78 9f 3d e5 c5 0f be
       -0.05776082 -0.07311981 0.07786574 -0.14040335
000160 45 84 0f bb f8 24 83 3c 55 2f d3 3c 49 cf bd bc
       -0.0021898907 0.016008839 0.025779406 -0.02317013
000170 8b d3 d1 bc 35 d4 40 bd 65 9e 5e 3d 6e f0 c3 3d
       -0.025613567 -0.047077376 0.054350276 0.09567343
000180 43 45 35 3d e0 6f bb 3d c2 78 b3 bd 1c 56 4d bd
       0.044255506 0.09152198 -0.08763267 -0.05013095
000190 42 55 3b bc 68 91 8b 3c 3e 1d 95 3d b6 1d 98 3c
       -0.011433901 0.017037109 0.07280968 0.018568855
0001a0 19 bf 93 3c 01 ba 59 bd be 07 22 3d 2b 83 59 3c
       0.018035458 -0.053155903 0.039558165 0.013275902
0001b0 dc 1c 49 bd 9c 4a 9d bc 7d e8 b7 3c e5 ec 25 3e
       -0.049099788 -0.019200616 0.022449726 0.1620365
0001c0 8b 4d 70 3c 56 9f 12 bd f0 89 d5 bd 5c 60 a3 bd
       0.014666925 -0.035796486 -0.104267 -0.079773635
0001d0 9b 02 46 bb f9 83 94 3c ff 8a 2f bd 26 04 04 3d
       -0.0030213955 0.018129336 -0.042857166 0.03223052
0001e0 63 d8 dd 3d 13 cd 8f 3d 8d f7 bd bd d9 9e 7c 3d
       0.10832288 0.07021537 -0.09275732 0.061674926
0001f0 61 80 bb bd ad 45 c0 bc 68 7a 40 bc 0a 73 05 3d
       -0.09155346 -0.023470724 -0.011747934 0.032580413
000200 ce c5 a3 bd 7e 38 ab bd a5 4b da 3c e8 c6 19 3b
       -0.079967126 -0.083603844 0.026647398 0.0023464505
000210 7d 04 bf 3c e4 11 87 3d 41 68 3f 3d b1 e0 af bd
       0.02331757 0.06595209 0.046730284 -0.08587778
000220 66 b5 cf bd 05 a1 88 bd 56 77 6a bd 32 27 a1 3d
       -0.10142021 -0.06671337 -0.057242714 0.07868804
000230 6e 5e 32 3c b0 10 25 bd 46 3d cb 3c 27 8e 9b bd
       0.010886772 -0.040299118 0.02480949 -0.07595473
000240 f2 a3 b3 bc a4 08 45 3d 69 64 c9 3c c6 2e 93 bd
       -0.021928761 0.048103943 0.024584012 -0.07186656
000250 b4 55 2c bd 32 dc c2 3b 41 22 26 3d b5 60 56 bc
       -0.04207392 0.0059466595 0.04056001 -0.01308458
000260 9c 5e ff 3c fa 6d c9 3b fd 87 12 3c ed ed 18 3d
       0.031173043 0.0061471434 0.008943555 0.03733628
000270 e5 ce 53 bd e9 98 72 3d 51 7a 16 bd 36 f3 54 3c
       -0.051710982 0.059227858 -0.036737744 0.012997439
000280 ba 63 c6 3c 7b e0 df bc dd 87 c5 3b 72 df 77 3c
       0.024217475 -0.02732872 0.006028159 0.015128957
000290 34 b0 d7 bd 4a e4 9d bd 0b 08 bd 3b c5 1b f7 3d
       -0.10531655 -0.07709558 0.005768781 0.120658435
0002a0 1d a6 39 3d c3 e1 dc 3d 3c 28 a9 bd 07 6e 90 bd
       0.045324434 0.10785248 -0.08259627 -0.07052236
0002b0 52 b2 2b 3d 42 3f ac bd 01 8d 3f 3c 5a 96 a3 3d
       0.041918106 -0.08410503 0.011691333 0.07987662
0002c0 e6 c7 cb 3d 97 72 f7 3c 47 30 a0 bd 73 c8 57 bd
       0.09950237 0.030206008 -0.07821708 -0.052681398
0002d0 04 46 15 bd de dd 8e 3d 2a a6 27 3d c2 4c 87 3d
       -0.036443725 0.069759116 0.04092995 0.06606437
0002e0 67 e9 b2 bd dc 18 f2 bd a2 db 33 be 0d 06 a0 bc
       -0.08735924 -0.11821148 -0.17564252 -0.019534135
0002f0 57 e6 f2 3c 15 56 76 bd e6 b1 85 3d 97 c9 7f 3d
       0.02965085 -0.060140688 0.06528072 0.06244811
000300 9f 45 26 3d ce b5 83 bd 9a ca 86 bd 20 5f ba bd
       0.04059374 -0.06431161 -0.06581612 -0.09100175
000310 bf d0 0f 3c 99 32 a6 bc e5 48 5c bd 0f dd 64 bb
       0.008777796 -0.020287799 -0.053780455 -0.00349218
000320 20 cb 09 be 90 58 19 bc 00 66 10 be 03 aa d3 3d
       -0.13456392 -0.009359494 -0.1410141 0.103351615
000330 13 2f 44 bc 94 f0 23 3e f0 4f a3 bc f3 46 fe bd
       -0.011974114 0.16009742 -0.019935578 -0.12415876
000340 1b 5c 63 bc f7 61 a2 3d 71 6d c4 3d d4 0c 07 bc
       -0.01387694 0.079288416 0.09591187 -0.008242805
000350 00 91 ae bd de fd c1 bd ad 60 04 be f3 57 6e bd
       -0.0852375 -0.094722494 -0.12927504 -0.058189344
000360 84 d7 f6 3b ec ff 25 bd 5e 6d c8 3c 27 d5 3a bd
       0.0075330157 -0.04052727 0.024466213 -0.045613434
000370 16 81 52 3d 8a 88 87 3d cc f4 2a 3d 57 9d b0 3c
       0.051392637 0.0661784 0.041737363 0.0215594
000380 52 6d a6 bd a5 50 91 bd b5 60 5a 3c 01 78 34 bd
       -0.0812632 -0.0709546 0.013328721 -0.044059757
000390 57 09 d8 3c c7 5d 07 3e f8 72 f8 bd f7 b3 0a bc
       0.026371641 0.13219367 -0.121313035 -0.0084657585
0003a0 8c 3e 65 bd 1b 3d 01 bd 6d 13 cf bd af 05 ff 3c
       -0.055967852 -0.031552415 -0.10111127 0.03113064
0003b0 80 2b fa bd 07 94 14 bc 06 f2 54 bd 27 c8 f1 3d
       -0.12215328 -0.009068496 -0.051988624 0.11805754
0003c0 53 ee 1e 3d d6 a9 2b 3d 65 3e a1 3c 22 e5 c1 bc
       0.038801502 0.041910015 0.019683072 -0.02366883
0003d0 b5 56 be bd 54 ad 8d 3c c3 b6 0b bd f1 eb 8a 3d
       -0.09293882 0.017294563 -0.034109842 0.067832835
0003e0 65 51 90 3d f7 ad eb bc 0f 89 20 bc 8b a1 ae bd
       0.07046775 -0.028769476 -0.009798302 -0.085269056
0003f0 18 bc 4b 3d 3f 25 a0 3b 51 9f 91 3c 49 80 48 bd
       0.049739927 0.0048872526 0.017776163 -0.048950467

encoder.4.bias f4 [64]
000000 21 67 da 3c 5a 12 8a bd 17 46 3a 3d 47 57 e9 bc
       0.026660504 -0.067417815 0.045477 -0.028484
000010 b4 64 19 3d 26 e6 d2 bc 9b 17 d3 3c 00 6f df bc
       0.037449554 -0.025744509 0.025768092 -0.027274609
000020 18 5e f5 bd e7 b1 96 3c 39 8e 20 3d a7 f4 d1 3b
       -0.119808376 0.018395377 0.039198134 0.0064073387
000030 21 66 39 bd 78 60 73 bd 44 1c 85 3d 6f 08 5f bc
       -0.045263413 -0.05941817 0.06499532 -0.013612851
000040 f5 fb b1 bc 9e a1 02 3c ec fc 76 3d 98 31 23 3d
       -0.021726588 0.007973103 0.0602998 0.03984222
000050 36 b1 f3 3b f8 d9 7f 3b 57 72 01 bd 45 e6 81 bd
       0.0074368967 0.0039039832 -0.031603184 -0.063427486
000060 eb fd 59 3c a3 d7 9b 3d a3 41 2d bb 8d 92 7e bc
       0.013305168 0.07609489 -0.0026436828 -0.01553787
000070 f7 6a e7 bd 6c 7d b5 3c 20 9e af bd fa 71 85 3c
       -0.11299699 0.022154532 -0.08575082 0.0162897
000080 20 ce d7 3b 3f 31 fa 3c a9 69 04 3d 98 f0 c1 bd
       0.0065858513 0.03054106 0.032327328 -0.09469718
000090 d7 2f 31 3d 1d 32 6c bd 27 2a b9 bd 84 96 65 bd
       0.043258514 -0.05766498 -0.09041243 -0.056051746
0000a0 8e f0 b2 3c 00 8a 99 3c 80 af e8 bc b3 bc 56 bd
       0.021843221 0.018742561 -0.028403997 -0.05242605
0000b0 62 28 38 bc 1c 15 a5 3d 4e 9a 0a bd eb e2 60 bd
       -0.011240097 0.08060667 -0.033838563 -0.054903906
0000c0 e7 8b 83 bc f2 3c 68 3c 5d de 58 3c 3c c7 ce bd
       -0.016057922 0.014174687 0.013236609 -0.10096595
0000d0 b9 aa 89 bd a5 ff 78 3d 30 7b 9c 3d a6 21 2c 3d
       -0.06722016 0.060790677 0.07640684 0.042024277
0000e0 5e 78 9b bc 69 c5 b3 bd 99 45 24 bc f3 8d eb bd
       -0.018978294 -0.087778874 -0.010026359 -0.11501684
0000f0 80 d4 ab bd 20 a0 05 bd ea 22 5e bb 7c 96 00 bd
       -0.083901405 -0.03262341 -0.0033895322 -0.031393513

decoder.0.weight f4 [64, 32, 3, 3]
000000 82 2d 4b 3c e5 37 52 3b 26 46 79 3b b7 b5 1a bd
       0.012400987 0.0032076773 0.0038036196 -0.037770953
000010 40 48 c6 3b 60 f6 db 3c 2c 4d 7f bc 54 ce 01 3d
       0.0060510933 0.02685088 -0.015582364 0.03169091
000020 0f f6 8c bc d6 1c 81 3c 4b 4e 72 3c ea d0 e3 3c
       -0.017207174 0.01576082 0.014789174 0.027809579
000030 b2 00 48 3d fe 07 e3 bc 84 b6 ab 3c 60 a5 6a bd
       0.048828788 -0.027713772 0.020961054 -0.05728662
000040 5d f0 3f 3d 3c 86 28 3b 69 da 8d ba 0e e7 aa 39
       0.046860088 0.0025714776 -0.0010822538 0.00032597076
000050 a0 ce 5d bd a8 9b 64 bd 73 e6 5a 3b 57 48 4a bd
       -0.05415213 -0.055812508 0.0033401519 -0.049385395
000060 3a 1a ef ba 13 db 9b bc 72 56 09 bd 77 56 68 bc
       -0.0018242069 -0.019025361 -0.033529706 -0.014180771
000070 0a d7 4c 39 87 ab 4e 3d d1 39 e4 bc b4 97 d7 3c
       0.00019535064 0.05045655 -0.0278596 0.026317455
000080 80 87 2e bd d7 0d 81 3c f6 88 1b 3d e6 77 6f 3d
       -0.04260969 0.01575367 0.037972413 0.058463953
000090 b2 80 3a 3d 77 a1 54 bc 5d 5f 3b 3d c1 a0 d3 3c
       0.04553289 -0.012977949 0.045745242 0.02583349
0000a0 e4 65 aa 3c 8a f9 25 3d 29 bd ba 3c bb f7 05 3d
       0.020800538 0.040521182 0.022795277 0.032706957
0000b0 92 33 03 bb 73 47 ee bb 2c 76 45 3d 06 20 c9 bc
       -0.0020019752 -0.007271701 0.0482084 -0.024551403
0000c0 7d f6 cb 3c a6 76 fb bc 99 55 4a bd 88 41 00 bd
       0.024897808 -0.030696224 -0.04939804 -0.031312495
0000d0 ad 84 3a bd b6 44 45 3c 6b 3e 8b 3c 18 aa 67 3d
       -0.045536686 0.012040308 0.016997537 0.0565587
0000e0 9b 92 61 3d c3 95 59 bd 55 cb 1e 3c 53 d5 57 bb
       0.055071454 -0.05312134 0.009692033 -0.0032933548
0000f0 67 79 f3 bc d5 54 b8 3b 5c b1 81 bc 3a ff b8 3c
       -0.029720975 0.005625347 -0.015831642 0.022582639
000100 59 37 69 bd c5 20 1c 3c c4 d3 bc bc 1b 5a 2f bd
       -0.05693755 0.009529297 -0.023050196 -0.04281054
000110 5d 03 94 3c d4 d5 e7 3a 6b 93 58 bd 19 98 b3 bc
       0.01806801 0.0017687627 -0.052874964 -0.021923112
000120 c7 19 9e 3c 61 97 5e bb 45 94 57 3d 40 d3 c4 ba
       0.019299401 -0.003396474 0.052631635 -0.0015016571
000130 77 eb 7a 3a 4b 5c 39 3d 4b 38 36 bd 58 5b a5 3c
       0.000957183 0.045254033 -0.04448728 0.020185158
000140 d8 0a 67 bd 48 a9 6d 3d 9d ea 85 3c e0 ab 3e 3c
       -0.056406826 0.058022767 0.016347224 0.011637658
000150 28 28 5b 3d 49 20 ab bc 2b e9 07 3d 31 0d a4 3a
       0.053505093 -0.020889418 0.03318135 0.0012516138
000160 31 34 84 3c b2 71 91 3c b3 88 1c 3d 5f 97 d3 3c
       0.016138168 0.01775441 0.038216304 0.025829015
000170 ec cc 7f 3c eb d0 59 3d ad a2 2f bd 9d 5f 34 3d
       0.015612822 0.053177755 -0.04287975 0.044036496
000180 55 85 65 bc 3c 96 36 3c 1d 98 c9 bc e3 f4 c5 bc
       -0.01400884 0.011144217 -0.024608666 -0.024164623
000190 5b 1d f9 bc e8 04 8b 3c 34 e9 b1 3c e6 32 84 bc
       -0.030409506 0.016970113 0.021717645 -0.016137552
0001a0 3e 2a 80 3c c1 2b 8b bc 0c 03 1f bd 02 b6 58 bc
       0.015645143 -0.016988637 -0.038821265 -0.013226988
0001b0 5c 22 f6 3c a0 90 a4 3c 2d 6d 5b bd e1 ed 41 bc
       0.03004568 0.020088494 -0.053570915 -0.0118365
0001c0 99 29 97 3a fc 7b 1f 3d 9f 24 27 bc fe c3 aa 3b
       0.0011532783 0.0389366 -0.010201602 0.0052113524
0001d0 67 c5 85 3c e0 dc 49 3d 8f db 33 3d 48 43 6a 3d
       0.01632948 0.04928291 0.04391056 0.05719307
0001e0 ee 3c 51 bc 87 f2 5d bd 3b bb 70 bd af 41 cf bc
       -0.012770874 -0.05418637 -0.058772307 -0.025299875
0001f0 68 b9 41 bb 9e 01 a5 ba 5b 62 81 bc c0 1d 9c 3c
       -0.0029559974 -0.0012588983 -0.01579397 0.019057155
000200 ed c1 5c bd 0d 0a 25 3d 82 2f 07 bd 47 d3 6d 3d
       -0.05389588 0.04029279 -0.03300429 0.058062818
000210 ac 37 af 3c 78 c2 3c 3c 51 10 28 3d ed 55 65 3d
       0.021388851 0.011520974 0.041031186 0.05599015
000220 86 8b 48 bd ef 07 38 bb 2d 5f 9f 3b bb 57 4c bd
       -0.048961185 -0.00280809 0.0048636408 -0.049888354
000230 05 da 44 3d 31 7f 3c bd 2f 5e 0e bd 14 ae 17 3d
       0.048059482 -0.046019737 -0.03475779 0.03703125
000240 32 8f 61 3d f3 88 68 3d 54 77 cc bc 43 60 18 bd
       0.055068202 0.05677123 -0.024959244 -0.037201177
000250 cf b3 0e bd 68 4a 00 3d fb 3c 40 bb 46 dc 88 bc
       -0.034839448 0.03132096 -0.0029333222 -0.016706597
000260 1f 2c e6 3c 29 88 d7 3c 29 99 6b 3d bd c9 62 3d
       0.02809721 0.026310043 0.05751911 0.055368174
000270 14 84 4b bd fc b4 2c bd 41 f3 63 3c f4 08 4f 39
       -0.049686506 -0.042164788 0.013912977 0.00019744394
000280 78 16 fb bc 1e 7c c5 bc c2 8c d7 bc 59 02 23 3c
       -0.030650362 -0.024107035 -0.026312236 0.00994929
000290 b9 02 6f 3d b6 59 ea 3c 44 d5 61 3d 2a 9e 04 bd
       0.058352206 0.02860723 0.055135027 -0.0323774
0002a0 56 5b 9a bc ac 0f 5d 3c 92 41 38 3d 91 88 18 bd
       -0.01884238 0.013492506 0.044984408 -0.037239615
0002b0 3e c1 1b bd bc 27 18 3d dc 23 7b 3c c1 a8 87 3c
       -0.038026087 0.03714727 0.015328374 0.01655996
0002c0 51 cb ce 3b ac 9c 1e bd f3 65 12 3d dd 15 28 3d
       0.0063108583 -0.038723633 0.035741758 0.041036475
0002d0 0f bd d5 3c 5e 13 22 3d 93 3f 08 3b e1 e8 46 bc
       0.026091127 0.03956925 0.0020789846 -0.012140484
0002e0 a2 2b ec 3b ed c3 07 3d f6 22 6e bd c9 35 6d 3d
       0.00720735 0.033145834 -0.05813881 0.05791262
0002f0 ef 19 46 bc 9a 7d 4a bd 84 e5 4e 3d 66 65 fc 3c
       -0.012091144 -0.04943619 0.050511852 0.03081007
000300 03 ab 40 3d e2 23 09 3c b8 d5 d5 3c a3 b7 5c 3d
       0.04703809 0.008370372 0.026102886 0.053886067
000310 6e 1c 6c 3a 5b 36 34 3d fc 55 1f bc 2a e5 d8 3c
       0.0009006922 0.04399715 -0.00972509 0.026476461
000320 ac 13 65 3d be 80 3d bc 3f b4 38 bd 1a 2c 1e bd
       0.055926964 -0.011566339 -0.04509377 -0.038616277
000330 ec f7 0e 3d b4 70 0f 3d cf 31 59 3d 47 94 fd 3c
       0.034904405 0.03501959 0.053026017 0.030954493
000340 ce 16 58 bd 39 1f 69 bd c0 9f 47 bd 5d a9 3e bd
       -0.052756123 -0.056914542 -0.048736334 -0.046548236
000350 d0 16 2e 3d e7 d9 17 bb 31 bb 3f 3d de fa aa bc
       0.042502224 -0.0023170651 0.04680938 -0.020871576
000360 dd fd 37 3d c0 98 43 3d a1 92 0e 3d 64 1d 71 bd
       0.044919837 0.047753096 0.034807805 -0.05886592
000370 1c c0 ac 3c d3 9b e3 bc 8c 70 04 3d 48 c2 0c 3d
       0.021087699 -0.027784264 0.032333896 0.03436497
000380 8c ab 6d 3d 17 f6 e6 3b a6 c2 4b bc 4e 6d 2c 3d
       0.058024928 0.007048379 -0.0124365445 0.04209643
000390 c9 22 14 bd 65 52 f4 bc d9 bf 9a bc b3 8d 5e bd
       -0.036165986 -0.029824445 -0.018890308 -0.054334354
0003a0 f5 4e 64 3d a0 70 2c 3d ca 43 6b bc 9b 93 f8 3b
       0.05573936 0.042099595 -0.014359424 0.0075859553
0003b0 8f b7 b7 bb dd 4d f7 3c f9 70 ec bc 63 ef 1d 3d
       -0.0056065987 0.030188495 -0.028862463 0.038558375
0003c0 24 1d a0 bc d5 ac 29 3c 3e 3d 93 bc 27 e4 31 bc
       -0.019545145 0.010356148 -0.017973538 -0.010857618
0003d0 6f 31 2b 3d f2 91 55 bd 98 f3 6e 3d 0d fa 5b bd
       0.04179519 -0.052141137 0.058337778 -0.053705264
0003e0 ff 93 cc bc 87 16 09 bd b6 bd 50 bd ba f3 2f 3d
       -0.024972914 -0.03346875 -0.050962172 0.042957045
0003f0 c6 58 d8 3c af 80 0a 3d 71 79 17 3c 2b 80 d3 bc
       0.026409518 0.03381413 0.0092452625 -0.025817951

decoder.0.bias f4 [32]
000000 24 06 45 3d a0 43 71 bc d7 f4 28 3d 69 05 67 bd
       0.04810156 -0.014725596 0.041249122 -0.056401644
000010 16 ec 0b bd fc 78 7f bc e6 f7 68 bd 57 ae 02 bd
       -0.034160696 -0.01559281 -0.05687704 -0.031904545
000020 10 a3 05 bd 5b 3e 17 3d 88 e9 67 3d f1 24 ba bc
       -0.03262621 0.0369247 0.056619197 -0.022722693
000030 69 85 52 3c 53 88 0e 3d cd b1 70 bd dc 64 6d 3d
       0.01284919 0.034797978 -0.058763314 0.057957515
000040 65 0c da 3c 76 a8 aa 3c 0b bc 9e bc f8 51 c4 bc
       0.026617238 0.020832282 -0.019376775 -0.023964867
000050 47 e6 ba 3c ab 97 54 bd ca 6a 36 3d 95 04 9a bc
       0.022814883 -0.051902454 0.044535436 -0.018801013
000060 cf 85 fc bc 3d 54 2c bd 66 5a 53 3d ef 09 53 3c
       -0.030825524 -0.042072523 0.051599883 0.012880786
000070 c4 b4 98 bc bc 45 10 bd 32 90 5d bd ce fc fa bc
       -0.018640883 -0.035222754 -0.054092593 -0.030638125

decoder.2.weight f4 [32, 16, 3, 3]
000000 2b ce 91 bc bf 79 87 3d a6 20 ff bc 70 10 bc bc
       -0.017798504 0.06615018 -0.031143498 -0.022957057
000010 76 29 0c 3c 5c 71 92 bd 36 09 2c bd 20 91 66 bc
       0.008554807 -0.07150528 -0.04200097 -0.014072686
000020 de 2f 88 bd 96 57 02 3d d0 5f a4 bc 9b f4 a4 bc
       -0.06649755 0.03182181 -0.020065218 -0.020136168
000030 26 86 cd 3c 8b f3 a5 bc 56 15 df 3a 46 e4 ab 3c
       0.025088381 -0.020257732 0.0017019908 0.020982873
000040 3e 75 11 3d ef b3 a7 bd ce 00 a3 bd 6b f0 ac bc
       0.0355122 -0.081886165 -0.07959138 -0.021110734
000050 1b 15 dc 3c e0 95 76 3c 3e 48 91 3d 76 05 09 3c
       0.026865533 0.015050381 0.07093857 0.008363118
000060 78 0e 34 3d 4b 1e d8 3c b8 19 41 3d 96 fe fe bc
       0.04395911 0.026381632 0.047143668 -0.031127255
000070 f6 9e 0e 3d 86 90 b9 bc 16 ac d7 bc 68 25 18 bd
       0.034819566 -0.022651922 -0.026327174 -0.03714505
000080 db 75 c0 3c 43 db a4 3d 50 cd 6e 3d 36 4f ea bc
       0.023493698 0.08049633 0.05830127 -0.028602224
000090 88 0c 03 3d b4 b7 83 bd 2b e8 41 3d 03 31 76 bd
       0.031994373 -0.06431523 0.047340553 -0.060105335
0000a0 50 ea 30 3d c2 15 9d bd 2b bb 4a bd 2b b9 92 bd
       0.043192208 -0.076701656 -0.049494904 -0.07164224
0000b0 80 a0 5e bc 53 8a 30 3d d3 fe 00 bd 56 76 6e bc
       -0.013588071 0.043100666 -0.03149302 -0.014554581
0000c0 6e 23 25 3d eb 6e 50 bc 7e 7f a8 bd 36 42 c0 bc
       0.04031699 -0.012721757 -0.08227442 -0.023469072
0000d0 bb 8b 9d 3c a0 97 f2 3c 30 60 91 3c c8 50 89 bd
       0.019231668 0.029613316 0.017746061 -0.06704861
0000e0 90 42 6e bd f0 f1 67 3d e3 85 07 3d 42 76 80 3d
       -0.058168948 0.056627214 0.03308667 0.06272556
0000f0 2b 23 a0 bd a6 f4 b0 3c 76 d1 12 3d a2 e0 9a 3d
       -0.07819208 0.021601032 0.03584429 0.075623766
000100 a0 61 44 bc eb d9 8f bd b4 a7 88 3d 4b 86 d4 3c
       -0.011986166 -0.070239864 0.06672612 0.025942942
000110 00 f1 44 3b 20 d8 92 3c cb 45 48 3c 5e 74 03 bd
       0.0030050874 0.017925322 0.012223671 -0.0320934
000120 10 2c 51 bd eb 53 89 bb 2e 8f 89 3d b6 be 3a bd
       -0.051067412 -0.004190912 0.067167625 -0.045592032
000130 9b 62 be bc ab c8 99 3c a6 e1 4f bd 0b 6c 9c 3c
       -0.023240378 0.018772444 -0.050752304 0.019094488
000140 9e bc 83 bd 5b 6e 51 bd 4b 76 89 3d a0 69 4e 3c
       -0.0643246 -0.051130634 0.06712016 0.012598425
000150 20 c8 0e 3d d6 d6 cc 3b 6e db 51 3d d6 f3 d3 3b
       0.034858823 0.0062511964 0.051234655 0.0064682765
000160 ab 38 55 3d 2b fa 41 3c b6 10 16 bc 90 da cc bc
       0.052055996 0.01183943 -0.009159258 -0.025006562
000170 06 dd a9 3c bb ac ac bc 86 b7 5f 3d bb 44 ac bc
       0.020735275 -0.021078458 0.05461838 -0.021028867
000180 ab 00 84 ba 78 5f 2e bd 08 88 7d bd 76 98 97 3c
       -0.0010071 -0.042571515 -0.061897308 0.018505316
000190 e6 db d1 bc 06 01 60 3d 8a d0 9a bd c6 9c 60 bd
       -0.025617551 0.054688476 -0.07559307 -0.05483701
0001a0 d0 c7 a2 3d 40 ef e1 bb 88 08 92 bd 28 24 67 bd
       0.079482675 -0.006894976 -0.071305335 -0.056430966
0001b0 00 66 1a 3b 60 2a 31 3d ce 67 88 bd 28 b0 7e bd
       0.0023559332 0.043253303 -0.06660424 -0.062179714
0001c0 23 0e 16 bd 3e 62 51 bd f8 a7 19 bd 33 bd 35 bd
       -0.036634576 -0.05111908 -0.037513703 -0.044369888
0001d0 33 9f 9f bd eb bc 8d 3c 2b e4 f3 bb 93 4f 5d bd
       -0.07794037 0.017301997 -0.007442971 -0.054030966
0001e0 54 65 84 bd 46 33 af 3c 54 b3 95 bd d6 f2 ca bc
       -0.06464639 0.021386754 -0.07309595 -0.024773996
0001f0 80 d6 77 3b db 91 88 3c 0b 50 a5 3c 56 8a 5a bd
       0.003781706 0.016671112 0.020179769 -0.053354584
000200 bb b3 d9 bc d0 58 f8 bc 76 30 34 bd e0 ba 37 bc
       -0.02657496 -0.030315787 -0.04399153 -0.011213988
000210 00 15 19 bc 9e 58 0e 3d 80 d7 8a 3c 4b 40 10 bd
       -0.009343386 0.03475248 0.016948462 -0.035217565
000220 8e 3a a6 3d ae 5e 3b 3d 00 69 94 3c 52 ba 88 3d
       0.08116637 0.04574459 0.018116474 0.06676163
000230 00 f6 85 3d 7e 33 2d bd 00 bb af bc 9b 2a e0 bc
       0.065410614 -0.042285435 -0.021451473 -0.027364066
000240 64 63 83 3d 90 ed 20 3d ab 7a cd ba a8 ba 0d 3d
       0.06415442 0.039289057 -0.0015676817 0.034601837
000250 73 18 5d bd c6 5b 2e bd 08 26 0b 3d 9b 0e 5b bd
       -0.053978395 -0.04256799 0.033971816 -0.053480726
000260 16 bc dc 3c 3b f4 12 bd 53 cf 2c bd 0a 05 8d bd
       0.026945155 -0.035877448 -0.042189907 -0.06885727
000270 76 92 b0 bc b0 c3 d2 3c 8b 85 0b 3d 60 06 d3 bc
       -0.021554213 0.025728077 0.034062903 -0.025759876
000280 26 bc 09 bd f0 5e 47 3d 3b 91 90 bc 80 6c f9 3b
       -0.033626698 0.048674524 -0.017647376 0.007611811
000290 fe 1a 2b 3d 2b c8 5b 3c 4c 54 83 3d dc 0f 89 bd
       0.04177379 0.013414423 0.06412563 -0.06692478
0002a0 f6 e3 2a bc 80 83 d8 3c e0 36 4f 3c 4b 44 98 bd
       -0.010430327 0.026429892 0.012647361 -0.07434901
0002b0 da 5b 81 bd 76 eb 8e 3c 80 f7 19 3b 23 95 05 3d
       -0.063163474 0.01744626 0.0023493469 0.03261293
0002c0 2b a2 7e bd 6e c2 23 bd 8b ba 39 bc b8 ab a0 3d
       -0.062166374 -0.039980344 -0.011335979 0.07845253
0002d0 3e fa 60 3d 56 ca 28 bc 62 eb 98 bd 9b 6e dd 3c
       0.05492615 -0.010302147 -0.07466771 0.02703028
0002e0 93 9e 79 3d 56 85 2e bc 56 3b ba ba 98 da 87 3d
       0.060942244 -0.010651907 -0.0014208357 0.0663349
0002f0 48 5c 58 bd 86 79 0a 3d a3 d3 50 3d f8 1d 4c 3d
       -0.05282238 0.0338073 0.050983083 0.049833268
000300 ab 40 a9 ba ab 90 7b bc 70 73 1e 3d 16 40 dd bc
       -0.0012912949 -0.015354316 0.03868431 -0.027008098
000310 56 2b 7f bd 60 96 81 bd 16 a3 85 bb ab 0f fa bc
       -0.062297188 -0.0632751 -0.0040782792 -0.03052505
000320 20 80 1a bd a6 2d 83 3c 0a 61 86 3d 58 32 8a 3d
       -0.037719846 0.016012978 0.065614775 0.067478836
000330 fe 4d a7 3d 9b fa 32 3d f6 2f ee bc 93 a5 a8 bd
       0.08169173 0.043696027 -0.029075604 -0.08234706
000340 7e fc 46 3d 56 d5 4c 37 2e b5 7e 3d 03 72 7f bd
       0.04858064 1.2209019e-05 0.062184505 -0.06236459
000350 4a 5d 85 bd e8 54 3d 3d ab 9f 9a 3b e4 59 a1 3d
       -0.06511934 0.04622355 0.004718741 0.078784734
000360 3b cd 7e 3d eb 44 d6 3b 00 bd c4 3c a6 d4 97 bc
       0.06220744 0.0065389774 0.024015903 -0.018534016
000370 8b 9d a0 bc 33 1a 79 3d 80 ad 77 bc 80 46 3b bc
       -0.019606372 0.060816 -0.015117049 -0.011430383
000380 20 c5 64 bd 2b a3 c4 3b 50 d9 bf 3c f2 40 a4 bd
       -0.055852056 0.0060008965 0.023419052 -0.080202
000390 ea 7a 83 bd 06 af 8c bc d0 53 96 bd 9e 23 2d 3d
       -0.06419928 -0.017173301 -0.07340205 0.042270295
0003a0 ab e2 b0 39 12 a9 a6 3d a6 57 8b bc a2 a8 a0 bd
       0.00033738217 0.08137716 -0.017009567 -0.07844664
0003b0 4b ff 8a 3d 46 6f 8a 3c 78 16 85 bd db dc c9 bc
       0.067869745 0.016898762 -0.06498426 -0.024641445
0003c0 18 42 01 3d 2f 71 86 3d 03 a1 0b bd e6 9e 12 3d
       0.031557173 0.06564557 -0.0340891 0.03579607
0003d0 d6 d4 45 bb a0 62 59 bd 28 c1 86 bd 0b b2 e6 bc
       -0.0030186675 -0.05307257 -0.065798104 -0.02816107
0003e0 eb f4 b4 3b fe 30 69 3d ec 2f 89 bd f8 fd 1b 3d
       0.0055223606 0.05693149 -0.066985935 0.038084
0003f0 1b 17 64 bd 40 77 d8 bb bb 1e a4 3d 0e 58 5a bd
       -0.055686098 -0.0066060126 0.08013674 -0.05330663

decoder.2.bias f4 [16]
000000 c0 b5 5c bc a0 54 46 3d 03 74 96 3d bb fd 48 3d
       -0.013471067 0.04842055 0.07346346 0.0490701
000010 76 73 c4 3c f0 a8 1b bd 40 cb 5b bd 8e bb 0a 3d
       0.023980837 -0.03800291 -0.05366063 0.033870272
000020 97 3d 93 3d 70 62 d9 3c b0 ab dd bc 56 d7 2a 3d
       0.07189482 0.026536196 -0.027059406 0.041709267
000030 9b 74 63 3d 0a ee 8f 3d d6 8f a7 3d b6 15 d5 3c
       0.055531126 0.07027824 0.081817314 0.02601133

decoder.4.weight f4 [16, 1, 3, 3]
000000 96 c9 61 be 1f df 8e 3e 5e fd 60 be 0b 31 91 3d
       -0.22049555 0.27904603 -0.21971652 0.07089432
000010 d0 31 08 be 20 73 a1 3d 66 6d 7a be 96 fd 1d be
       -0.13300252 0.078832865 -0.24455795 -0.15428767
000020 76 ae 4f bd 13 f1 42 3e c3 f4 7b 3e b8 e3 14 be
       -0.05070349 0.19037275 0.24605088 -0.14539993
000030 5b cf e3 3d 78 6d aa 3e c0 e2 d0 3c fe ea 63 3e
       0.11123534 0.33286643 0.025498748 0.22257611
000040 e3 4d 34 be 86 7f e0 3d 16 2c 0b bd 60 17 7c 3d
       -0.17607836 0.10961823 -0.03397759 0.06154573
000050 00 5c 9a 3a 96 20 d8 3c c2 b6 88 be 9b a5 d0 3d
       0.0011776686 0.026382726 -0.26701933 0.10187837
000060 ae ed 39 3e a0 20 3d be 6a 46 8e 3e 78 45 07 be
       0.18157074 -0.18469477 0.27788097 -0.13210094
000070 96 1f 08 bd 1b ca 6a 3e 43 20 26 be ab 88 ec 3d
       -0.033233248 0.2292866 -0.16223244 0.11549505
000080 62 28 a9 3e 9b d7 a1 3d 80 5b c3 bc 38 30 43 be
       0.33038622 0.079024516 -0.023847342 -0.19061363
000090 00 1c fb bc 56 02 ad 3c 07 b4 a5 3e 30 99 5e be
       -0.030653 0.021119278 0.32363912 -0.21738124
0000a0 2f e6 9c 3e b6 d0 de 3d 68 0c 9b be 74 93 82 3e
       0.30644366 0.10879652 -0.30282903 0.25503123
0000b0 56 d5 b7 3a 60 84 30 be 56 fd 7f bd 3f 9d a1 3e
       0.0014025371 -0.17237997 -0.06249746 0.31565282
0000c0 8b 95 42 3d 0b 33 5d 3e 4b 92 ea bd 48 5b 25 3e
       0.047505897 0.21601503 -0.114536844 0.16148102
0000d0 87 50 8f 3e 40 01 48 3d 4b 01 82 3e b6 c2 69 3e
       0.27991125 0.048829317 0.2539161 0.22828183
0000e0 e0 fc 8a bd 28 d4 22 3e 7b 46 2f be 40 57 c8 bd
       -0.06786513 0.15901244 -0.1711673 -0.097822666
0000f0 b3 a6 75 be 16 03 54 bd 2b 7e 0b 3e 3c 07 98 be
       -0.23989372 -0.051760755 0.13622348 -0.2969302
000100 d4 12 9b be c8 16 76 3e 28 6c 2a be 1b 35 14 be
       -0.30287802 0.24032128 -0.16642821 -0.14473383
000110 f6 3a 8f be 3b 66 9f 3d ff de 9f 3e ab ce 91 3e
       -0.2797467 0.07783171 0.3122482 0.28477988
000120 a6 b8 2e 3e 3b 0d 8d be ab d5 81 bb 66 fd 0c 3e
       0.17062625 -0.27549157 -0.003962239 0.13768539
000130 86 69 a4 3d 26 0f 6a 3e f3 45 92 be 6e 28 a9 3e
       0.080279395 0.22857341 -0.28568992 0.33038658
000140 b3 4b 90 3e eb 80 bb bc 43 fb 77 be cb 0a fb 3d
       0.28182754 -0.022888621 -0.24216942 0.12257918
000150 a6 c2 47 be 8e 21 33 be 26 9f 8d bd 9b 71 15 3e
       -0.19507846 -0.17493269 -0.06915121 0.14594118
000160 2e dc 8f be 2b d7 1d 3d 28 3b 89 be 26 3b 0a 3e
       -0.2809767 0.03853528 -0.26802945 0.13499126
000170 88 dd 4a 3e c8 1d 08 3e 00 28 c1 bc 00 3d 35 3d
       0.1981107 0.1329261 -0.023578644 0.044247627
000180 10 2a 7b be f3 10 95 3e 00 54 ac 3d 60 50 d1 3d
       -0.24527764 0.29114494 0.08414459 0.102204084
000190 af f9 96 be 7e 9e 4a 3e 48 b5 1f be 60 08 18 bd
       -0.29487368 0.19787022 -0.15596497 -0.037117362
0001a0 d6 16 7a 3e 40 af 93 3c a6 f8 b7 3d 80 a1 91 be
       0.24422774 0.018027902 0.08982973 -0.28443527
0001b0 76 ae 10 3d 30 80 f4 3d 00 93 0d 3c cb 20 44 be
       0.03532263 0.11938512 0.008641005 -0.19153135
0001c0 e0 ba 9f 3e a0 1c 86 3e 56 d5 87 3d 0b 36 c8 bd
       0.31197262 0.26193714 0.066324875 -0.09775933
0001d0 5e 7d 8f be 38 e8 63 3e a8 97 8f 3e 40 50 81 bd
       -0.28025335 0.22256553 0.28045392 -0.063141346
0001e0 00 f8 17 3e 76 23 bb 3d e0 2d b7 3d ab bc 00 be
       0.14840698 0.09137623 0.08944297 -0.12571971
0001f0 b0 d2 97 be 57 60 87 3e 4a c3 a5 3e f2 97 8d 3e
       -0.2965293 0.2644069 0.32375556 0.27654988
000200 00 9f 05 3c 93 aa 7c be 50 d5 b4 bd 2f 75 88 be
       0.008155584 -0.24674444 -0.08829749 -0.26651904
000210 d0 2f 9e 3d 5b d3 d8 3d 06 6d 1b be 96 50 b6 bc
       0.07723963 0.10587188 -0.15178308 -0.022255223
000220 cb 64 06 be 20 54 aa be b6 b3 89 bd 1e d0 52 3e
       -0.13124387 -0.33267307 -0.0672373 0.20587203
000230 76 97 00 be 80 72 f6 bd 46 38 4e be 13 1e 73 3e
       -0.12557778 -0.12033558 -0.20138654 0.23741941

classifier.1.weight f4 [128, 1024]
000000 3f b8 3e 3d 69 a3 0e bd 8a 07 a1 bc 42 c8 be bc
       0.04656243 -0.03482381 -0.019656915 -0.02328885
000010 e3 c8 d2 bd e0 7c bd bc 28 53 f7 3c 7f d3 74 bd
       -0.10292222 -0.023130834 0.03019102 -0.05977201
000020 19 cf be bd 74 d5 d3 bc fe 2c 86 3d 58 af 85 bd
       -0.093168445 -0.025858618 0.0655155 -0.06527585
000030 ec 58 06 3d 52 ef bc 3d 87 e9 3e 3d 97 17 8f 3d
       0.032799646 0.09225334 0.046609428 0.06986921
000040 a1 42 82 bd 29 86 77 bd 4b b9 d9 3d 25 f5 94 bc
       -0.06360365 -0.06043068 0.10631045 -0.0181833
000050 44 bd 6a bc cb 21 af 3d fc 3f 40 b9 37 69 8b bc
       -0.014327351 0.08551367 -0.00018334383 -0.017017944
000060 b0 a5 cb 3b c1 c5 a0 3c 09 b3 3b 3c 9b 5e 14 3d
       0.00621482 0.019625546 0.0114562595 0.036223035
000070 e1 8c 9c 3c 08 14 3d be 74 dc 9a bc 7d 86 95 bc
       0.019110145 -0.18464673 -0.018903948 -0.018252606
000080 c1 5b 3e bb af fd 81 bd e8 8c 96 bd 37 b7 ad 3b
       -0.0029046389 -0.063472144 -0.073510945 0.005301382
000090 3c 82 24 bc d5 32 6c bd 26 4e 2b 3c 64 0e 4b 3d
       -0.010040816 -0.057665665 0.010455644 0.04957427
0000a0 15 5f 41 3c 32 7d 1d bd 92 8e bc bc 2c 74 20 bd
       0.0118024545 -0.038449474 -0.023017202 -0.03917329
0000b0 f7 a2 ff bc 06 45 81 3d a2 ae 24 bd d3 db 94 bb
       -0.031205637 0.06311993 -0.040205605 -0.0045428067
0000c0 6d 5b 8a 3d d0 fd 61 bd eb 1a 4d 3d 60 f2 1a 3d
       0.06755719 -0.055173695 0.0500745 0.037828803
0000d0 d3 7b 10 bd 85 7d 11 3d 06 65 5c bd df bc 74 bd
       -0.035274338 0.035520095 -0.05380728 -0.059750434
0000e0 f3 74 f6 3c 59 7e 81 bd 62 ba 81 bc 7c ba 82 3d
       0.030085063 -0.06322927 -0.015835945 0.06383225
0000f0 ae 99 64 3b ea d9 a6 bd 8a f9 4b 3d 59 70 14 bd
       0.003488164 -0.081470326 0.049798526 -0.036239956
000100 17 f5 78 bd ce 46 38 3b 40 e4 8b 3d aa a8 57 3c
       -0.06078061 0.0028118375 0.068306446 0.013162771
000110 87 6a 98 bd 70 e4 7f bd 6b 2a 15 3d f7 3b ca 3c
       -0.074421935 -0.062473714 0.036417406 0.024686797
000120 c9 af 41 bd 84 97 95 bd 85 1b 85 bd 68 b5 3a 3c
       -0.047286782 -0.0730429 -0.064993896 0.01139579
000130 7f 73 84 bd 8b 2c 57 3d 46 64 8d 3c f2 12 0c bd
       -0.06467342 0.052532714 0.017259728 -0.034197755
000140 0f 03 4c bd 9b 79 cf bd c1 88 0e bd 17 00 d0 bc
       -0.049807604 -0.10130616 -0.034798387 -0.025390668
000150 b4 5b 51 bd d1 29 b6 3d 09 f0 73 3c 8f 31 32 bd
       -0.051112846 0.088946946 0.014888772 -0.043504294
000160 f0 2d 91 bc 34 8b 00 3d 36 77 a9 3c 15 df 57 3c
       -0.0177221 0.031382754 0.020686727 0.0131757455
000170 9a 11 cb bd 95 30 8f bd 10 78 98 bb 36 29 8f 38
       -0.099154666 -0.06991688 -0.0046529844 6.8264475e-05
000180 d8 99 2e 3b 57 cf de bd c4 a9 97 bd 3b 29 3b bd
       0.002664199 -0.10879391 -0.07405427 -0.045693617
000190 a5 73 e0 3b 5f f9 4b bd 97 24 c5 3c cd a1 99 bd
       0.0068497234 -0.049798366 0.024065299 -0.07501564
0001a0 d3 a7 61 bd 60 65 b9 bb 32 05 bf bd 93 c0 cb bd
       -0.05509169 -0.005657837 -0.09327163 -0.0994884
0001b0 09 08 11 3d bf 40 67 3d 95 54 63 bd 89 d2 64 bc
       0.035408054 0.05645823 -0.055500586 -0.013966211
0001c0 0e 14 98 bc a3 9b 57 3d 4c 03 bf 3d a8 7d 2e 3d
       -0.01856425 0.05263866 0.09326801 0.042600304
0001d0 f9 e0 b2 3c 44 e4 05 3e f5 14 9c bc ec 76 27 bd
       0.021835791 0.13075358 -0.019052962 -0.040884897
0001e0 bd c3 6e 3d 37 32 70 3d 6a f6 8b 3d d5 2d 5a 3c
       0.05829214 0.05864164 0.06834109 0.013316591
0001f0 7d 45 4b bd dd fe d7 bc 52 2d 56 bd 57 a3 14 bc
       -0.049626816 -0.026366645 -0.052289315 -0.009072146
000200 8b 16 82 bc 12 7c ea bd 3b 41 45 3d 50 33 3c 3d
       -0.01587989 -0.11449446 0.04815791 0.045947373
000210 0c 1a 82 bd ec 2f 27 3e 65 b2 2d 3d ba 97 61 bd
       -0.06352624 0.16326874 0.04240646 -0.05507634
000220 f9 1f f1 bc 4f d2 e1 3d f8 34 1f 3d 9a ab 3c bc
       -0.029434191 0.11026441 0.038868874 -0.011515522
000230 62 e2 9a bd b8 c3 37 3a 81 b7 12 bd 94 66 c8 bc
       -0.0756271 0.00070100604 -0.035819534 -0.024462976
000240 1d 98 30 3c a9 16 e8 bd 3b ba 64 3c 48 c7 8e 3c
       0.010778454 -0.11332447 0.013960416 0.01742901
000250 ee 8a 03 bd ac e2 1a 3c 7b 48 24 3c f7 9f 0f bd
       -0.032114916 0.009453457 0.010027046 -0.035064664
000260 0e 49 28 bc 4f 38 42 3c 4a ed 27 3d 7d 0a 88 bd
       -0.010271324 0.011854245 0.04099778 -0.066426255
000270 43 f0 89 3c cf c7 d7 bd 1a e1 a4 3c 96 87 ff bb
       0.016838199 -0.10536157 0.020126868 -0.0077981455
000280 39 df 86 bc d4 b4 91 bd eb f7 ca bd 9e 68 26 bd
       -0.016463863 -0.07114568 -0.09910568 -0.040627114
000290 f8 3c f5 bb dd 0f 82 bc 0a 6a 6e bb f9 63 46 bc
       -0.0074840747 -0.015876705 -0.0036379122 -0.012108796
0002a0 ec d2 47 bc 7f 85 07 bd f0 05 5a bc 1e 8b 4f bc
       -0.012196284 -0.033086296 -0.01330708 -0.0126674455
0002b0 87 5e 40 3c f7 d4 b3 3c 93 96 8a bd 31 d8 5f bd
       0.011741287 0.021952135 -0.06767001 -0.054649536
0002c0 d4 5f 21 bd 3f 3b 06 3d 5e 7e b2 bd 54 c0 e2 3c
       -0.03939803 0.032771345 -0.08715509 0.0276796
0002d0 42 1b 78 3d b2 1b 52 bd ee e8 b6 3c bd 04 41 3d
       0.06057287 -0.051295944 0.022327866 0.04712366
0002e0 79 b7 8e 3d df d0 9c bd c9 39 00 bd 64 b7 3f ba
       0.069685884 -0.076570265 -0.03130511 -0.0007313399
0002f0 4e e9 06 be 4c f9 13 3c a2 7c 60 3c 36 99 7e bc
       -0.13174936 0.009031605 0.01370159 -0.015539458
000300 0a 77 94 bc 51 19 42 bd 98 21 dd 3c 88 f6 26 3d
       -0.018123168 -0.047387425 0.026993558 0.040762454
000310 45 4a b7 bd 6f 5a 0c 3c 98 d1 2c 3d ae 98 14 bc
       -0.08949713 0.008566483 0.04219207 -0.009069605
000320 7c eb 56 bd 61 14 35 bd 52 48 66 bd 96 0c c3 bc
       -0.05247067 -0.044208888 -0.056221314 -0.023809712
000330 8c e7 a0 3c 1d aa 5b bd 9a 5a 28 3d 0f 0a 78 bc
       0.01964166 -0.05362903 0.04110203 -0.015139117
000340 3a 38 16 bd 6b 31 e4 bc d9 64 5c 3c d7 cb 26 bd
       -0.036674716 -0.027855596 0.013451778 -0.04072174
000350 66 b4 80 bc 3a 08 27 3d ee df 91 bd cf 7a 6c 3c
       -0.01571102 0.04077933 -0.07122789 0.014433577
000360 d9 f4 71 3d e2 0b 24 3d 61 25 4c bd f3 ed 7e ba
       0.059071396 0.040050395 -0.049840335 -0.0009724788
000370 bd 59 d7 bd 4a be 94 bd b3 0d 55 3d de 0a 12 bc
       -0.10515163 -0.07262857 0.052015018 -0.008913724
000380 4d 60 71 bd 1a fc 4d bd 2c c1 5d bd ff 77 0e bd
       -0.05892973 -0.05028925 -0.0541393 -0.034782406
000390 6a 1b e7 bc c7 70 9f bc 72 1e d9 3c 0c 2b 38 bc
       -0.028211314 -0.019462956 0.026503775 -0.011240732
0003a0 b4 69 2f 3d 11 da fb bc d3 d0 8b bc e5 b1 59 bd
       0.042825416 -0.03074363 -0.017067349 -0.05314817
0003b0 ae c4 0f bd 1b 70 48 3d dd 14 b1 bc 3b b1 8f bd
       -0.035099678 0.048935037 -0.021616394 -0.07016226
0003c0 73 e1 30 bd 3b 2f db bd 30 c4 32 bd a0 bb 10 39
       -0.043183755 -0.10702368 -0.04364413 0.00013802806
0003d0 c7 34 76 bd 53 1c 2e 3c 37 0b ce 3d f7 06 ec 3a
       -0.060108926 0.01062687 0.10060733 0.0018007447
0003e0 8a ac ab bd 9d fc b1 bb fb 6c c0 3c fb bc f0 bc
       -0.083825186 -0.005431725 0.023489466 -0.029386988
0003f0 73 b9 14 bd aa ae 8d 3d 09 60 d5 3c a5 81 de 3c
       -0.03630967 0.0691808 0.02604677 0.027161429
