best_model_epoch_4.pth (torch, 741122 bytes, 15 tensors)

encoder.0.weight f4 [16, 1, 3, 3]
0	0x3dc087aa	0.09400876
1	0xbe59a2bb	-0.21253483
2	0xbe81cbae	-0.25350708
3	0xbee6e4bd	-0.45096388
4	0xbed0b0f3	-0.40760002
5	0xbe8f4414	-0.27981627
6	0xbf11bc3a	-0.56927836
7	0xbef5a701	-0.47978976
8	0x3e24bea4	0.16088349
9	0xbda65635	-0.081219114
10	0xbe0847fe	-0.13308713
11	0x3e4ee483	0.20204358
12	0xbe73f34d	-0.2382328
13	0xbe0f50c6	-0.13995656
14	0x3f02a231	0.51028734
15	0xbe134d9e	-0.14385077
16	0xbea79b08	-0.32735467
17	0x3ecdf2eb	0.40224394
18	0x3dadd3ea	0.08487685
19	0x3e731df2	0.23741892
20	0xbec8f949	-0.3925269
21	0x3eee4a45	0.46541038
22	0xbe2982c2	-0.16553786
23	0x3d544519	0.05182371
24	0x3ea4c14b	0.3217872
25	0x3e5e6f59	0.21722163
26	0xbeb86fad	-0.36022702
27	0x3f356b67	0.7086701
28	0xbb4b3edc	-0.003101281
29	0x3d8080c0	0.06274557
30	0x3e3755b2	0.17903784
31	0xbd312faa	-0.043258347
32	0x3b462c8b	0.0030238952
33	0x3e3ddb5b	0.18540709
34	0xbea6b882	-0.32562643
35	0xbf330170	-0.6992407
36	0x3eaabe8f	0.3334851
37	0x3eccb1ff	0.3997955
38	0x3e3dbd55	0.18529256
39	0x3eff487c	0.4985999
40	0x3d304bf9	0.043041203
41	0xbe0dfd3b	-0.13866131
42	0x3b0bb79d	0.002131916
43	0xbdec99b3	-0.11552753
44	0xbd99e87a	-0.075150445
45	0xbe247fd4	-0.16064388
46	0xbc8a6e6b	-0.016898355
47	0xbec0ef93	-0.3768278
48	0x3edf3ca3	0.4360095
49	0x3f1e2014	0.617677
50	0x3ede0554	0.4336344
51	0x396f6ceb	0.00022833391
52	0x3ed302bb	0.4121302
53	0x3be78f23	0.007066624
54	0xbe945d7d	-0.28977576
55	0xbf0712b4	-0.52762914
56	0xbf33381b	-0.70007485
57	0xbda00214	-0.07812896
58	0xbf315901	-0.69276434
59	0xbd5001cd	-0.050782967
60	0xbeffd525	-0.49967304
61	0xbf00aefb	-0.50267
62	0xbeb428a1	-0.35187247
63	0xbd02b81d	-0.031913865
64	0xbf0e31e7	-0.55544895
65	0xbf1b3a5b	-0.6063592
66	0xbf1b4789	-0.6065603
67	0xbebf9b37	-0.37423107
68	0xbd58cea9	-0.05293146
69	0xbf03cd38	-0.51485014
70	0xbe848073	-0.2587925
71	0xbf0260cf	-0.5092897
72	0x3e25a351	0.16175582
73	0xbf2007b8	-0.6251178
74	0xbe6e8d8b	-0.23296182
75	0xbf092050	-0.5356493
76	0xbdc89be6	-0.0979536
77	0x3e8dc139	0.2768648
78	0xbe1b3e22	-0.1516042
79	0xbdb825ee	-0.089916095
80	0x3edbcda7	0.42930338
81	0x3ee0336a	0.43789226
82	0xbe3dbb2d	-0.18528433
83	0xbf05e52c	-0.52302814
84	0x3ee0318e	0.43787807
85	0xbe2ec997	-0.17069088
86	0xbe6e2045	-0.23254497
87	0x3e1b8470	0.1518724
88	0x3cf77521	0.030207219
89	0x3eaa42d3	0.33254108
90	0xbd13b9a9	-0.03606573
91	0xbd83a679	-0.064282365
92	0x3e9d8489	0.3076518
93	0x3e5efec2	0.2177687
94	0x3f0550ed	0.5207661
95	0x3ee07a69	0.43843392
96	0x3df630e0	0.12021041
97	0x3f0edc68	0.55805063
98	0x3ec36a2d	0.38166943
99	0xbe990f79	-0.29894617
100	0xbebac10f	-0.36475417
101	0xbee28d42	-0.44248396
102	0x3b72d45e	0.003705285
103	0xbe0ba56b	-0.1363732
104	0x3eaaf147	0.33387205
105	0x3eda4cdf	0.42636773
106	0x3eebe0a3	0.46069822
107	0x3ee07170	0.43836546
108	0x3ea00067	0.31250307
109	0x3e61e591	0.22060229
110	0x3e349dc6	0.17638311
111	0xbd7da6c5	-0.061926622
112	0x3eca8afb	0.3955916
113	0x3e540ca4	0.20707947
114	0x3e3abb2e	0.18235466
115	0xbdca6ed8	-0.09884423
116	0x3d9f5d74	0.07781497
117	0xbf0a2bb1	-0.5397292
118	0xbe4c0cb5	-0.19926722
119	0x3eac56ed	0.3366007
120	0xbf10833c	-0.5645025
121	0x3e9f2f21	0.31090644
122	0x3e8cfabb	0.27535042
123	0x3bfeea72	0.007779413
124	0x3e0dfd18	0.13866079
125	0x3f0c668a	0.5484396
126	0x3c0ce44e	0.008599354
127	0x3ef80800	0.48443604
128	0x3c265e10	0.010154262
129	0x3d798c2d	0.060924698
130	0x3efc8106	0.49317187
131	0xbdba651f	-0.091013186
132	0x3cc916f3	0.024547076
133	0x3ee8fc8d	0.4550518
134	0xbd5f7cad	-0.05456226
135	0xbeaee6eb	-0.3416055
136	0xbe3734c1	-0.17891218
137	0x3ed047a9	0.40679672
138	0xbe3e613d	-0.18591781
139	0x3ec79be3	0.3898612
140	0xbdde7d82	-0.108637825
141	0xbd62820c	-0.055299804
142	0x3ee71922	0.45136362
143	0xbede3a96	-0.43404073

encoder.0.bias f4 [16]
0	0x3e8b7c3f	0.2724323
1	0x3e4bd2a9	0.19904579
2	0x3e98ef84	0.29870236
3	0x3c0e270c	0.008676302
4	0x3d881a02	0.066455856
5	0x3c3e86cf	0.011628821
6	0x3e40bcf4	0.1882208
7	0x3eb70f28	0.3575375
8	0x3e182cd4	0.1486085
9	0x3bd6400d	0.006538397
10	0x3bb18b1d	0.005418195
11	0xbbd0f7e8	-0.006377209
12	0x3e02ed53	0.12785845
13	0xbbf27a37	-0.007399823
14	0x3d129ea5	0.035795826
15	0xbc207168	-0.009792663

encoder.2.weight f4 [32, 16, 3, 3]
0	0xbea52f0b	-0.32262453
1	0x3e079eae	0.13244125
2	0x3d6dbacd	0.058039475
3	0xbe2c474c	-0.16824073
4	0x3c93c642	0.018038873
5	0x3d5143a8	0.051089913
6	0xbe547ce1	-0.20750763
7	0x3e2a6b5d	0.16642518
8	0x3dd6e45b	0.10492774
9	0x3d965018	0.073394954
10	0xbe3eb8d8	-0.186252
11	0x3df0d4ea	0.1175936
12	0x3c96a550	0.018389374
13	0xbe57634c	-0.21033973
14	0xbcbe5342	-0.02323306
15	0xbd39aaa6	-0.04532876
16	0x3cbb2481	0.022844555
17	0x3df7470e	0.120740995
18	0x3e48c10d	0.19604893
19	0x3dd5ae1c	0.10433599
20	0xbdb1333c	-0.0865235
21	0x3e20cba5	0.15702684
22	0x3d3209e1	0.043466453
23	0xbe3ae3e5	-0.18250997
24	0x3e7e8a4f	0.24857448
25	0xbb3790fa	-0.0028009997
26	0xbd740295	-0.059572775
27	0x3d788710	0.06067568
28	0x3e49105a	0.19635144
29	0xbe11f5b7	-0.14253889
30	0x3e4ae5f1	0.19814278
31	0x3e1c1d0e	0.15245458
32	0xbe69d615	-0.22835572
33	0x3e06cae8	0.1316334
34	0x3e13a730	0.14419246
35	0xbeaeef6a	-0.34167033
36	0x3e35cab8	0.17753112
37	0x3dfc5c31	0.123222716
38	0xbe5bebfa	-0.21476737
39	0x3e81ae35	0.25328222
40	0x3d3d5557	0.046223965
41	0xbe2aaa8f	-0.16666625
42	0x3e881e24	0.26585495
43	0x3cb79c0d	0.022413278
44	0xbe026655	-0.12734349
45	0x3e27ad05	0.16374595
46	0x3c89a794	0.01680354
47	0xbe970451	-0.2949548
48	0x3e9e834d	0.3095955
49	0xbe0d836a	-0.13819662
50	0xbea5e45f	-0.32400796
51	0x3e3749d7	0.17899261
52	0xbd2357ae	-0.03987854
53	0xbda2f942	-0.079576984
54	0xbeb90772	-0.36138493
55	0x3dc0402a	0.09387238
56	0x3d42662a	0.047460712
57	0xbe96e9da	-0.2947529
58	0x3e119035	0.14215167
59	0x3dea7931	0.11448897
60	0xbd8bad98	-0.0682022
61	0x3e483bad	0.19554015
62	0x3d6ec015	0.058288652
63	0xbe8a68d6	-0.27033108
64	0x3e325f82	0.17419246
65	0x3dac422d	0.084110595
66	0xbe33e285	-0.17566879
67	0x3c3ef581	0.011655212
68	0x3dd23748	0.1026445
69	0xbe23175d	-0.15926881
70	0x3d89deab	0.06731924
71	0x3d17582d	0.036949325
72	0xbddfa24f	-0.1091963
73	0x3dfaf261	0.12253261
74	0x3e669b6f	0.2252023
75	0xbe83d833	-0.25750884
76	0xbdc58163	-0.09643819
77	0x3e22421d	0.15845533
78	0xbe446335	-0.1917847
79	0x3d54f62b	0.051992577
80	0x3deed481	0.11661626
81	0x3e44f028	0.19232237
82	0x3e746dbf	0.2386999
83	0xbcdef1b2	-0.027214859
84	0x3e298cc7	0.16557609
85	0x3e3f76a2	0.18697599
86	0xbd9131b1	-0.07089556
87	0x3e11beca	0.14232937
88	0x3e9786a7	0.2959492
89	0xbdaf645c	-0.08564064
90	0x3e658697	0.22414623
91	0xbdf90153	-0.12158456
92	0xbe8de740	-0.27715492
93	0x3e9812e0	0.297019
94	0xbd9cad9e	-0.07650302
95	0xbe968c61	-0.29403976
96	0x3e2330b8	0.15936553
97	0xbe049374	-0.12946874
98	0x3c4d4e30	0.012530848
99	0x3e1931e0	0.14960432
100	0xbe36e040	-0.17858982
101	0xbe6e8c56	-0.23295721
102	0x3e535d72	0.20641115
103	0xbe173ace	-0.14768526
104	0xbe817413	-0.2528387
105	0x3c81e978	0.015858397
106	0xbde7631f	-0.11298203
107	0x3d80b8c3	0.062852405
108	0x3e17282d	0.1476142
109	0xbd3024cc	-0.043003842
110	0xbe1698cc	-0.14706725
111	0x3e7e32e7	0.24824105
112	0xbd878bf1	-0.066184886
113	0xbe2e5caf	-0.17027543
114	0x3de867f8	0.113479555
115	0xbdd44bab	-0.10365995
116	0xbdff77c5	-0.12474016
117	0x3e99ccdf	0.30039117
118	0xbe8eedfc	-0.27915943
119	0xbd007652	-0.03136284
120	0x3e25362d	0.16133948
121	0xbea06da2	-0.31333643
122	0x3d223af6	0.03960701
123	0x3dc373bc	0.09543559
124	0xbe7ea1f6	-0.2486647
125	0x3e0cf7e1	0.13766433
126	0x3e914a4f	0.28377005
127	0x3ca0e324	0.01963956
128	0xbe9afe14	-0.3027197
129	0x3e708923	0.23489814
130	0xbd927332	-0.07150878
131	0xbe8bf855	-0.273379
132	0x3e8cd1dd	0.27503863
133	0xbd29f951	-0.041497532
134	0xbdbd1e3b	-0.09234282
135	0x3e865d5a	0.26243097
136	0xbe094a77	-0.13407312
137	0x3e772003	0.24133305
138	0x3ea56752	0.3230539
139	0xbe9a1eed	-0.3010172
140	0x3e4c80bc	0.19970983
141	0x3eb94e92	0.36192757
142	0xbf2ad857	-0.6673636
143	0x3cd68600	0.026186943
144	0xbdd32125	-0.10309056
145	0xbdbbaf12	-0.091642514
146	0xbdec6804	-0.11543277
147	0xbd2b3128	-0.041794926
148	0x3deaa8bb	0.11457964
149	0xbe0cec95	-0.13762124
150	0x3dd4dbfb	0.103935204
151	0x3e74b156	0.23895773
152	0x3db82b09	0.08992583
153	0xbcd69c13	-0.026197469
154	0x3d37b602	0.04485131
155	0x3e08421f	0.13306473
156	0x3d86ad3b	0.0657601
157	0x3db29404	0.08719638
158	0x3e4631a9	0.19354881
159	0xbe1a38e0	-0.15060759
160	0x3c975334	0.018472292
161	0x3df210ef	0.11819636
162	0xbe534445	-0.20631512
163	0x3df3c82b	0.119034134
164	0x3e5e4ea8	0.21709692
165	0xbde09035	-0.10965005
166	0x3d2484f9	0.040165875
167	0xbc490ae6	-0.012270665
168	0xbe22393e	-0.15842149
169	0xbe0ccec4	-0.1375075
170	0xbcdd451c	-0.027010493
171	0xbe161cff	-0.14659499
172	0xbda75c1b	-0.081718646
173	0x3e0a2882	0.13492015
174	0x3d3bdad0	0.045862973
175	0xbe39fa43	-0.18161874
176	0xbe32c0a7	-0.17456304
177	0x3db21e45	0.0869718
178	0xbe28728a	-0.16449943
179	0xbe2b34e1	-0.1671939
180	0xbd1a36d0	-0.03764993
181	0x3df9a20a	0.121891096
182	0x3e9b60f8	0.3034742
183	0xbdaa9ef3	-0.083310984
184	0x3daff185	0.08590988
185	0x3e7e34ed	0.24824877
186	0xbdf84a1f	-0.121235125
187	0xbddb2438	-0.107002676
188	0x3d3d36cd	0.04619484
189	0xbd6ef75a	-0.05834136
190	0x3e8163d4	0.25271475
191	0x3e9774fa	0.29581434
192	0xbe64f436	-0.22358784
193	0x3e26a2cc	0.1627304
194	0x3e1983dd	0.14991708
195	0xbea2e851	-0.31817868
196	0xbe9a30d7	-0.30115387
197	0xbc34e79c	-0.011041548
198	0xbdaaaae1	-0.08333374
199	0xbe1603ce	-0.14649889
200	0xbe2667fd	-0.16250606
201	0xbb07c8b4	-0.0020718994
202	0x3d8864b3	0.06659832
203	0xbceefd20	-0.029173434
204	0x3df4b60b	0.119487844
205	0x3e35df0a	0.17760864
206	0x3de258bd	0.11052082
207	0xbe2001c6	-0.15625677
208	0xbe6af5e6	-0.22945365
209	0xbe137862	-0.14401391
210	0xbc9de245	-0.019272933
211	0x3e62ddbf	0.22154902
212	0xbdbba7d8	-0.09162873
213	0x3d7b5713	0.061362337
214	0x3e4aa1bc	0.1978826
215	0x3dcdcf33	0.10049286
216	0xbe999460	-0.29996014
217	0xbe62ea7f	-0.22159766
218	0xbe79181e	-0.24325606
219	0xbe1ee51d	-0.15517087
220	0xbe349cfb	-0.17638008
221	0xbe8c8264	-0.2744323
222	0xbdbf9cfd	-0.09356115
223	0x3e213043	0.15741067
224	0xbd8cfcbc	-0.06884143
225	0xbe0f5286	-0.13996324
226	0x3e2d221f	0.16907547
227	0x3ea433e3	0.32070836
228	0xbefc5b8c	-0.49288595
229	0xbe99fc39	-0.30075243
230	0xbc7b8b0e	-0.015352977
231	0xbda9fbc1	-0.08299971
232	0xbec2c390	-0.38039827
233	0xbe2d661f	-0.16933487
234	0xbd34523d	-0.04402374
235	0x3e5c1643	0.21492867
236	0x3e8c832e	0.27443832
237	0xbddfb0cf	-0.109223954
238	0x3d9b1c93	0.075738095
239	0x3e804ac8	0.25057054
240	0xbea6822e	-0.32521194
241	0xbe531760	-0.20614386
242	0xbd83911b	-0.06424161
243	0x3d31fd85	0.043454666
244	0x3e14a4ac	0.14515942
245	0x3e942c51	0.2894006
246	0xbdca102f	-0.09866368
247	0xbe1abbf1	-0.15110756
248	0x3d77edda	0.060529567
249	0xbe5913cc	-0.21198958
250	0xbebe73ee	-0.37197822
251	0xbe8311ab	-0.25599417
252	0xbd4729ee	-0.04862397
253	0x3e54b7c6	0.20773229
254	0x3e89e85b	0.26935086
255	0xbc77c24b	-0.015122007

encoder.2.bias f4 [32]
0	0xbd24de6b	-0.040251177
1	0x3de3ce50	0.11123335
2	0x3dc8208b	0.09771832
3	0x3d91479e	0.07093738
4	0x3d51bb55	0.051204044
5	0x3dd1d02d	0.102447845
6	0x3dda4bc8	0.106589854
7	0x3dae4c75	0.08510677
8	0x3d3b98c1	0.045799974
9	0xbc315448	-0.010823317
10	0x3e0127bb	0.12612812
11	0xbc3dc05c	-0.011581507
12	0x3dd318d9	0.10307474
13	0xbb7579b1	-0.0037456567
14	0x3ddd7a35	0.10814325
15	0x3d4d45aa	0.050115265
16	0xbce5e955	-0.028065363
17	0x3cff2dc6	0.031149756
18	0x3e36d63a	0.17855158
19	0x3dcbab40	0.09944773
20	0x3d9b2906	0.07576184
21	0xbd76642c	-0.060154125
22	0x3d4264b3	0.047459316
23	0xbd04e0a1	-0.032440785
24	0x3e68ae48	0.22722733
25	0x3dbd05a2	0.0922959
26	0x3d7a23aa	0.06106917
27	0x3df79225	0.12088422
28	0x3e550963	0.20804362
29	0xbd85bb17	-0.06529825
30	0xbbcf228b	-0.0063212565
31	0x3ce02a02	0.02736378

encoder.4.weight f4 [64, 32, 3, 3]
0	0xbcf3c78c	-0.029758237
1	0x3d31deed	0.04342549
2	0x3e0bfc09	0.13670363
3	0x3e1374b1	0.14399983
4	0xbe039815	-0.12850983
5	0x3d00c95e	0.03144204
6	0xbe6cc6d0	-0.23122716
7	0xbe01adc0	-0.12663937
8	0xbe4233ae	-0.18965027
9	0x3cf33ab1	0.029691072
10	0x3dae2448	0.08503014
11	0xbe393e69	-0.18090214
12	0xbdad6ea1	-0.084683664
13	0xbdb670d7	-0.08908241
14	0x3cf4abdb	0.029867103
15	0xbcc48ac1	-0.023991944
16	0x3da7da62	0.0819595
17	0xbe14d38d	-0.14533825
18	0xbbbcb1fa	-0.005758521
19	0x3c667ecd	0.014068318
20	0xbd015673	-0.031576585
21	0xbddbecd0	-0.10738528
22	0x3d993673	0.074810885
23	0x3deeba16	0.11656587
24	0x3d889ada	0.066701606
25	0x3d0f7078	0.035019368
26	0xbd810cab	-0.06301244
27	0xbe051a0c	-0.12998217
28	0x3ca54ac4	0.020177253
29	0x3d5a4a2b	0.05329339
30	0x3e59c5cb	0.21266858
31	0xbd253f9c	-0.040343866
32	0xbe3977e8	-0.18112147
33	0xbe66a005	-0.2252198
34	0xbdde3ed0	-0.10851824
35	0xbd040212	-0.032228537
36	0xbd2cc3b5	-0.04217883
37	0xbe5e6771	-0.21719147
38	0x3d1e59d1	0.038659874
39	0x3d059e01	0.032621387
40	0x3e2a0c47	0.16606246
41	0x3ca374a1	0.019953074
42	0x3e106005	0.14099129
43	0xbd4776b6	-0.048697196
44	0x3e1c7cfa	0.1528205
45	0xbc2bad35	-0.0104783075
46	0x3dc56cb9	0.09639878
47	0xbd8cea07	-0.06880575
48	0xbccab67b	-0.024745217
49	0xbe257a7e	-0.16160008
50	0xbd8c610b	-0.06854447
51	0xbdc295db	-0.09501239
52	0xbbece050	-0.0072288886
53	0xbca4b883	-0.020107513
54	0x3be68524	0.0070349146
55	0xbd6db9c1	-0.058038477
56	0xbd169d2e	-0.036770992
57	0x3b89cb9e	0.0042051813
58	0x3defca5e	0.1170852
59	0x3e017473	0.12642078
60	0x3d5e1983	0.05422355
61	0x3ca8f587	0.020624889
62	0xbe3aaf68	-0.18230975
63	0xbd006346	-0.031344675
64	0x3d7cfb4b	0.06176309
65	0xbd9758b3	-0.07389965
66	0xbda1876b	-0.07887157
67	0x3d90ff47	0.0707994
68	0x3dcedcd8	0.10100716
69	0xbd3bca5f	-0.045847293
70	0x3cfbd6af	0.030742018
71	0xbd6792e8	-0.056536585
72	0xbe0c690b	-0.13711946
73	0x3d25c320	0.04046929
74	0xbc8ed0b0	-0.017433494
75	0x3cade0ad	0.021225298
76	0xbbe26de6	-0.0069100736
77	0x3e28f469	0.16499485
78	0xbd50b328	-0.050952107
79	0x399374e8	0.00028125127
80	0xbd1315db	-0.035909515
81	0xbd4ee2d2	-0.05050928
82	0x3dce7ba4	0.10082176
83	0x3cb0eab1	0.021596285
84	0xbd9e752f	-0.07737195
85	0xbe26a971	-0.16275574
86	0x3e4d4c73	0.20048694
87	0xbe43579f	-0.19076394
88	0x3d73f3a2	0.05955852
89	0xbd3652e7	-0.044512656
90	0x3c1b2b40	0.009470761
91	0xbd439fc7	-0.047759797
92	0xbd80d717	-0.06291025
93	0xbd3a87ee	-0.04553979
94	0x3dcf5156	0.101229355
95	0x3e068270	0.13135695
96	0x3d80f2f5	0.062963404
97	0x3dc8b263	0.097996496
98	0xbd878978	-0.06618017
99	0xbd4d561c	-0.05013095
100	0xbc3b5542	-0.011433901
101	0x3c8b9168	0.017037109
102	0x3d951d3e	0.07280968
103	0x3c981db6	0.018568855
104	0x3c93bf19	0.018035458
105	0xbd59ba01	-0.053155903
106	0x3d2207be	0.039558165
107	0x3c59832b	0.013275902
108	0xbdf9a7bf	-0.12190198
109	0xbda2dd33	-0.07952347
110	0x3c822233	0.015885448
111	0x3e4cc4bd	0.19996925
112	0xbcf1f270	-0.029534549
113	0xbe00ef3c	-0.1259126
114	0xbe1febdb	-0.15617315
115	0xbe46fb1f	-0.19431733
116	0x3cb33358	0.021875069
117	0x3d9537d7	0.07286041
118	0xbd814f5f	-0.06313967
119	0x3daeecb3	0.085412405
120	0x3e2d82d6	0.16944441
121	0xba0ceed9	-0.0005376167
122	0xbe303608	-0.17208111
123	0x3d9610bb	0.0732741
124	0xbe65b033	-0.22430496
125	0xbb588cc2	-0.0033042883
126	0xbd816df9	-0.06319804
127	0x3b900d79	0.0043961373
128	0xbd7f37f7	-0.06230923
129	0xbd89cb4f	-0.06728231
130	0xbaa6175a	-0.0012671754
131	0x3d5dc8d0	0.054146588
132	0x3d402b82	0.046916492
133	0x3d5592d1	0.05214197
134	0x3d7ed1ae	0.062211685
135	0xbd40f76e	-0.047110967
136	0xbe1e454a	-0.15456119
137	0xbd3670df	-0.044541236
138	0xbd2b2ee1	-0.041792754
139	0x3d3b6bfb	0.045757275
140	0xbcde2fcc	-0.0271224
141	0xbb24c55b	-0.0025142047
142	0xbccdc44b	-0.025118014
143	0xbd87431c	-0.06604597
144	0xbd02cb77	-0.03193232
145	0x3ddd6574	0.10810366
146	0xbde65b35	-0.11247865
147	0xbe1c6e62	-0.15276483
148	0xbd7b694b	-0.061379712
149	0x3dc3f08f	0.09567367
150	0x3d1a163e	0.037618868
151	0xbce1a2c4	-0.027543433
152	0x3d9b4552	0.07581581
153	0x3bc96dfa	0.0061471434
154	0x3c1287fd	0.008943555
155	0x3d18eded	0.03733628
156	0xbd53cee5	-0.051710982
157	0x3d7298e9	0.059227858
158	0xbd167a51	-0.036737744
159	0x3c54f336	0.012997439
160	0x3cc663ba	0.024217475
161	0xbcdfe07b	-0.02732872
162	0x39279abe	0.00015984007
163	0x3c7d7a27	0.015471018
164	0xbde6eb45	-0.11275343
165	0xbda09575	-0.07841007
166	0xbc785c67	-0.015158749
167	0x3e430344	0.19044214
168	0x3d58edee	0.052961282
169	0x3de18942	0.11012508
170	0xbdd07e18	-0.101803005
171	0xbd9eb3f5	-0.07749168
172	0xbcb44702	-0.022006515
173	0xbda6ab71	-0.081381686
174	0x3d02be99	0.03192005
175	0x3ddb1bc5	0.10698656
176	0x3e1734b5	0.147662
177	0x3dff9f75	0.12481586
178	0xbdafad2b	-0.08577951
179	0xbc8f1526	-0.017466139
180	0xbd3c0d51	-0.045911137
181	0x3dd278af	0.10276925
182	0xbc44991a	-0.011999393
183	0x3e053f87	0.13012515
184	0xbe401bd8	-0.18760622
185	0xbe31fb68	-0.1738106
186	0xbedc3680	-0.4301033
187	0xbdeacbb4	-0.114646345
188	0x3d8cff68	0.068846524
189	0xbe125dfc	-0.14293665
190	0xbc8c3d91	-0.0171192
191	0x3e1d729b	0.1537575
192	0x3d869654	0.065716416
193	0xbdfcb8e6	-0.12339954
194	0xbdb77c81	-0.08959294
195	0xbdbcb93b	-0.092150174
196	0x3d01d09c	0.031693086
197	0xbe1502ef	-0.145519
198	0xbd1754da	-0.036946155
199	0x3ba8bbe9	0.0051493538
200	0xbe1f51dd	-0.15558572
201	0xbdfcda03	-0.1234627
202	0xbea20c9f	-0.31650254
203	0x3e43fe12	0.19139889
204	0xbc41526c	-0.011799436
205	0x3e64c031	0.2233894
206	0xbde7ccfb	-0.11318394
207	0xbe43962b	-0.19100253
208	0xbd71f8ec	-0.05907528
209	0x3de4f1f4	0.111789614
210	0x3df2da2c	0.11858019
211	0x3cc3098e	0.023808267
212	0xbe51eade	-0.20499751
213	0xbe2836b8	-0.16427124
214	0xbdf17213	-0.11789336
215	0xbd9b17a3	-0.07572868
216	0xbc8a3114	-0.016869105
217	0xbda914fb	-0.08255955
218	0xbc9375ae	-0.01800045
219	0xbd79ee0b	-0.06101803
220	0x3dba7eb7	0.091062
221	0x3ddeb889	0.10875041
222	0x3d6036e2	0.05473984
223	0x3d447b6a	0.04796926
224	0xbdae8c6a	-0.085228756
225	0xbd341188	-0.04396203
226	0x3bd9609b	0.0066338307
227	0xbdb38d55	-0.08767191
228	0x3c9cac2b	0.019125065
229	0x3e554be9	0.20829739
230	0xbe2bf8d9	-0.16794147
231	0x3cd7dcf3	0.026350474
232	0xbe5409ac	-0.20706815
233	0xbd765190	-0.060136378
234	0xbda7068e	-0.08155547
235	0x3c1d3e02	0.009597303
236	0xbe1def0d	-0.15423222
237	0x3d3ffef8	0.046874017
238	0xbdd7a600	-0.10529709
239	0x3df70abf	0.120625965
240	0x3de2f135	0.11081163
241	0x3cc46ae7	0.023976756
242	0x3b17fad8	0.0023190286
243	0x3c5e29d3	0.013559776
244	0xbdb21d4d	-0.08696995
245	0xbc75f2cf	-0.015011503
246	0xbd5bbeab	-0.053648632
247	0x3db01a99	0.08598823
248	0x3d4c0fc4	0.049819723
249	0x3b6c25ea	0.003603334
250	0xbd743555	-0.059621174
251	0xbd803c07	-0.06261449
252	0x3d33e923	0.04392351
253	0x3cdee4b6	0.027208667
254	0xbc985ce3	-0.01859898
255	0xbd642442	-0.05569864

encoder.4.bias f4 [64]
0	0x3d1e5ab7	0.03866073
1	0xbe2fd030	-0.17169261
2	0x3dc4f4ce	0.09617005
3	0xbda12707	-0.07868772
4	0x3d4cb498	0.049976915
5	0xbe04812c	-0.129399
6	0x3d6d8e4a	0.057997026
7	0xbd97358f	-0.07383262
8	0xbe46c2f8	-0.19410312
9	0x35cfb380	1.5474943e-06
10	0x3de3ec76	0.11129086
11	0xbcd2a101	-0.025711538
12	0xbd79f0b9	-0.061020587
13	0xbe275b7b	-0.16343491
14	0x3e0771d9	0.13227023
15	0xbc59cfc7	-0.013294167
16	0xbd5a1149	-0.05323914
17	0x3dcee2bd	0.10101841
18	0x3dd87702	0.10569574
19	0x3d0ee23f	0.034883734
20	0x3d5ef1cc	0.054429814
21	0x3ba5858e	0.0050513214
22	0xbdaa7578	-0.08323187
23	0xbdd6f229	-0.10495407
24	0xbcf25eab	-0.029586157
25	0x3dc41976	0.09575169
26	0x3b432098	0.0029774066
27	0xbc4dc0a1	-0.012558133
28	0xbe056566	-0.13026962
29	0x3c9ddaab	0.019269308
30	0xbe1e13e5	-0.15437277
31	0x3d182fe1	0.037155036
32	0x3d182fee	0.037155084
33	0xbcb80d25	-0.022467205
34	0xbce1c317	-0.027558846
35	0xbe21e3bf	-0.15809534
36	0x3d28f031	0.04124469
37	0xbdbc0565	-0.091807164
38	0xbdb92a27	-0.09041243
39	0xbe0f4120	-0.13989687
40	0xbd1e4ab9	-0.03864548
41	0x3c4818b6	0.012212923
42	0xbde3a176	-0.111147806
43	0xbe1c6401	-0.15272523
44	0xbd105e60	-0.035246253
45	0x3d81123d	0.06302307
46	0xba5d27ce	-0.00084364123
47	0xbd60e2eb	-0.054903906
48	0xbcbfdcca	-0.02342071
49	0xbcffc6a5	-0.03122265
50	0xbd0c7e28	-0.0343
51	0xbe55c26a	-0.20874944
52	0xbe12b5b6	-0.1432713
53	0x3dd2d46a	0.10294421
54	0x3e082324	0.13294655
55	0xbb8acdd1	-0.004235961
56	0xbc9bb13d	-0.019005412
57	0xbdff4991	-0.124652036
58	0x3c9c2a03	0.019063001
59	0xbe0f3a15	-0.13987
60	0xbe0369fc	-0.12833399
61	0xbd05a020	-0.03262341
62	0x3d69af32	0.057051845
63	0xbdf87249	-0.12131173

decoder.0.weight f4 [64, 32, 3, 3]
0	0x3c4b2d82	0.012400987
1	0x3b5237e5	0.0032076773
2	0x3b794626	0.0038036196
3	0xbd1ab5b7	-0.037770953
4	0x3bc64840	0.0060510933
5	0x3cdbf660	0.02685088
6	0xbc7f4d2c	-0.015582364
7	0x3d01ce54	0.03169091
8	0xbc8cf60f	-0.017207174
9	0x3c811cd6	0.01576082
10	0x3c724e4b	0.014789174
11	0x3ce3d0ea	0.027809579
12	0x3d4800b2	0.048828788
13	0xbce307fe	-0.027713772
14	0x3cabb684	0.020961054
15	0xbd6aa560	-0.05728662
16	0x3d3ff05d	0.046860088
17	0x3b28863c	0.0025714776
18	0xba8dda69	-0.0010822538
19	0x39aae70e	0.00032597076
20	0xbd5dcea0	-0.05415213
21	0xbd649ba8	-0.055812508
22	0x3b5ae673	0.0033401519
23	0xbd4a4857	-0.049385395
24	0xbaef1a3a	-0.0018242069
25	0xbc9bdb13	-0.019025361
26	0xbd095672	-0.033529706
27	0xbc685677	-0.014180771
28	0x394cd70a	0.00019535064
29	0x3d4eab87	0.05045655
30	0xbce439d1	-0.0278596
31	0x3cd797b4	0.026317455
32	0xbd2e8780	-0.04260969
33	0x3c810dd7	0.01575367
34	0x3d1b88f6	0.037972413
35	0x3d6f77e6	0.058463953
36	0x3d3a80b2	0.04553289
37	0xbc54a177	-0.012977949
38	0x3d3b5f5d	0.045745242
39	0x3cd3a0c1	0.02583349
40	0x3caa65e4	0.020800538
41	0x3d25f98a	0.040521182
42	0x3cbabd29	0.022795277
43	0x3d05f7bb	0.032706957
44	0xbb033392	-0.0020019752
45	0xbbee4773	-0.007271701
46	0x3d45762c	0.0482084
47	0xbcc92006	-0.024551403
48	0x3ccbf67d	0.024897808
49	0xbcfb76a6	-0.030696224
50	0xbd4a5599	-0.04939804
51	0xbd004188	-0.031312495
52	0xbd3a84ad	-0.045536686
53	0x3c4544b6	0.012040308
54	0x3c8b3e6b	0.016997537
55	0x3d67aa18	0.0565587
56	0x3d61929b	0.055071454
57	0xbd5995c3	-0.05312134
58	0x3c1ecb55	0.009692033
59	0xbb57d553	-0.0032933548
60	0xbcf37967	-0.029720975
61	0x3bb854d5	0.005625347
62	0xbc81b15c	-0.015831642
63	0x3cb8ff3a	0.022582639
64	0xbd693759	-0.05693755
65	0x3c1c20c5	0.009529297
66	0xbcbcd3c4	-0.023050196
67	0xbd2f5a1b	-0.04281054
68	0x3c94035d	0.01806801
69	0x3ae7d5d4	0.0017687627
70	0xbd58936b	-0.052874964
71	0xbcb39819	-0.021923112
72	0x3c9e19c7	0.019299401
73	0xbb5e9761	-0.003396474
74	0x3d579445	0.052631635
75	0xbac4d340	-0.0015016571
76	0x3a7aeb77	0.000957183
77	0x3d395c4b	0.045254033
78	0xbd36384b	-0.04448728
79	0x3ca55b58	0.020185158
80	0xbd670ad8	-0.056406826
81	0x3d6da948	0.058022767
82	0x3c85ea9d	0.016347224
83	0x3c3eabe0	0.011637658
84	0x3d5b2828	0.053505093
85	0xbcab2049	-0.020889418
86	0x3d07e92b	0.03318135
87	0x3aa40d31	0.0012516138
88	0x3c843431	0.016138168
89	0x3c9171b2	0.01775441
90	0x3d1c88b3	0.038216304
91	0x3cd3975f	0.025829015
92	0x3c7fccec	0.015612822
93	0x3d59d0eb	0.053177755
94	0xbd2fa2ad	-0.04287975
95	0x3d345f9d	0.044036496
96	0xbc658555	-0.01400884
97	0x3c36963c	0.011144217
98	0xbcc9981d	-0.024608666
99	0xbcc5f4e3	-0.024164623
100	0xbcf91d5b	-0.030409506
101	0x3c8b04e8	0.016970113
102	0x3cb1e934	0.021717645
103	0xbc8432e6	-0.016137552
104	0x3c802a3e	0.015645143
105	0xbc8b2bc1	-0.016988637
106	0xbd1f030c	-0.038821265
107	0xbc58b602	-0.013226988
108	0x3cf6225c	0.03004568
109	0x3ca490a0	0.020088494
110	0xbd5b6d2d	-0.053570915
111	0xbc41ede1	-0.0118365
112	0x3a972999	0.0011532783
113	0x3d1f7bfc	0.0389366
114	0xbc27249f	-0.010201602
115	0x3baac3fe	0.0052113524
116	0x3c85c567	0.01632948
117	0x3d49dce0	0.04928291
118	0x3d33db8f	0.04391056
119	0x3d6a4348	0.05719307
120	0xbc513cee	-0.012770874
121	0xbd5df287	-0.05418637
122	0xbd70bb3b	-0.058772307
123	0xbccf41af	-0.025299875
124	0xbb41b968	-0.0029559974
125	0xbaa5019e	-0.0012588983
126	0xbc81625b	-0.01579397
127	0x3c9c1dc0	0.019057155
128	0xbd5cc1ed	-0.05389588
129	0x3d250a0d	0.04029279
130	0xbd072f82	-0.03300429
131	0x3d6dd347	0.058062818
132	0x3caf37ac	0.021388851
133	0x3c3cc278	0.011520974
134	0x3d281051	0.041031186
135	0x3d6555ed	0.05599015
136	0xbd488b86	-0.048961185
137	0xbb3807ef	-0.00280809
138	0x3b9f5f2d	0.0048636408
139	0xbd4c57bb	-0.049888354
140	0x3d44da05	0.048059482
141	0xbd3c7f31	-0.046019737
142	0xbd0e5e2f	-0.03475779
143	0x3d17ae14	0.03703125
144	0x3d618f32	0.055068202
145	0x3d6888f3	0.05677123
146	0xbccc7754	-0.024959244
147	0xbd186043	-0.037201177
148	0xbd0eb3cf	-0.034839448
149	0x3d004a68	0.03132096
150	0xbb403cfb	-0.0029333222
151	0xbc88dc46	-0.016706597
152	0x3ce62c1f	0.02809721
153	0x3cd78829	0.026310043
154	0x3d6b9929	0.05751911
155	0x3d62c9bd	0.055368174
156	0xbd4b8414	-0.049686506
157	0xbd2cb4fc	-0.042164788
158	0x3c63f341	0.013912977
159	0x394f08f4	0.00019744394
160	0xbcfb1678	-0.030650362
161	0xbcc57c1e	-0.024107035
162	0xbcd78cc2	-0.026312236
163	0x3c230259	0.00994929
164	0x3d6f02b9	0.058352206
165	0x3cea59b6	0.02860723
166	0x3d61d544	0.055135027
167	0xbd049e2a	-0.0323774
168	0xbc9a5b56	-0.01884238
169	0x3c5d0fac	0.013492506
170	0x3d384192	0.044984408
171	0xbd188891	-0.037239615
172	0xbd1bc13e	-0.038026087
173	0x3d1827bc	0.03714727
174	0x3c7b23dc	0.015328374
175	0x3c87a8c1	0.01655996
176	0x3bcecb51	0.0063108583
177	0xbd1e9cac	-0.038723633
178	0x3d1265f3	0.035741758
179	0x3d2815dd	0.041036475
180	0x3cd5bd0f	0.026091127
181	0x3d22135e	0.03956925
182	0x3b083f93	0.0020789846
183	0xbc46e8e1	-0.012140484
184	0x3bec2ba2	0.00720735
185	0x3d07c3ed	0.033145834
186	0xbd6e22f6	-0.05813881
187	0x3d6d35c9	0.05791262
188	0xbc4619ef	-0.012091144
189	0xbd4a7d9a	-0.04943619
190	0x3d4ee584	0.050511852
191	0x3cfc6566	0.03081007
192	0x3d40ab03	0.04703809
193	0x3c0923e2	0.008370372
194	0x3cd5d5b8	0.026102886
195	0x3d5cb7a3	0.053886067
196	0x3a6c1c6e	0.0009006922
197	0x3d34365b	0.04399715
198	0xbc1f55fc	-0.00972509
199	0x3cd8e52a	0.026476461
200	0x3d6513ac	0.055926964
201	0xbc3d80be	-0.011566339
202	0xbd38b43f	-0.04509377
203	0xbd1e2c1a	-0.038616277
204	0x3d0ef7ec	0.034904405
205	0x3d0f70b4	0.03501959
206	0x3d5931cf	0.053026017
207	0x3cfd9447	0.030954493
208	0xbd5816ce	-0.052756123
209	0xbd691f39	-0.056914542
210	0xbd479fc0	-0.048736334
211	0xbd3ea95d	-0.046548236
212	0x3d2e16d0	0.042502224
213	0xbb17d9e7	-0.0023170651
214	0x3d3fbb31	0.04680938
215	0xbcaafade	-0.020871576
216	0x3d37fddd	0.044919837
217	0x3d4398c0	0.047753096
218	0x3d0e92a1	0.034807805
219	0xbd711d64	-0.05886592
220	0x3cacc01c	0.021087699
221	0xbce39bd3	-0.027784264
222	0x3d04708c	0.032333896
223	0x3d0cc248	0.03436497
224	0x3d6dab8c	0.058024928
225	0x3be6f617	0.007048379
226	0xbc4bc2a6	-0.0124365445
227	0x3d2c6d4e	0.04209643
228	0xbd1422c9	-0.036165986
229	0xbcf45265	-0.029824445
230	0xbc9abfd9	-0.018890308
231	0xbd5e8db3	-0.054334354
232	0x3d644ef5	0.05573936
233	0x3d2c70a0	0.042099595
234	0xbc6b43ca	-0.014359424
235	0x3bf8939b	0.0075859553
236	0xbbb7b78f	-0.0056065987
237	0x3cf74ddd	0.030188495
238	0xbcec70f9	-0.028862463
239	0x3d1def63	0.038558375
240	0xbca01d24	-0.019545145
241	0x3c29acd5	0.010356148
242	0xbc933d3e	-0.017973538
243	0xbc31e427	-0.010857618
244	0x3d2b316f	0.04179519
245	0xbd5591f2	-0.052141137
246	0x3d6ef398	0.058337778
247	0xbd5bfa0d	-0.053705264
248	0xbccc93ff	-0.024972914
249	0xbd091687	-0.03346875
250	0xbd50bdb6	-0.050962172
251	0x3d2ff3ba	0.042957045
252	0x3cd858c6	0.026409518
253	0x3d0a80af	0.03381413
254	0x3c177971	0.0092452625
255	0xbcd3802b	-0.025817951

decoder.0.bias f4 [32]
0	0x3d450624	0.04810156
1	0xbc7143a0	-0.014725596
2	0x3d28f4d7	0.041249122
3	0xbd670569	-0.056401644
4	0xbd0bec16	-0.034160696
5	0xbc7f78fc	-0.01559281
6	0xbd68f7e6	-0.05687704
7	0xbd02ae57	-0.031904545
8	0xbd05a310	-0.03262621
9	0x3d173e5b	0.0369247
10	0x3d67e988	0.056619197
11	0xbcba24f1	-0.022722693
12	0x3c528569	0.01284919
13	0x3d0e8853	0.034797978
14	0xbd70b1cd	-0.058763314
15	0x3d6d64dc	0.057957515
16	0x3cda0c65	0.026617238
17	0x3caaa876	0.020832282
18	0xbc9ebc0b	-0.019376775
19	0xbcc451f8	-0.023964867
20	0x3cbae647	0.022814883
21	0xbd5497ab	-0.051902454
22	0x3d366aca	0.044535436
23	0xbc9a0495	-0.018801013
24	0xbcfc85cf	-0.030825524
25	0xbd2c543d	-0.042072523
26	0x3d535a66	0.051599883
27	0x3c5309ef	0.012880786
28	0xbc98b4c4	-0.018640883
29	0xbd1045bc	-0.035222754
30	0xbd5d9032	-0.054092593
31	0xbcfafcce	-0.030638125

decoder.2.weight f4 [32, 16, 3, 3]
0	0xbc91ce2b	-0.017798504
1	0x3d8779bf	0.06615018
2	0xbcff20a6	-0.031143498
3	0xbcbc1070	-0.022957057
4	0x3c0c2976	0.008554807
5	0xbd92715c	-0.07150528
6	0xbd2c0936	-0.04200097
7	0xbc669120	-0.014072686
8	0xbd882fde	-0.06649755
9	0x3d025796	0.03182181
10	0xbca45fd0	-0.020065218
11	0xbca4f49b	-0.020136168
12	0x3ccd8626	0.025088381
13	0xbca5f38b	-0.020257732
14	0x3adf1556	0.0017019908
15	0x3cabe446	0.020982873
16	0x3d11753e	0.0355122
17	0xbda7b3ef	-0.081886165
18	0xbda300ce	-0.07959138
19	0xbcacf06b	-0.021110734
20	0x3cdc151b	0.026865533
21	0x3c7695e0	0.015050381
22	0x3d91483e	0.07093857
23	0x3c090576	0.008363118
24	0x3d340e78	0.04395911
25	0x3cd81e4b	0.026381632
26	0x3d4119b8	0.047143668
27	0xbcfefe96	-0.031127255
28	0x3d0e9ef6	0.034819566
29	0xbcb99086	-0.022651922
30	0xbcd7ac16	-0.026327174
31	0xbd182568	-0.03714505
32	0x3cc075db	0.023493698
33	0x3da4db43	0.08049633
34	0x3d6ecd50	0.05830127
35	0xbcea4f36	-0.028602224
36	0x3d030c88	0.031994373
37	0xbd83b7b4	-0.06431523
38	0x3d41e82b	0.047340553
39	0xbd763103	-0.060105335
40	0x3d30ea50	0.043192208
41	0xbd9d15c2	-0.076701656
42	0xbd4abb2b	-0.049494904
43	0xbd92b92b	-0.07164224
44	0xbc5ea080	-0.013588071
45	0x3d308a53	0.043100666
46	0xbd00fed3	-0.03149302
47	0xbc6e7656	-0.014554581
48	0x3d25236e	0.04031699
49	0xbc506eeb	-0.012721757
50	0xbda87f7e	-0.08227442
51	0xbcc04236	-0.023469072
52	0x3c9d8bbb	0.019231668
53	0x3cf297a0	0.029613316
54	0x3c916030	0.017746061
55	0xbd8950c8	-0.06704861
56	0xbd6e4290	-0.058168948
57	0x3d67f1f0	0.056627214
58	0x3d0785e3	0.03308667
59	0x3d807642	0.06272556
60	0xbda0232b	-0.07819208
61	0x3cb0f4a6	0.021601032
62	0x3d12d176	0.03584429
63	0x3d9ae0a2	0.075623766
64	0xbc4461a0	-0.011986166
65	0xbd8fd9eb	-0.070239864
66	0x3d88a7b4	0.06672612
67	0x3cd4864b	0.025942942
68	0x3b44f100	0.0030050874
69	0x3c92d820	0.017925322
70	0x3c4845cb	0.012223671
71	0xbd03745e	-0.0320934
72	0xbd512c10	-0.051067412
73	0xbb8953eb	-0.004190912
74	0x3d898f2e	0.067167625
75	0xbd3abeb6	-0.045592032
76	0xbcbe629b	-0.023240378
77	0x3c99c8ab	0.018772444
78	0xbd4fe1a6	-0.050752304
79	0x3c9c6c0b	0.019094488
80	0xbd83bc9e	-0.0643246
81	0xbd516e5b	-0.051130634
82	0x3d89764b	0.06712016
83	0x3c4e69a0	0.012598425
84	0x3d0ec820	0.034858823
85	0x3bccd6d6	0.0062511964
86	0x3d51db6e	0.051234655
87	0x3bd3f3d6	0.0064682765
88	0x3d5538ab	0.052055996
89	0x3c41fa2b	0.01183943
90	0xbc1610b6	-0.009159258
91	0xbcccda90	-0.025006562
92	0x3ca9dd06	0.020735275
93	0xbcacacbb	-0.021078458
94	0x3d5fb786	0.05461838
95	0xbcac44bb	-0.021028867
96	0xba8400ab	-0.0010071
97	0xbd2e5f78	-0.042571515
98	0xbd7d8808	-0.061897308
99	0x3c979876	0.018505316
100	0xbcd1dbe6	-0.025617551
101	0x3d600106	0.054688476
102	0xbd9ad08a	-0.07559307
103	0xbd609cc6	-0.05483701
104	0x3da2c7d0	0.079482675
105	0xbbe1ef40	-0.006894976
106	0xbd920888	-0.071305335
107	0xbd672428	-0.056430966
108	0x3b1a6600	0.0023559332
109	0x3d312a60	0.043253303
110	0xbd8867ce	-0.06660424
111	0xbd7eb028	-0.062179714
112	0xbd160e23	-0.036634576
113	0xbd51623e	-0.05111908
114	0xbd19a7f8	-0.037513703
115	0xbd35bd33	-0.044369888
116	0xbd9f9f33	-0.07794037
117	0x3c8dbceb	0.017301997
118	0xbbf3e42b	-0.007442971
119	0xbd5d4f93	-0.054030966
120	0xbd846554	-0.06464639
121	0x3caf3346	0.021386754
122	0xbd95b354	-0.07309595
123	0xbccaf2d6	-0.024773996
124	0x3b77d680	0.003781706
125	0x3c8891db	0.016671112
126	0x3ca5500b	0.020179769
127	0xbd5a8a56	-0.053354584
128	0xbcd9b3bb	-0.02657496
129	0xbcf858d0	-0.030315787
130	0xbd343076	-0.04399153
131	0xbc37bae0	-0.011213988
132	0xbc191500	-0.009343386
133	0x3d0e589e	0.03475248
134	0x3c8ad780	0.016948462
135	0xbd10404b	-0.035217565
136	0x3da63a8e	0.08116637
137	0x3d3b5eae	0.04574459
138	0x3c946900	0.018116474
139	0x3d88ba52	0.06676163
140	0x3d85f600	0.065410614
141	0xbd2d337e	-0.042285435
142	0xbcafbb00	-0.021451473
143	0xbce02a9b	-0.027364066
144	0x3d836364	0.06415442
145	0x3d20ed90	0.039289057
146	0xbacd7aab	-0.0015676817
147	0x3d0dbaa8	0.034601837
148	0xbd5d1873	-0.053978395
149	0xbd2e5bc6	-0.04256799
150	0x3d0b2608	0.033971816
151	0xbd5b0e9b	-0.053480726
152	0x3cdcbc16	0.026945155
153	0xbd12f43b	-0.035877448
154	0xbd2ccf53	-0.042189907
155	0xbd8d050a	-0.06885727
156	0xbcb09276	-0.021554213
157	0x3cd2c3b0	0.025728077
158	0x3d0b858b	0.034062903
159	0xbcd30660	-0.025759876
160	0xbd09bc26	-0.033626698
161	0x3d475ef0	0.048674524
162	0xbc90913b	-0.017647376
163	0x3bf96c80	0.007611811
164	0x3d2b1afe	0.04177379
165	0x3c5bc82b	0.013414423
166	0x3d83544c	0.06412563
167	0xbd890fdc	-0.06692478
168	0xbc2ae3f6	-0.010430327
169	0x3cd88380	0.026429892
170	0x3c4f36e0	0.012647361
171	0xbd98444b	-0.07434901
172	0xbd815bda	-0.063163474
173	0x3c8eeb76	0.01744626
174	0x3b19f780	0.0023493469
175	0x3d059523	0.03261293
176	0xbd7ea22b	-0.062166374
177	0xbd23c26e	-0.039980344
178	0xbc39ba8b	-0.011335979
179	0x3da0abb8	0.07845253
180	0x3d60fa3e	0.05492615
181	0xbc28ca56	-0.010302147
182	0xbd98eb62	-0.07466771
183	0x3cdd6e9b	0.02703028
184	0x3d799e93	0.060942244
185	0xbc2e8556	-0.010651907
186	0xbaba3b56	-0.0014208357
187	0x3d87da98	0.0663349
188	0xbd585c48	-0.05282238
189	0x3d0a7986	0.0338073
190	0x3d50d3a3	0.050983083
191	0x3d4c1df8	0.049833268
192	0xbaa940ab	-0.0012912949
193	0xbc7b90ab	-0.015354316
194	0x3d1e7370	0.03868431
195	0xbcdd4016	-0.027008098
196	0xbd7f2b56	-0.062297188
197	0xbd819660	-0.0632751
198	0xbb85a316	-0.0040782792
199	0xbcfa0fab	-0.03052505
200	0xbd1a8020	-0.037719846
201	0x3c832da6	0.016012978
202	0x3d86610a	0.065614775
203	0x3d8a3258	0.067478836
204	0x3da74dfe	0.08169173
205	0x3d32fa9b	0.043696027
206	0xbcee2ff6	-0.029075604
207	0xbda8a593	-0.08234706
208	0x3d46fc7e	0.04858064
209	0x374cd556	1.2209019e-05
210	0x3d7eb52e	0.062184505
211	0xbd7f7203	-0.06236459
212	0xbd855d4a	-0.06511934
213	0x3d3d54e8	0.04622355
214	0x3b9a9fab	0.004718741
215	0x3da159e4	0.078784734
216	0x3d7ecd3b	0.06220744
217	0x3bd644eb	0.0065389774
218	0x3cc4bd00	0.024015903
219	0xbc97d4a6	-0.018534016
220	0xbca09d8b	-0.019606372
221	0x3d791a33	0.060816
222	0xbc77ad80	-0.015117049
223	0xbc3b4680	-0.011430383
224	0xbd64c520	-0.055852056
225	0x3bc4a32b	0.0060008965
226	0x3cbfd950	0.023419052
227	0xbda440f2	-0.080202
228	0xbd837aea	-0.06419928
229	0xbc8caf06	-0.017173301
230	0xbd9653d0	-0.07340205
231	0x3d2d239e	0.042270295
232	0x39b0e2ab	0.00033738217
233	0x3da6a912	0.08137716
234	0xbc8b57a6	-0.017009567
235	0xbda0a8a2	-0.07844664
236	0x3d8aff4b	0.067869745
237	0x3c8a6f46	0.016898762
238	0xbd851678	-0.06498426
239	0xbcc9dcdb	-0.024641445
240	0x3d014218	0.031557173
241	0x3d86712f	0.06564557
242	0xbd0ba103	-0.0340891
243	0x3d129ee6	0.03579607
244	0xbb45d4d6	-0.0030186675
245	0xbd5962a0	-0.05307257
246	0xbd86c128	-0.065798104
247	0xbce6b20b	-0.02816107
248	0x3bb4f4eb	0.0055223606
249	0x3d6930fe	0.05693149
250	0xbd892fec	-0.066985935
251	0x3d1bfdf8	0.038084
252	0xbd64171b	-0.055686098
253	0xbbd87740	-0.0066060126
254	0x3da41ebb	0.08013674
255	0xbd5a580e	-0.05330663

decoder.2.bias f4 [16]
0	0xbc5cb5c0	-0.013471067
1	0x3d4654a0	0.04842055
2	0x3d967403	0.07346346
3	0x3d48fdbb	0.0490701
4	0x3cc47376	0.023980837
5	0xbd1ba8f0	-0.03800291
6	0xbd5bcb40	-0.05366063
7	0x3d0abb8e	0.033870272
8	0x3d933d97	0.07189482
9	0x3cd96270	0.026536196
10	0xbcddabb0	-0.027059406
11	0x3d2ad756	0.041709267
12	0x3d63749b	0.055531126
13	0x3d8fee0a	0.07027824
14	0x3da78fd6	0.081817314
15	0x3cd515b6	0.02601133

decoder.4.weight f4 [16, 1, 3, 3]
0	0xbe61c996	-0.22049555
1	0x3e8edf1f	0.27904603
2	0xbe60fd5e	-0.21971652
3	0x3d91310b	0.07089432
4	0xbe0831d0	-0.13300252
5	0x3da17320	0.078832865
6	0xbe7a6d66	-0.24455795
7	0xbe1dfd96	-0.15428767
8	0xbd4fae76	-0.05070349
9	0x3e42f113	0.19037275
10	0x3e7bf4c3	0.24605088
11	0xbe14e3b8	-0.14539993
12	0x3de3cf5b	0.11123534
13	0x3eaa6d78	0.33286643
14	0x3cd0e2c0	0.025498748
15	0x3e63eafe	0.22257611
16	0xbe344de3	-0.17607836
17	0x3de07f86	0.10961823
18	0xbd0b2c16	-0.03397759
19	0x3d7c1760	0.06154573
20	0x3a9a5c00	0.0011776686
21	0x3cd82096	0.026382726
22	0xbe88b6c2	-0.26701933
23	0x3dd0a59b	0.10187837
24	0x3e39edae	0.18157074
25	0xbe3d20a0	-0.18469477
26	0x3e8e466a	0.27788097
27	0xbe074578	-0.13210094
28	0xbd081f96	-0.033233248
29	0x3e6aca1b	0.2292866
30	0xbe262043	-0.16223244
31	0x3dec88ab	0.11549505
32	0x3ea92862	0.33038622
33	0x3da1d79b	0.079024516
34	0xbcc35b80	-0.023847342
35	0xbe433038	-0.19061363
36	0xbcfb1c00	-0.030653
37	0x3cad0256	0.021119278
38	0x3ea5b407	0.32363912
39	0xbe5e9930	-0.21738124
40	0x3e9ce62f	0.30644366
41	0x3dded0b6	0.10879652
42	0xbe9b0c68	-0.30282903
43	0x3e829374	0.25503123
44	0x3ab7d556	0.0014025371
45	0xbe308460	-0.17237997
46	0xbd7ffd56	-0.06249746
47	0x3ea19d3f	0.31565282
48	0x3d42958b	0.047505897
49	0x3e5d330b	0.21601503
50	0xbdea924b	-0.114536844
51	0x3e255b48	0.16148102
52	0x3e8f5087	0.27991125
53	0x3d480140	0.048829317
54	0x3e82014b	0.2539161
55	0x3e69c2b6	0.22828183
56	0xbd8afce0	-0.06786513
57	0x3e22d428	0.15901244
58	0xbe2f467b	-0.1711673
59	0xbdc85740	-0.097822666
60	0xbe75a6b3	-0.23989372
61	0xbd540316	-0.051760755
62	0x3e0b7e2b	0.13622348
63	0xbe98073c	-0.2969302
64	0xbe9b12d4	-0.30287802
65	0x3e7616c8	0.24032128
66	0xbe2a6c28	-0.16642821
67	0xbe14351b	-0.14473383
68	0xbe8f3af6	-0.2797467
69	0x3d9f663b	0.07783171
70	0x3e9fdeff	0.3122482
71	0x3e91ceab	0.28477988
72	0x3e2eb8a6	0.17062625
73	0xbe8d0d3b	-0.27549157
74	0xbb81d5ab	-0.003962239
75	0x3e0cfd66	0.13768539
76	0x3da46986	0.080279395
77	0x3e6a0f26	0.22857341
78	0xbe9245f3	-0.28568992
79	0x3ea9286e	0.33038658
80	0x3e904bb3	0.28182754
81	0xbcbb80eb	-0.022888621
82	0xbe77fb43	-0.24216942
83	0x3dfb0acb	0.12257918
84	0xbe47c2a6	-0.19507846
85	0xbe33218e	-0.17493269
86	0xbd8d9f26	-0.06915121
87	0x3e15719b	0.14594118
88	0xbe8fdc2e	-0.2809767
89	0x3d1dd72b	0.03853528
90	0xbe893b28	-0.26802945
91	0x3e0a3b26	0.13499126
92	0x3e4add88	0.1981107
93	0x3e081dc8	0.1329261
94	0xbcc12800	-0.023578644
95	0x3d353d00	0.044247627
96	0xbe7b2a10	-0.24527764
97	0x3e9510f3	0.29114494
98	0x3dac5400	0.08414459
99	0x3dd15060	0.102204084
100	0xbe96f9af	-0.29487368
101	0x3e4a9e7e	0.19787022
102	0xbe1fb548	-0.15596497
103	0xbd180860	-0.037117362
104	0x3e7a16d6	0.24422774
105	0x3c93af40	0.018027902
106	0x3db7f8a6	0.08982973
107	0xbe91a180	-0.28443527
108	0x3d10ae76	0.03532263
109	0x3df48030	0.11938512
110	0x3c0d9300	0.008641005
111	0xbe4420cb	-0.19153135
112	0x3e9fbae0	0.31197262
113	0x3e861ca0	0.26193714
114	0x3d87d556	0.066324875
115	0xbdc8360b	-0.09775933
116	0xbe8f7d5e	-0.28025335
117	0x3e63e838	0.22256553
118	0x3e8f97a8	0.28045392
119	0xbd815040	-0.063141346
120	0x3e17f800	0.14840698
121	0x3dbb2376	0.09137623
122	0x3db72de0	0.08944297
123	0xbe00bcab	-0.12571971
124	0xbe97d2b0	-0.2965293
125	0x3e876057	0.2644069
126	0x3ea5c34a	0.32375556
127	0x3e8d97f2	0.27654988
128	0x3c059f00	0.008155584
129	0xbe7caa93	-0.24674444
130	0xbdb4d550	-0.08829749
131	0xbe88752f	-0.26651904
132	0x3d9e2fd0	0.07723963
133	0x3dd8d35b	0.10587188
134	0xbe1b6d06	-0.15178308
135	0xbcb65096	-0.022255223
136	0xbe0664cb	-0.13124387
137	0xbeaa5420	-0.33267307
138	0xbd89b3b6	-0.0672373
139	0x3e52d01e	0.20587203
140	0xbe009776	-0.12557778
141	0xbdf67280	-0.12033558
142	0xbe4e3846	-0.20138654
143	0x3e731e13	0.23741941

classifier.1.weight f4 [128, 1024]
0	0x3dc39d5c	0.09551498
1	0xbd073f35	-0.033019263
2	0xbdb1e6d5	-0.08686606
3	0xbb49fc8b	-0.0030820693
4	0xbe385cb3	-0.18004112
5	0xbc904911	-0.017612966
6	0x3db36c54	0.08760896
7	0xbd192f31	-0.03739852
8	0xbe1684d3	-0.14699106
9	0xbd7a64c8	-0.06113127
10	0x3e0dab6e	0.13834926
11	0xbdb8256c	-0.08991513
12	0x3da29977	0.07939427
13	0x3e143f7e	0.14477345
14	0x3c35fa6d	0.011107069
15	0x3c79dde4	0.015250657
16	0xbe2a7858	-0.1664747
17	0xbd368b63	-0.044566523
18	0x3dad868d	0.08472929
19	0xbd233c8a	-0.039852656
20	0xbccb3fdf	-0.02481073
21	0x3dd71f8c	0.10504064
22	0x3c6b1d01	0.014350177
23	0xbd8bdb30	-0.06828916
24	0x3cd4f7a2	0.025996987
25	0xbd801e67	-0.06255799
26	0xbd942d8c	-0.0723525
27	0x3d3c76e2	0.046011813
28	0xbd16162d	-0.036642242
29	0xbe9d9a9d	-0.30782023
30	0xbd2333d5	-0.039844353
31	0x3ac87fc9	0.0015296872
32	0xbb3e5bc1	-0.0029046389
33	0xbaa5e210	-0.0012655873
34	0xbe34e520	-0.17665529
35	0x3d47f3e4	0.048816577
36	0xbd1fc6c7	-0.03900793
37	0x3db5663a	0.08857389
38	0x3dbf0fd3	0.0932919
39	0x3dea059f	0.114268534
40	0x3cff7d79	0.03118776
41	0xbcf7aaf7	-0.03023289
42	0xbd295ddb	-0.041349273
43	0x3b8777e6	0.004134166
44	0x3c847765	0.016170213
45	0x3da50a7e	0.08058642
46	0x3db6421c	0.08899328
47	0x3d936e47	0.07198768
48	0x3df44c4e	0.119286165
49	0x3c64b769	0.013959744
50	0x3df5ad98	0.11996001
51	0x3e0a2bda	0.1349329
52	0xbdb43d40	-0.08800745
53	0x3c53af6e	0.012920244
54	0xbe6a7b03	-0.22898488
55	0xbd8473e8	-0.0646742
56	0x3dfe067e	0.12403582
57	0xbdc3fbe8	-0.09569532
58	0xbb7de4b1	-0.0038741047
59	0x3d9ff194	0.07809749
60	0xbd85a46d	-0.06525502
61	0xbdd00fb6	-0.101592466
62	0x3e0bd206	0.13654336
63	0xbd05ba94	-0.032648638
64	0x3e0079eb	0.12546508
65	0xbc7d89e7	-0.015474773
66	0x3e052107	0.1300088
67	0xbb9ce3af	-0.004787884
68	0xbb8ae761	-0.0042390083
69	0xbe261b3b	-0.16221325
70	0x3dda4219	0.106571384
71	0x3c7d5d91	0.0154642025
72	0xbd7d5c0c	-0.06185536
73	0xbe4fd5cf	-0.20296405
74	0xbe1d866d	-0.1538331
75	0x3dd5c39d	0.10437701
76	0x3cdc56aa	0.026896793
77	0x3daff546	0.08591704
78	0x3cb6918b	0.022286197
79	0xbd92ac61	-0.07161785
80	0xbd61ca3e	-0.055124514
81	0xbe97a913	-0.2962118
82	0xbd787f85	-0.060668487
83	0xbd5fbba1	-0.054622296
84	0xbd8902a9	-0.066899605
85	0x3de0d401	0.109779365
86	0x3e173cbc	0.14769262
87	0xbc9adba7	-0.018903567
88	0xbc720747	-0.014772243
89	0x3d708ad8	0.05872616
90	0x3a80acb7	0.0009817098
91	0xbd10ea64	-0.035379782
92	0xbe0295a0	-0.1275239
93	0xbe1658b0	-0.14682269
94	0x3c9b6669	0.018969731
95	0xbbe75934	-0.0070601944
96	0xbd1e1ce4	-0.03860177
97	0xbe005e46	-0.12535962
98	0xbdfe9fff	-0.124328606
99	0xbd97c078	-0.074097574
100	0xbd3dcf52	-0.046340294
101	0x3de04995	0.10951535
102	0xbd20d98b	-0.039269965
103	0xbe27a102	-0.16370013
104	0xbd24ae33	-0.04020519
105	0xbc88181b	-0.016613057
106	0xbe014ec4	-0.12627703
107	0xbe25fed1	-0.16210486
108	0x3dad754b	0.084696375
109	0x3dfd6235	0.12372247
110	0x3cd6f3b8	0.026239261
111	0xbd0a4bb1	-0.03376359
112	0x3d3a1aa7	0.045435574
113	0x3d37b084	0.044846073
114	0x3da88e94	0.082303196
115	0x3d4f6b0f	0.05063921
116	0x3cae53f8	0.021280274
117	0x3e18969e	0.14901206
118	0xbe51c13c	-0.2048387
119	0xbdaa3731	-0.08311308
120	0x3d114c89	0.03547338
121	0xbb222ff5	-0.0024747823
122	0xbc8a3270	-0.016869754
123	0x3d7e8e1e	0.062147252
124	0xbdfd96f6	-0.12382309
125	0xbde42c68	-0.11141282
126	0xbe069c5e	-0.13145587
127	0xbd319dd2	-0.0433634
128	0xbdbb7b5d	-0.09154389
129	0xbe11157a	-0.14168349
130	0x3cf5c7bd	0.03000247
131	0x3dba2403	0.090889
132	0xbcbb6026	-0.022872996
133	0x3e59fb3c	0.21287245
134	0x3df0e37e	0.11762141
135	0xbda1c702	-0.07899286
136	0xbda2149f	-0.079140894
137	0x3ddc4ffe	0.10757445
138	0xbe23720a	-0.15961471
139	0x3c10e6b2	0.008844065
140	0xbdb5953e	-0.08866356
141	0xbdeb0682	-0.11475851
142	0xbe23a934	-0.15982515
143	0xbd86c52b	-0.065805756
144	0x3d369c31	0.04458255
145	0xbd8ec7d0	-0.06971705
146	0xbb3749f5	-0.0027967666
147	0xbc3b723c	-0.01144081
148	0xbda48ea0	-0.08035016
149	0x3b86f0e1	0.0041180705
150	0x3d24ff68	0.040282637
151	0xbd2ddf3e	-0.04244923
152	0xbb28b402	-0.0025742059
153	0xbc6ea9a4	-0.014566813
154	0x3da4671e	0.080274805
155	0xbbb8f345	-0.0056442344
156	0x3bc16f1e	0.005903139
157	0xbe8c0e65	-0.27354732
158	0xbdc3c1e0	-0.09558463
159	0xbcde7377	-0.027154667
160	0xbd57d6ee	-0.052695207
161	0xbcddeb9d	-0.027089888
162	0xbe3b3cf7	-0.18284975
163	0xbe0648f2	-0.13113764
164	0x3c9f691a	0.019459296
165	0xbc2be576	-0.0104917195
166	0xbce3598c	-0.02775266
167	0xbd0a666c	-0.033789083
168	0xbcc838ed	-0.024441207
169	0xbbc16ddd	-0.0059029893
170	0x3cbca02d	0.023025597
171	0x3bc41bf0	0.0059847757
172	0x3d1185ea	0.0355281
173	0x3ccad620	0.024760306
174	0xbe156325	-0.14588602
175	0xbd867633	-0.065655135
176	0xbcf59d2b	-0.02998217
177	0x3e8c5d19	0.27414778
178	0x3d982c1e	0.0743029
179	0x3bebc907	0.007195595
180	0x3d208d44	0.03919722
181	0xbd504c2d	-0.050853897
182	0x3d836573	0.06415834
183	0xbce48910	-0.027897388
184	0x3df4a455	0.11945406
185	0xbd4e452e	-0.050358944
186	0xbd8fe1cc	-0.07025489
187	0x3d06116d	0.032731462
188	0xbe694070	-0.22778487
189	0x3cdded4c	0.027090691
190	0x3ccdbff2	0.02511594
191	0x3dc4e3ac	0.096137375
192	0xbdf2e93b	-0.118608914
193	0xbe194a9a	-0.14969864
194	0x3d9e7aea	0.07738288
195	0x3af4dffe	0.0018682478
196	0xbdfe37d2	-0.12412991
197	0xbd05e444	-0.032688394
198	0x3c47d617	0.012197039
199	0xbcd54fe0	-0.026039064
200	0xbc212ebf	-0.009837805
201	0xbd7640d6	-0.060120426
202	0xbd6a5da0	-0.057218194
203	0xbdd75735	-0.1051468
204	0x3d51b34a	0.051196374
205	0xbc702708	-0.014657743
206	0x3dc14fd9	0.09439058
207	0xbd55218d	-0.05203395
208	0xbe076040	-0.1322031
209	0x3d4f5e54	0.050627068
210	0x3cf30ae4	0.029668279
211	0x3b3ee3fc	0.0029127588
212	0xbc3a32d0	-0.011364654
213	0x3e2fe7b4	0.17178231
214	0xbda3371b	-0.07969495
215	0xbc1cf907	-0.009580857
216	0x3d950e39	0.072781034
217	0xbd5d865a	-0.054083206
218	0xbd8f12b2	-0.06985988
219	0xbdd7a0d3	-0.10528722
220	0xbe2d657b	-0.16933243
221	0xbe2e928e	-0.17048094
222	0x3e0038dc	0.1252169
223	0xbcf6c988	-0.030125394
224	0x3d37abc1	0.04484153
225	0x3d5fc521	0.054631356
226	0xbd63ce0c	-0.055616423
227	0xbcd9dc10	-0.026594192
228	0xbc3a0d87	-0.011355764
229	0xbadc28e6	-0.0016796857
230	0x3daac151	0.083376534
231	0xbc127f87	-0.008941538
232	0x3dc20cb1	0.09475077
233	0xbdb12fb8	-0.0865168
234	0xbd021e6a	-0.031767286
235	0x3cbc6a47	0.022999896
236	0xbd66e237	-0.05636808
237	0x3dbecdaf	0.09316575
238	0x3c468f8b	0.012119184
239	0xbc9a901a	-0.018867541
240	0x3dafef32	0.08590545
241	0x3d6af928	0.05736652
242	0xbdea857c	-0.114512414
243	0xbd47bd31	-0.04876441
244	0xbd1ea1ee	-0.038728647
245	0x3da2d817	0.07951372
246	0x3e18bf86	0.1491681
247	0x3e0299d9	0.12754
248	0xbe1cbd2b	-0.15306537
249	0xbd4650a5	-0.048416752
250	0x3d6da1c1	0.05801559
251	0xbd0fd9c4	-0.035119787
252	0xbb5cbed3	-0.0033683076
253	0x3debea7d	0.115193345
254	0x3d7c067a	0.061529614
255	0x3d949952	0.07255806

classifier.1.bias f4 [128]
0	0xbca30fd7	-0.019905014
1	0xbc1c0ad1	-0.009524063
2	0xbc177da6	-0.0092462655
3	0xbd0ec79d	-0.034858335
4	0xbcb4493a	-0.022007573
5	0x3c86ccd1	0.016455086
6	0xbda9cfe1	-0.08291603
7	0xbd2f323e	-0.042772524
8	0x3d99dac5	0.0751243
9	0xbc7c2917	-0.015390656
10	0x3d6d8ed3	0.057997536
11	0xbccbacf6	-0.024862748
12	0x3d3c37ec	0.04595177
13	0xbdb98eee	-0.09060465
14	0xbb9f7481	-0.0048661833
15	0xbd5af8ab	-0.053459805
16	0xbdd2bed5	-0.102903046
17	0x3d0625d9	0.032750938
18	0x3d31d38d	0.04341464
19	0xbd003004	-0.03129579
20	0xbd83eaf7	-0.064413
21	0x3e0b376d	0.13595362
22	0xbcd1408d	-0.025543476
23	0xbc9bfa85	-0.019040355
24	0x3bd25e26	0.006419915
25	0xbd60349c	-0.054737672
26	0xbc19186d	-0.0093442025
27	0x3d553e0c	0.052061126
28	0xbce20342	-0.027589444
29	0xbd8db80a	-0.06919868
30	0xbc85abf9	-0.016317355
31	0x3ccd8539	0.02508794
32	0xbd679e55	-0.05654748
33	0xbd938e5c	-0.07204887
34	0x3d982484	0.0742884
35	0x3dbc9908	0.09208876
36	0xbd052c73	-0.032513093
37	0x3d353d7f	0.0442481
38	0x3d931275	0.07181255
39	0x3ca36017	0.01994328
40	0x3cec97eb	0.028881034
41	0xbd364f3e	-0.044509165
42	0xbcf880ef	-0.030334918
43	0x3c8683d4	0.016420282
44	0xbcc60b16	-0.024175208
45	0x3d29df76	0.041472875
46	0xbdd00233	-0.101566695
47	0xbd1f0254	-0.03882058
48	0xbccddded	-0.025130237
49	0x3da9a152	0.082827225
50	0xbce71300	-0.028207302
51	0x3d352a34	0.0442297
52	0xbd070e49	-0.032972608
53	0xbc865602	-0.016398434
54	0xbd7e357e	-0.062062733
55	0x3d9732de	0.07382749
56	0x3da14952	0.07875313
57	0xbd966b31	-0.07344664
58	0xba81171f	-0.000984881
59	0x3bdb4c74	0.0066924635
60	0xbcf4c2a7	-0.029877974
61	0x3a9d1f31	0.0011987445
62	0x3c09439e	0.008377938
63	0xbd5b210d	-0.053498317
64	0x3d4e0246	0.050295137
65	0x3d2a9cb7	0.04165336
66	0xbcae93b8	-0.021310672
67	0xbd0a3f49	-0.03375176
68	0x3da0a99d	0.07844851
69	0x3cd7da6e	0.026349273
70	0x3d8d57c6	0.06901507
71	0xbd98263c	-0.07429168
72	0x3ca045fc	0.019564621
73	0xbc763b36	-0.015028765
74	0xbc42319d	-0.011852649
75	0x3d86eedb	0.06588527
76	0x3c5317b9	0.012884074
77	0xbcdf8c07	-0.02728845
78	0xbd5c505b	-0.05378757
79	0xbd63298b	-0.05545954
80	0x3d9fb45a	0.07798071
81	0x3b1a3c30	0.002353441
82	0xbc88e531	-0.01671085
83	0xbd36c67d	-0.044622887
84	0xbc559c80	-0.013037801
85	0xbbc996e5	-0.0061520212
86	0xbd344ce7	-0.044018652
87	0x3d226163	0.039643656
88	0x3d946f2d	0.072477676
89	0xbceff79e	-0.029292878
90	0x3df13b43	0.117788814
91	0xbc77f575	-0.015134205
92	0xbdb16f7f	-0.08663844
93	0xbe113981	-0.14182092
94	0xbc2ede66	-0.010673141
95	0xbd25bb1b	-0.04046164
96	0x3b438bb7	0.0029837915
97	0x3d807f50	0.06274283
98	0x3b5dcb6e	0.0033843177
99	0xbd31641c	-0.043308362
100	0xbc98f050	-0.018669277
101	0xbcd46b24	-0.025929995
102	0xbc223fa1	-0.009902866
103	0x3c85509e	0.016273793
104	0x3beac8c2	0.0071650455
105	0x3c985a93	0.018597877
106	0xbd23e4a6	-0.040012978
107	0xbce31639	-0.027720558
108	0xbd0f629e	-0.035006158
109	0xbd99880c	-0.07496652
110	0xbd79adbc	-0.0609567
111	0xbb5e8611	-0.0033954422
112	0xbc3c2dd5	-0.011485537
113	0x3c923462	0.017847244
114	0x3d9b78f1	0.07591427
115	0x3cdeffa9	0.027221518
116	0x3df3adc9	0.11898381
117	0xbd06c959	-0.032906864
118	0xbd880cb4	-0.06643048
119	0xbade9732	-0.0016982316
120	0xbd2dfab5	-0.04247542
121	0x3dedb6e4	0.11607149
122	0x3ca87450	0.020563275
123	0xbb520d7d	-0.0032051497
124	0xbd1a8720	-0.03772652
125	0xba14af1f	-0.0005671847
126	0x3ce19b4b	0.02753987
127	0x3d8ebda5	0.069697656
