best_model_epoch_3.pth (torch, 741122 bytes, 15 tensors)

encoder.0.weight f4 [16, 1, 3, 3]
0.062121402 -0.19788069 -0.22552386 -0.43226925 -0.27838996 -0.21673791 -0.49980426 -0.4334465
0.16232124 -0.06470749 -0.12795413 0.18593547 -0.19118658 -0.10562675 0.52735615 -0.11287887
-0.29675278 0.41728762 0.096039064 0.2626584 -0.3864134 0.46573523 -0.15151358 0.063220404
0.33331496 0.23121582 -0.36147156 0.6985894 0.00044872885 0.07132213 0.16782647 -0.030868223
0.043261856 0.18236196 -0.29798415 -0.65622646 0.34126163 0.41444603 0.20140128 0.50284415
0.047586285 -0.1393363 0.029231368 -0.087782785 -0.072942995 -0.15312812 -0.00052384834 -0.36322376
0.43989432 0.6202826 0.43091452 0.020577597 0.43523672 0.021072932 -0.28651622 -0.40917775
-0.6481863 0.007051429 -0.6228989 -0.07007325 -0.41285053 -0.33060175 -0.28972897 -0.021659065
-0.48230898 -0.55962884 -0.562891 -0.32645017 -0.027925596 -0.52570033 -0.18598893 -0.48896927
0.14148767 -0.5858401 -0.21453287 -0.49906188 -0.11844269 0.24943511 -0.12485794 -0.11770393
0.38536394 0.41522518 -0.17503093 -0.5089074 0.40806344 -0.16724743 -0.20648004 0.12620698
0.021677837 0.32952973 -0.009456319 -0.05333876 0.32954907 0.24239479 0.5188136 0.43612492
0.15755683 0.58313006 0.39920273 -0.277649 -0.31504697 -0.41171107 0.017441439 -0.09785114
0.35302746 0.40528968 0.46040738 0.43199682 0.32670256 0.24045111 0.19141805 -0.034029562
0.41707903 0.21499386 0.2297082 -0.052154824 0.106414385 -0.46184784 -0.17564245 0.33544514
-0.48906896 0.3466441 0.28281665 0.030445937 0.14861512 0.5528343 0.021206258 0.49685663
0.03493892 0.086502105 0.5065972 -0.07789086 0.0805864 0.50050956 -0.020775184 -0.30905238
-0.16767025 0.3951428 -0.19326007 0.35126412 -0.13012788 -0.056358658 0.43860704 -0.41169986
00000000: 0373 7e3d 3ca1 4abe baef 66be 6552 ddbe
00000010: 2189 8ebe 8bf0 5dbe 58e6 ffbe b3ec ddbe
00000020: 8a37 263e 5c85 84bd 6806 03be de65 3e3e
00000030: 6ac6 43be d652 d8bd d000 073f 092d e7bd
00000040: fbef 97be b9a6 d53e 21b0 c43d 297b 863e
00000050: fad7 c5be d974 ee3e 6026 1bbe b379 813d
00000060: 42a8 aa3e d7c3 6c3e cd12 b9be c1d6 323f
00000070: 5e43 eb39 5611 923d b4da 2b3e 5bdf fcbc
00000080: 5833 313d 18bd 3a3e 6191 98be 75fe 27bf
00000090: d8b9 ae3e 4532 d43e 233c 4e3e 65ba 003f
000000a0: d6e9 423d 2dae 0ebe 9f76 ef3c 76c7 b3bd
000000b0: 2363 95bd 9ecd 1cbe de52 09ba 77f8 b9be
000000c0: d439 e13e d7ca 1e3f d4a0 dc3e 5992 a83c
000000d0: 59d7 de3e 24a1 ac3c 41b2 92be bf7f d1be
000000e0: 8aef 25bf ac0f e73b 4d76 1fbf 9082 8fbd
000000f0: 2561 d3be a244 a9be 5b57 94be 5a6e b1bc
00000100: 34f1 f6be d643 0fbf a019 10bf 7a24 a7be
00000110: 38c4 e4bc 4c94 06bf e273 3ebe 2e5a fabe
00000120: 25e2 103e 9ef9 15bf 81ae 5bbe 0a85 ffbe
00000130: 1592 f2bd eb6b 7f3e 85b5 ffbd c20e f1bd
00000140: 6c4e c53e 6598 d43e 4f3b 33be c147 02bf
00000150: b1ed d03e e942 2bbe 816f 53be 673c 013e
00000160: b895 b13c 1fb8 a83e adee 1abc be79 5abd
00000170: a8ba a83e 5736 783e f8d0 043f c44b df3e
00000180: 9456 213e 0348 153f 4d64 cc3e 0228 8ebe
00000190: d64d a1be cbcb d2be 59e1 8e3c 2e66 c8bd
000001a0: 04c0 b43e 2182 cf3e 84ba eb3e b02e dd3e
000001b0: 8f45 a73e d138 763e 1803 443e 9562 0bbd
000001c0: 628b d53e 5a27 5c3e a038 6b3e 4ca0 55bd
000001d0: c9ef d93d 5277 ecbe 9ddb 33be 77bf ab3e
000001e0: 3f67 fabe 567b b13e 58cd 903e c269 f93c
000001f0: 902e 183e 8c86 0d3f bfb8 ad3c fe63 fe3e
00000200: 1d1c 0f3d 0428 b13d 5bb0 013f 3e85 9fbd
00000210: 7c0a a53d 6521 003f b830 aabc 1d3c 9ebe
00000220: c0b1 2bbe 2850 ca3e f8e5 45be e4d8 b33e
00000230: 3e40 05be 56d8 66bd 1a91 e03e 53ca d2be

encoder.0.bias f4 [16]
0.2880677 0.2329335 0.31164145 0.025804052 0.062715344 -0.006500512 0.20382531 0.37478966
0.16601983 -0.001289022 -0.0023350436 -0.005478972 0.13212816 0.000114833034 0.030284664 -0.0060865288
00000000: 9c7d 933e 1f86 6e3e 788f 9f3e 0563 d33c
00000010: e770 803d 3f02 d5bb 95b7 503e 6ee4 bf3e
00000020: 1a01 2a3e 67f4 a8ba 8807 19bb f388 b3bb
00000030: 9b4c 073e 84d2 f038 8b17 f83c 8171 c7bb

encoder.2.weight f4 [32, 16, 3, 3]
-0.2986761 0.13064711 0.060464688 -0.16427618 0.021030473 0.054170456 -0.20091255 0.16450301
0.10675763 0.07519084 -0.15854543 0.11946136 0.013979706 -0.18643562 -0.0066754315 -0.02776484
0.0360136 0.13992201 0.20289819 0.107579306 -0.07520393 0.16166893 0.04289046 -0.17332841
0.25258756 0.013071836 -0.05163694 0.076513134 0.2217865 -0.13910943 0.20979981 0.15535727
-0.21990615 0.123845555 0.1584 -0.31873968 0.18664677 0.13440423 -0.19490938 0.24304236
0.034691084 -0.16013442 0.26508132 0.02603018 -0.12369099 0.16511272 0.023309272 -0.27326524
0.28679386 -0.15475097 -0.33057228 0.180069 -0.026893817 -0.07444766 -0.32300574 0.101751044
0.048739795 -0.28288138 0.13759892 0.12849979 -0.057303384 0.19080532 0.05381708 -0.24674034
0.17222826 0.08938379 -0.16972935 0.010881293 0.11315318 -0.15114753 0.062769406 0.03394829
-0.101883665 0.13456799 0.22538713 -0.23745878 -0.07899546 0.1719133 -0.16116448 0.06749627
0.12021639 0.17857878 0.22726831 -0.039563276 0.19082259 0.1767019 -0.08578103 0.1553375
0.31094557 -0.06968683 0.22141403 -0.11569463 -0.2563736 0.2789978 -0.08627485 -0.28817007
0.16125587 -0.12053264 0.02069217 0.12747091 -0.16180193 -0.2039007 0.23040472 -0.11728836
-0.2307328 0.027762702 -0.08448053 0.076093264 0.15083337 -0.03359908 -0.12802508 0.23292027
-0.07018411 -0.15799683 0.11450763 -0.097827435 -0.11511968 0.27071777 -0.25924772 -0.05005744
0.14691946 -0.26000702 0.04672966 0.0982328 -0.22889295 0.15753955 0.2817729 0.027813371
-0.2837069 0.2179608 -0.07821958 -0.26774895 0.27368978 -0.031308375 -0.09260736 0.23147757
-0.1542386 0.18135944 0.3291798 -0.28094614 0.13689473 0.31961897 -0.5878287 0.059858926
-0.09849346 -0.075479776 -0.10653492 -0.0296284 0.09656736 -0.1203143 0.11789327 0.22119883
0.08602995 -0.029349778 0.038622055 0.11709968 0.043408263 0.08764289 0.15943374 -0.1588501
0.043516435 0.08670699 -0.20593762 0.10612748 0.21775469 -0.0750584 0.030942688 -0.0063914033
-0.1396481 -0.16008303 0.0002187711 -0.16231416 -0.06784008 0.15778266 0.0493079 -0.13441782
-0.12175468 0.12144663 -0.14632852 -0.17161709 -0.055174246 0.114443004 0.29421437 -0.06935641
0.07217527 0.2374259 -0.089712225 -0.1259538 0.038185738 -0.060111668 0.24996567 0.2755529
-0.19619195 0.13607119 0.12539186 -0.32141382 -0.29569268 0.009200403 -0.08117927 -0.12455114
-0.14458229 -0.008343285 0.04819202 -0.0217446 0.12318471 0.13662544 0.1050392 -0.15245289
-0.212336 -0.1293428 -0.022316314 0.20096703 -0.083531864 0.06650198 0.16698979 0.09628937
-0.27195936 -0.21184126 -0.2345142 -0.14052624 -0.14670007 -0.25079295 -0.08011125 0.19531049
-0.06921515 -0.16730791 0.07955919 0.35649446 -0.44310415 -0.26234856 -0.02469998 -0.10397946
-0.3530907 -0.107818194 -0.050516237 0.21181308 0.250393 -0.09617717 0.057655845 0.22328962
-0.32898915 -0.19612348 -0.058945116 0.037533294 0.09924356 0.24719724 -0.07715095 -0.15386531
0.019072745 -0.274238 -0.33741733 -0.19703516 -0.062085617 0.20352763 0.2452569 -0.0065534324
00000000: 13ec 98be 5bc8 053e d2a9 773d 0438 28be
00000010: 1948 ac3c d7e1 5d3d 05bc 4dbe 7a73 283e
00000020: bfa3 da3d a8fd 993d bc59 22be 28a8 f43d
00000030: 230b 653c fbe8 3ebe 94bd dabb 1773 e3bc
00000040: ff82 133d b747 0f3e 8bc4 4f3e 8a52 dc3d
00000050: 8504 9abd 8a8c 253e e8ad 2f3d 017d 31be
00000060: 2853 813e 412b 563c 4281 53bd ebb2 9c3d
00000070: 001c 633e b472 0ebe c3d5 563e fa15 1f3e
00000080: 142f 61be bda2 fd3d 9c33 223e d931 a3be
00000090: 5520 3f3e 43a1 093e 5396 47be 19e0 783e
000000a0: 3d18 0e3d 47fa 23be bdb8 873e 3e3d d53c
000000b0: b451 fdbd 4f13 293e 16f3 be3c 6ce9 8bbe
000000c0: a5d6 923e 0a77 1ebe c540 a9be 0264 383e
000000d0: 6c50 dcbc 0478 98bd 0261 a5be da62 d03d
000000e0: 61a3 473d d4d5 90be bbe6 0c3e 7395 033e
000000f0: f4b6 6abd 7862 433e 4c6f 5c3d 80a9 7cbe
00000100: 9b5c 303e d90e b73d 88cd 2dbe 7347 323c
00000110: dbbc e73d 6bc6 1abe 3f8d 803d 5d0d 0b3d
00000120: 62a8 d0bd 31cc 093e e2cb 663e 6528 73be
00000130: 5fc8 a1bd 0a0a 303e 4d08 25be 7c3b 8a3d
00000140: 0334 f63d 5bdd 363e 06b9 683e 1a0d 22bd
00000150: ff66 433e 58f1 343e f7ad afbd cb10 1f3e
00000160: 4234 9f3e f8b7 8ebd 5cba 623e 4ef1 ecbd
00000170: 6743 83be cdd8 8e3e deb0 b0bd 078b 93be
00000180: 4220 253e d1d9 f6bd a082 a93c bc87 023e
00000190: 68af 25be 58cb 50be 37ef 6b3e e134 f0bd
000001a0: 3845 6cbe 9b6e e33c 2104 adbd c9d6 9b3d
000001b0: 1074 1a3e 309f 09bd 0219 03be a782 6e3e
000001c0: b0bc 8fbd ecc9 21be fa82 ea3d c059 c8bd
000001d0: dec3 ebbd 859b 8a3e 1ebc 84be 0809 4dbd
000001e0: 0e72 163e a41f 85be 9a67 3f3d 472e c93d
000001f0: ea62 6abe 0c52 213e 8a44 903e ded8 e33c
00000200: 0842 91be 1e31 5f3e 9631 a0bd 6416 89be
00000210: 1121 8c3e 363d 00bd eda8 bdbd 7508 6d3e
00000220: b9f0 1dbe 4ab6 393e 418a a83e 2cd8 8fbe
00000230: 222e 0c3e 19a5 a33e f17b 16bf a22e 753d
00000240: f0b6 c9bd 2495 9abd fb2e dabd 42b7 f2bc
00000250: 1cc5 c53d 5867 f6bd 0772 f13d f281 623e
00000260: 7830 b03d f26e f0bc 2932 1e3d f5d1 ef3d
00000270: ddcc 313d 1e7e b33d 9942 233e 9aa9 22be
00000280: 4a3e 323d 6f93 b13d 50e1 52be 5d59 d93d
00000290: 16fb 5e3e 38b8 99bd 857b fd3c fa6e d1bb
000002a0: e9ff 0ebe ceec 23be ec65 6539 af35 26be
000002b0: bdef 8abd c791 213e 15f7 493d d3a4 09be
000002c0: 855a f9bd 03b9 f83d 25d7 15be 64bc 2fbe
000002d0: 64fe 61bd 1861 ea3d 44a3 963e bc0a 8ebd
000002e0: a1d0 933d c61f 733e 0bbb b7bd 08fa 00be
000002f0: a668 1c3d a737 76bd 00f7 7f3e 4515 8d3e
00000300: 8be6 48be 3f56 0b3e b966 003e 5a90 a4be
00000310: 0865 97be 49bd 163c 5141 a6bd ab14 ffbd
00000320: 610d 14be 46b2 08bc ff64 453d bb21 b2bc
00000330: 4448 fc3d 8ae7 0b3e cb1e d73d 9c1c 1cbe
00000340: 9c6e 59be 7072 04be b4d0 b6bc 4dca 4d3e
00000350: c112 abbd 3132 883d 5fff 2a3e 5c33 c53d
00000360: 423e 8bbe eaec 58be 7e24 70be 1ce6 0fbe
00000370: 8b38 16be ef67 80be 5e11 a4bd 79ff 473e
00000380: acc0 8dbd c452 2bbe eeef a23d 7186 b63e
00000390: 8cde e2be 8d52 86be 9d57 cabc 2ff3 d4bd
000003a0: 4ec8 b4be c9cf dcbd 1dea 4ebd 87e5 583e
000003b0: 8333 803e 89f8 c4bd 8928 6c3d 09a6 643e
000003c0: 4471 a8be 98d4 48be 6f70 71bd 83bc 193d
000003d0: 3540 cb3d 4621 7d3e 5101 9ebd de8e 1dbe
000003e0: 723e 9c3c ec68 8cbe f7c1 acbe 96c3 49be
000003f0: 7d4d 7ebd 8c69 503e a024 7b3e 2dbe d6bb

encoder.2.bias f4 [32]
-0.025131185 0.0995052 0.08021932 0.06837809 0.05678551 0.102335215 0.1051697 0.065771334
0.048270356 -0.0008153295 0.10986086 -0.011581507 0.10577307 -0.0015476898 0.10337239 0.040908456
-0.032739002 0.031149756 0.16955614 0.08486373 0.08437383 -0.046694636 0.05442451 -0.01811651
0.21329175 0.08889834 0.07991275 0.10229804 0.19406831 -0.049443748 -0.00868851 0.023850197
00000000: eadf cdbc 62c9 cb3d 074a a43d d009 8c3d
00000010: ec97 683d 2095 d13d 3663 d73d 1fb3 863d
00000020: 23b7 453d d6bb 55ba bbfe e03d 5cc0 3dbc
00000030: 8d9f d83d dadb caba e7b4 d33d a08f 273d
00000040: 5519 06bd c62d ff3c 20a0 2d3e 09cd ad3d
00000050: 30cc ac3d e042 3fbd 3cec 5e3d 1369 94bc
00000060: 2769 5a3e 5510 b63d 4ca9 a33d a381 d13d
00000070: d8b9 463e 8785 4abd 415a 0ebc 7d61 c33c

encoder.4.weight f4 [64, 32, 3, 3]
-0.0014451736 0.04144862 0.12988241 0.14200501 -0.14393531 0.011952604 -0.23767841 -0.12272758
-0.19931057 -0.00686075 0.05330478 -0.16411307 -0.05143622 -0.06478383 0.009396504 -0.031416733
0.08732221 -0.13567902 0.0022994576 0.01520518 -0.034508474 -0.07535975 0.09040807 0.096234106
0.0692147 0.036222585 -0.069453955 -0.12246981 0.010115402 0.059305135 0.18686612 -0.03886799
-0.1773493 -0.19417842 -0.13172522 -0.06007474 -0.022248575 -0.1849097 0.032350887 0.0266539
0.15023527 0.035680003 0.15893494 -0.056239937 0.16804408 -0.03413108 0.09419327 -0.10559595
-0.019499458 -0.13844776 -0.07271582 -0.09323386 0.012939038 -0.008071473 0.005169186 -0.049030725
-0.051555675 0.02037387 0.107403375 0.07333768 0.04189638 0.013865653 -0.19551632 -0.045125946
0.03846107 -0.09957714 -0.06721439 0.07175382 0.08303218 -0.04271458 0.04441793 -0.068383254
-0.12350799 0.030886974 -0.036548663 0.04260094 -0.011165955 0.14033239 -0.045321383 0.0015473709
-0.03571863 -0.04469101 0.10937545 0.015535236 -0.036100186 -0.15827763 0.17350632 -0.1561953
0.050780326 -0.046720985 0.019969914 -0.03878144 -0.06388315 -0.033137076 0.098120324 0.1071204
0.0554376 0.090263754 -0.085609876 -0.05013095 -0.011433901 0.017037109 0.07280968 0.018568855
0.018035458 -0.053155903 0.039558165 0.013275902 -0.12529457 -0.07678937 0.032282412 0.18555988
-0.035379134 -0.12573476 -0.16412602 -0.19288144 -0.00012160743 0.07902669 -0.07447625 0.07290268
0.16873641 0.01896788 -0.13432254 0.0738821 -0.19186856 0.020296305 -0.034675516 0.0154547775
-0.09345738 -0.058433082 0.0070655886 0.03636609 0.043393195 0.058974978 0.050165866 -0.06443524
-0.13065755 -0.06456592 -0.038365293 0.05176647 -0.018503737 -0.020509234 0.0001216918 -0.06985708
-0.030956786 0.078155436 -0.07262842 -0.09671597 -0.037262164 0.08518991 0.03567388 -0.018695759
0.05422984 0.0061471434 0.008943555 0.03733628 -0.051710982 0.059227858 -0.036737744 0.012997439
0.024217475 -0.02732872 -0.00035592262 0.015523953 -0.12913719 -0.05061628 -0.011670826 0.1618138
0.055872515 0.11481608 -0.10434147 -0.035525255 -0.005711833 -0.086286105 0.044545215 0.10447066
0.16606379 0.10202174 -0.09798579 -0.009764188 -0.056164376 0.061204307 -0.0011141029 0.100807846
-0.17491445 -0.15815847 -0.36134404 -0.10579508 0.05611304 -0.10225766 0.00646797 0.13865754
0.06413057 -0.10710773 -0.10807384 -0.094615035 0.01815935 -0.12067989 -0.050918385 0.00876072
-0.15013982 -0.060366053 -0.26322508 0.17703278 0.013744514 0.21868789 -0.10001755 -0.17703708
-0.06442185 0.08934124 0.08189772 0.014020577 -0.19819075 -0.14298928 -0.117355935 -0.081449844
-0.016207341 -0.07096075 -0.01457748 -0.038168047 0.083053835 0.07400736 0.045666806 0.041164767
-0.1159755 -0.06008591 -0.01767783 -0.106217235 0.0026986038 0.18122704 -0.17949042 -0.0068461723
-0.18255916 -0.0871166 -0.059941225 0.010628831 -0.13817678 0.040696885 -0.080648124 0.14773554
0.07304481 0.015912037 0.015921801 -0.01733997 -0.108265154 -0.01141099 -0.03493863 0.09772775
0.042926457 -0.014843484 -0.044200804 -0.07652021 0.03695927 0.009942647 -0.028307293 -0.04599185
00000000: fb6b bdba 07c6 293d e5ff 043e c369 113e
00000010: c763 13be dbd4 433c f861 73be 9958 fbbd
00000020: 1218 4cbe 24d0 e0bb 1d56 5a3d 420d 28be
00000030: c9ae 52bd 62ad 84bd cbf3 193c d5ae 00bd
00000040: fdd5 b23d 71ef 0abe 7fb2 163b 261f 793c
00000050: c258 0dbd 3656 9abd de27 b93d 6316 c53d
00000060: 70c0 8d3d 225e 143d e03d 8ebd 74d1 fabd
00000070: 12bb 253c f1e9 723d d559 3f3e 0b34 1fbd
00000080: 0e9b 35be b5d6 46be fae2 06be ee10 76bd
00000090: a542 b6bc f858 3dbe 5d82 043d 4859 da3c
000000a0: 46d7 193e 3225 123d d7bf 223e d95b 66bd
000000b0: bf13 2c3e 08cd 0bbd 67e8 c03d b042 d8bd
000000c0: 54bd 9fbc 40c5 0dbe 08ec 94bd 65f1 bebd
000000d0: 42fe 533c 363e 04bc 4662 a93b 71d4 48bd
000000e0: 0b2c 53bd 1ae7 a63c 4df6 db3d 1132 963d
000000f0: 8a9b 2b3d c42c 633c 6e35 48be fcd5 38bd
00000100: 5b89 1d3d 19ef cbbd b3a7 89bd abf3 923d
00000110: c70c aa3d 7cf5 2ebd 93ef 353d 850c 8cbd
00000120: c2f1 fcbd ae06 fd3c 0db4 15bd 537e 2e3d
00000130: 69f1 36bc 4bb3 0f3e eaa2 39bd 27d1 ca3a
00000140: b34d 12bd ec0d 37bd 3c00 e03d 8187 7e3c
00000150: cadd 13bd 8813 22be a4ab 313e a9f1 1fbe
00000160: 08ff 4f3d 815e 3fbd f297 a33c 4ad9 1ebd
00000170: 2bd5 82bd beba 07bd 4ff3 c83d f161 db3d
00000180: 8912 633d 34dc b83d 3b54 afbd 1c56 4dbd
00000190: 4255 3bbc 6891 8b3c 3e1d 953d b61d 983c
000001a0: 19bf 933c 01ba 59bd be07 223d 2b83 593c
000001b0: 384d 00be bf43 9dbd 903a 043d 6903 3e3e
000001c0: b6e9 10bd 9dc0 00be a710 28be b682 45be
000001d0: 7e07 ffb8 bfd8 a13d 0187 98bd 004e 953d
000001e0: 3dc9 2c3e 8762 9b3c d98b 09be 804f 973d
000001f0: 3179 44be 7044 a63c ea07 0ebd 0936 7d3c
00000200: 9566 bfbd 8757 6fbd 7486 e73b 9cf4 143d
00000210: 10bd 313d bf8f 713d b97a 4d3d a0f6 83bd
00000220: 18cb 05be 233b 84bd ed24 1dbd 1409 543d
00000230: 2695 97bc fb02 a8bc ca34 ff38 3b11 8fbd
00000240: 1699 fdbc f50f a03d 36be 94bd 0613 c6bd
00000250: 36a0 18bd 0c78 ae3d c61e 123d d927 99bc
00000260: 1c20 5e3d fa6d c93b fd87 123c eded 183d
00000270: e5ce 53bd e998 723d 517a 16bd 36f3 543c
00000280: ba63 c63c 7be0 dfbc 209b bab9 2e58 7e3c
00000290: 8a3c 04be 0453 4fbd fe36 3fbc 84b2 253e
000002a0: 94da 643d b124 eb3d fbb0 d5bd ee82 11bd
000002b0: 542a bbbb c5b6 b0bd 0b75 363d b7f4 d53d
000002c0: a00c 2a3e c6f0 d03d c6ac c8bd f9f9 1fbc
000002d0: 9e0c 66bd 5eb1 7a3d 1707 92ba 5874 ce3d
000002e0: c61c 33be 4bf4 21be 1602 b9be 17ab d8bd
000002f0: c9d6 653d 776c d1bd 44f1 d33b 3efc 0d3e
00000300: e356 833d 4c5b dbbd d155 ddbd 87c5 c1bd
00000310: ebc2 943c 0527 f7bd cc8f 50bd 1f89 0f3c
00000320: 41be 19be 6542 77bd 70c5 86be 1548 353e
00000330: ac30 613c b8ef 5f3e 00d6 ccbd 3549 35be
00000340: 9aef 83bd 8af8 b63d feb9 a73d 90b6 653c
00000350: 84f2 4abe c86b 12be 4f58 f0bd 2dcf a6bd
00000360: 42c5 84bc df53 91bd 62d6 6ebc 1956 1cbd
00000370: 2118 aa3d 2c91 973d 1e0d 3b3d 639c 283d
00000380: 9084 edbd a51c 76bd 19d1 90bc 6c88 d9bd
00000390: 0fdb 303b 9593 393e 56cc 37be db55 e0bb
000003a0: caf0 3abe 306a b2bd ee84 75bd 8c24 2e3c
000003b0: 377e 0dbe c7b1 263d d82a a5bd fc47 173e
000003c0: 8498 953d f659 823c 706e 823c 8e0c 8ebc
000003d0: 1fba ddbd 29f5 3abc cf1b 0fbd 7d25 c83d
000003e0: a7d3 2f3d 1632 73bc e70b 35bd a1b6 9cbd
000003f0: 9a62 173d 7ce6 223c b2e4 e7bc f361 3cbd

encoder.4.bias f4 [64]
0.028357074 -0.14003395 0.073845215 -0.06837664 0.036006123 -0.10820957 0.055188723 -0.064711675
-0.17645755 0.00080039783 0.10043276 -0.018778382 -0.057054512 -0.12993273 0.112645596 -0.017023783
-0.04568179 0.08086084 0.10965085 0.025900502 0.050322477 0.009421474 -0.08280209 -0.10368639
-0.018329967 0.087650396 0.00083298853 -0.022811143 -0.14691104 0.030688452 -0.12975186 0.024842544
0.02372969 -0.0022857185 -0.019593421 -0.14753354 0.037206315 -0.08693169 -0.09041243 -0.11998239
-0.022037454 0.004610837 -0.085960455 -0.12599967 -0.023158995 0.06687452 -0.0068313354 -0.054903906
-0.02342071 -0.020918539 -0.012398861 -0.16141023 -0.13372426 0.08566815 0.11567923 0.01747578
-0.018978294 -0.11758954 0.000110436755 -0.13554086 -0.10893536 -0.03262341 0.045797706 -0.09531026
00000000: 184d e83c 0f65 0fbe 293c 973d 0d09 8cbd
00000010: 287b 133d fb9c ddbd 920d 623d 8e87 84bd
00000020: 4ab1 34be cad1 513a b1af cd3d 1fd5 99bc
00000030: feb1 69bd 160d 05be bcb2 e63d 7675 8bbc
00000040: d41c 3bbd 5e9a a53d a090 e03d 4a2d d43c
00000050: f11e 4e3d 875c 1a3c 2494 a9bd 8859 d4bd
00000060: ba28 96bc 0d82 b33d ea5c 5a3a 6fde babc
00000070: d96f 16be 5966 fb3c acdd 04be 9782 cb3c
00000080: c464 c23c fecb 15bb 6282 a0bc 0813 17be
00000090: a665 183d 3e09 b2bd 272a b9bd 54b9 f5bd
000000a0: e487 b4bc 8116 973b 090c b0bd 0f06 01be
000000b0: efb7 bdbc 82f5 883d 65d9 dfbb ebe2 60bd
000000c0: cadc bfbc 5b5d abbc 9824 4bbc b948 25be
000000d0: 03ef 08be c872 af3d 3be9 ec3d 5e29 8f3c
000000e0: 5e78 9bbc c9d2 f0bd 489a e738 39cb 0abe
000000f0: 8119 dfbd 20a0 05bd 6096 3b3d 0732 c3bd

decoder.0.weight f4 [64, 32, 3, 3]
0.012400987 0.0032076773 0.0038036196 -0.037770953 0.0060510933 0.02685088 -0.015582364 0.03169091
-0.017207174 0.01576082 0.014789174 0.027809579 0.048828788 -0.027713772 0.020961054 -0.05728662
0.046860088 0.0025714776 -0.0010822538 0.00032597076 -0.05415213 -0.055812508 0.0033401519 -0.049385395
-0.0018242069 -0.019025361 -0.033529706 -0.014180771 0.00019535064 0.05045655 -0.0278596 0.026317455
-0.04260969 0.01575367 0.037972413 0.058463953 0.04553289 -0.012977949 0.045745242 0.02583349
0.020800538 0.040521182 0.022795277 0.032706957 -0.0020019752 -0.007271701 0.0482084 -0.024551403
0.024897808 -0.030696224 -0.04939804 -0.031312495 -0.045536686 0.012040308 0.016997537 0.0565587
0.055071454 -0.05312134 0.009692033 -0.0032933548 -0.029720975 0.005625347 -0.015831642 0.022582639
-0.05693755 0.009529297 -0.023050196 -0.04281054 0.01806801 0.0017687627 -0.052874964 -0.021923112
0.019299401 -0.003396474 0.052631635 -0.0015016571 0.000957183 0.045254033 -0.04448728 0.020185158
-0.056406826 0.058022767 0.016347224 0.011637658 0.053505093 -0.020889418 0.03318135 0.0012516138
0.016138168 0.01775441 0.038216304 0.025829015 0.015612822 0.053177755 -0.04287975 0.044036496
-0.01400884 0.011144217 -0.024608666 -0.024164623 -0.030409506 0.016970113 0.021717645 -0.016137552
0.015645143 -0.016988637 -0.038821265 -0.013226988 0.03004568 0.020088494 -0.053570915 -0.0118365
0.0011532783 0.0389366 -0.010201602 0.0052113524 0.01632948 0.04928291 0.04391056 0.05719307
-0.012770874 -0.05418637 -0.058772307 -0.025299875 -0.0029559974 -0.0012588983 -0.01579397 0.019057155
-0.05389588 0.04029279 -0.03300429 0.058062818 0.021388851 0.011520974 0.041031186 0.05599015
-0.048961185 -0.00280809 0.0048636408 -0.049888354 0.048059482 -0.046019737 -0.03475779 0.03703125
0.055068202 0.05677123 -0.024959244 -0.037201177 -0.034839448 0.03132096 -0.0029333222 -0.016706597
0.02809721 0.026310043 0.05751911 0.055368174 -0.049686506 -0.042164788 0.013912977 0.00019744394
-0.030650362 -0.024107035 -0.026312236 0.00994929 0.058352206 0.02860723 0.055135027 -0.0323774
-0.01884238 0.013492506 0.044984408 -0.037239615 -0.038026087 0.03714727 0.015328374 0.01655996
0.0063108583 -0.038723633 0.035741758 0.041036475 0.026091127 0.03956925 0.0020789846 -0.012140484
0.00720735 0.033145834 -0.05813881 0.05791262 -0.012091144 -0.04943619 0.050511852 0.03081007
0.04703809 0.008370372 0.026102886 0.053886067 0.0009006922 0.04399715 -0.00972509 0.026476461
0.055926964 -0.011566339 -0.04509377 -0.038616277 0.034904405 0.03501959 0.053026017 0.030954493
-0.052756123 -0.056914542 -0.048736334 -0.046548236 0.042502224 -0.0023170651 0.04680938 -0.020871576
0.044919837 0.047753096 0.034807805 -0.05886592 0.021087699 -0.027784264 0.032333896 0.03436497
0.058024928 0.007048379 -0.0124365445 0.04209643 -0.036165986 -0.029824445 -0.018890308 -0.054334354
0.05573936 0.042099595 -0.014359424 0.0075859553 -0.0056065987 0.030188495 -0.028862463 0.038558375
-0.019545145 0.010356148 -0.017973538 -0.010857618 0.04179519 -0.052141137 0.058337778 -0.053705264
-0.024972914 -0.03346875 -0.050962172 0.042957045 0.026409518 0.03381413 0.0092452625 -0.025817951
00000000: 822d 4b3c e537 523b 2646 793b b7b5 1abd
00000010: 4048 c63b 60f6 db3c 2c4d 7fbc 54ce 013d
00000020: 0ff6 8cbc d61c 813c 4b4e 723c ead0 e33c
00000030: b200 483d fe07 e3bc 84b6 ab3c 60a5 6abd
00000040: 5df0 3f3d 3c86 283b 69da 8dba 0ee7 aa39
00000050: a0ce 5dbd a89b 64bd 73e6 5a3b 5748 4abd
00000060: 3a1a efba 13db 9bbc 7256 09bd 7756 68bc
00000070: 0ad7 4c39 87ab 4e3d d139 e4bc b497 d73c
00000080: 8087 2ebd d70d 813c f688 1b3d e677 6f3d
00000090: b280 3a3d 77a1 54bc 5d5f 3b3d c1a0 d33c
000000a0: e465 aa3c 8af9 253d 29bd ba3c bbf7 053d
000000b0: 9233 03bb 7347 eebb 2c76 453d 0620 c9bc
000000c0: 7df6 cb3c a676 fbbc 9955 4abd 8841 00bd
000000d0: ad84 3abd b644 453c 6b3e 8b3c 18aa 673d
000000e0: 9b92 613d c395 59bd 55cb 1e3c 53d5 57bb
000000f0: 6779 f3bc d554 b83b 5cb1 81bc 3aff b83c
00000100: 5937 69bd c520 1c3c c4d3 bcbc 1b5a 2fbd
00000110: 5d03 943c d4d5 e73a 6b93 58bd 1998 b3bc
00000120: c719 9e3c 6197 5ebb 4594 573d 40d3 c4ba
00000130: 77eb 7a3a 4b5c 393d 4b38 36bd 585b a53c
00000140: d80a 67bd 48a9 6d3d 9dea 853c e0ab 3e3c
00000150: 2828 5b3d 4920 abbc 2be9 073d 310d a43a
00000160: 3134 843c b271 913c b388 1c3d 5f97 d33c
00000170: eccc 7f3c ebd0 593d ada2 2fbd 9d5f 343d
00000180: 5585 65bc 3c96 363c 1d98 c9bc e3f4 c5bc
00000190: 5b1d f9bc e804 8b3c 34e9 b13c e632 84bc
000001a0: 3e2a 803c c12b 8bbc 0c03 1fbd 02b6 58bc
000001b0: 5c22 f63c a090 a43c 2d6d 5bbd e1ed 41bc
000001c0: 9929 973a fc7b 1f3d 9f24 27bc fec3 aa3b
000001d0: 67c5 853c e0dc 493d 8fdb 333d 4843 6a3d
000001e0: ee3c 51bc 87f2 5dbd 3bbb 70bd af41 cfbc
000001f0: 68b9 41bb 9e01 a5ba 5b62 81bc c01d 9c3c
00000200: edc1 5cbd 0d0a 253d 822f 07bd 47d3 6d3d
00000210: ac37 af3c 78c2 3c3c 5110 283d ed55 653d
00000220: 868b 48bd ef07 38bb 2d5f 9f3b bb57 4cbd
00000230: 05da 443d 317f 3cbd 2f5e 0ebd 14ae 173d
00000240: 328f 613d f388 683d 5477 ccbc 4360 18bd
00000250: cfb3 0ebd 684a 003d fb3c 40bb 46dc 88bc
00000260: 1f2c e63c 2988 d73c 2999 6b3d bdc9 623d
00000270: 1484 4bbd fcb4 2cbd 41f3 633c f408 4f39
00000280: 7816 fbbc 1e7c c5bc c28c d7bc 5902 233c
00000290: b902 6f3d b659 ea3c 44d5 613d 2a9e 04bd
000002a0: 565b 9abc ac0f 5d3c 9241 383d 9188 18bd
000002b0: 3ec1 1bbd bc27 183d dc23 7b3c c1a8 873c
000002c0: 51cb ce3b ac9c 1ebd f365 123d dd15 283d
000002d0: 0fbd d53c 5e13 223d 933f 083b e1e8 46bc
000002e0: a22b ec3b edc3 073d f622 6ebd c935 6d3d
000002f0: ef19 46bc 9a7d 4abd 84e5 4e3d 6665 fc3c
00000300: 03ab 403d e223 093c b8d5 d53c a3b7 5c3d
00000310: 6e1c 6c3a 5b36 343d fc55 1fbc 2ae5 d83c
00000320: ac13 653d be80 3dbc 3fb4 38bd 1a2c 1ebd
00000330: ecf7 0e3d b470 0f3d cf31 593d 4794 fd3c
00000340: ce16 58bd 391f 69bd c09f 47bd 5da9 3ebd
00000350: d016 2e3d e7d9 17bb 31bb 3f3d defa aabc
00000360: ddfd 373d c098 433d a192 0e3d 641d 71bd
00000370: 1cc0 ac3c d39b e3bc 8c70 043d 48c2 0c3d
00000380: 8cab 6d3d 17f6 e63b a6c2 4bbc 4e6d 2c3d
00000390: c922 14bd 6552 f4bc d9bf 9abc b38d 5ebd
000003a0: f54e 643d a070 2c3d ca43 6bbc 9b93 f83b
000003b0: 8fb7 b7bb dd4d f73c f970 ecbc 63ef 1d3d
000003c0: 241d a0bc d5ac 293c 3e3d 93bc 27e4 31bc
000003d0: 6f31 2b3d f291 55bd 98f3 6e3d 0dfa 5bbd
000003e0: ff93 ccbc 8716 09bd b6bd 50bd baf3 2f3d
000003f0: c658 d83c af80 0a3d 7179 173c 2b80 d3bc

decoder.0.bias f4 [32]
0.04810156 -0.014725596 0.041249122 -0.056401644 -0.034160696 -0.01559281 -0.05687704 -0.031904545
-0.03262621 0.0369247 0.056619197 -0.022722693 0.01284919 0.034797978 -0.058763314 0.057957515
0.026617238 0.020832282 -0.019376775 -0.023964867 0.022814883 -0.051902454 0.044535436 -0.018801013
-0.030825524 -0.042072523 0.051599883 0.012880786 -0.018640883 -0.035222754 -0.054092593 -0.030638125
00000000: 2406 453d a043 71bc d7f4 283d 6905 67bd
00000010: 16ec 0bbd fc78 7fbc e6f7 68bd 57ae 02bd
00000020: 10a3 05bd 5b3e 173d 88e9 673d f124 babc
00000030: 6985 523c 5388 0e3d cdb1 70bd dc64 6d3d
00000040: 650c da3c 76a8 aa3c 0bbc 9ebc f851 c4bc
00000050: 47e6 ba3c ab97 54bd ca6a 363d 9504 9abc
00000060: cf85 fcbc 3d54 2cbd 665a 533d ef09 533c
00000070: c4b4 98bc bc45 10bd 3290 5dbd cefc fabc

decoder.2.weight f4 [32, 16, 3, 3]
-0.017798504 0.06615018 -0.031143498 -0.022957057 0.008554807 -0.07150528 -0.04200097 -0.014072686
-0.06649755 0.03182181 -0.020065218 -0.020136168 0.025088381 -0.020257732 0.0017019908 0.020982873
0.0355122 -0.081886165 -0.07959138 -0.021110734 0.026865533 0.015050381 0.07093857 0.008363118
0.04395911 0.026381632 0.047143668 -0.031127255 0.034819566 -0.022651922 -0.026327174 -0.03714505
0.023493698 0.08049633 0.05830127 -0.028602224 0.031994373 -0.06431523 0.047340553 -0.060105335
0.043192208 -0.076701656 -0.049494904 -0.07164224 -0.013588071 0.043100666 -0.03149302 -0.014554581
0.04031699 -0.012721757 -0.08227442 -0.023469072 0.019231668 0.029613316 0.017746061 -0.06704861
-0.058168948 0.056627214 0.03308667 0.06272556 -0.07819208 0.021601032 0.03584429 0.075623766
-0.011986166 -0.070239864 0.06672612 0.025942942 0.0030050874 0.017925322 0.012223671 -0.0320934
-0.051067412 -0.004190912 0.067167625 -0.045592032 -0.023240378 0.018772444 -0.050752304 0.019094488
-0.0643246 -0.051130634 0.06712016 0.012598425 0.034858823 0.0062511964 0.051234655 0.0064682765
0.052055996 0.01183943 -0.009159258 -0.025006562 0.020735275 -0.021078458 0.05461838 -0.021028867
-0.0010071 -0.042571515 -0.061897308 0.018505316 -0.025617551 0.054688476 -0.07559307 -0.05483701
0.079482675 -0.006894976 -0.071305335 -0.056430966 0.0023559332 0.043253303 -0.06660424 -0.062179714
-0.036634576 -0.05111908 -0.037513703 -0.044369888 -0.07794037 0.017301997 -0.007442971 -0.054030966
-0.06464639 0.021386754 -0.07309595 -0.024773996 0.003781706 0.016671112 0.020179769 -0.053354584
-0.02657496 -0.030315787 -0.04399153 -0.011213988 -0.009343386 0.03475248 0.016948462 -0.035217565
0.08116637 0.04574459 0.018116474 0.06676163 0.065410614 -0.042285435 -0.021451473 -0.027364066
0.06415442 0.039289057 -0.0015676817 0.034601837 -0.053978395 -0.04256799 0.033971816 -0.053480726
0.026945155 -0.035877448 -0.042189907 -0.06885727 -0.021554213 0.025728077 0.034062903 -0.025759876
-0.033626698 0.048674524 -0.017647376 0.007611811 0.04177379 0.013414423 0.06412563 -0.06692478
-0.010430327 0.026429892 0.012647361 -0.07434901 -0.063163474 0.01744626 0.0023493469 0.03261293
-0.062166374 -0.039980344 -0.011335979 0.07845253 0.05492615 -0.010302147 -0.07466771 0.02703028
0.060942244 -0.010651907 -0.0014208357 0.0663349 -0.05282238 0.0338073 0.050983083 0.049833268
-0.0012912949 -0.015354316 0.03868431 -0.027008098 -0.062297188 -0.0632751 -0.0040782792 -0.03052505
-0.037719846 0.016012978 0.065614775 0.067478836 0.08169173 0.043696027 -0.029075604 -0.08234706
0.04858064 1.2209019e-05 0.062184505 -0.06236459 -0.06511934 0.04622355 0.004718741 0.078784734
0.06220744 0.0065389774 0.024015903 -0.018534016 -0.019606372 0.060816 -0.015117049 -0.011430383
-0.055852056 0.0060008965 0.023419052 -0.080202 -0.06419928 -0.017173301 -0.07340205 0.042270295
0.00033738217 0.08137716 -0.017009567 -0.07844664 0.067869745 0.016898762 -0.06498426 -0.024641445
0.031557173 0.06564557 -0.0340891 0.03579607 -0.0030186675 -0.05307257 -0.065798104 -0.02816107
0.0055223606 0.05693149 -0.066985935 0.038084 -0.055686098 -0.0066060126 0.08013674 -0.05330663
00000000: 2bce 91bc bf79 873d a620 ffbc 7010 bcbc
00000010: 7629 0c3c 5c71 92bd 3609 2cbd 2091 66bc
00000020: de2f 88bd 9657 023d d05f a4bc 9bf4 a4bc
00000030: 2686 cd3c 8bf3 a5bc 5615 df3a 46e4 ab3c
00000040: 3e75 113d efb3 a7bd ce00 a3bd 6bf0 acbc
00000050: 1b15 dc3c e095 763c 3e48 913d 7605 093c
00000060: 780e 343d 4b1e d83c b819 413d 96fe febc
00000070: f69e 0e3d 8690 b9bc 16ac d7bc 6825 18bd
00000080: db75 c03c 43db a43d 50cd 6e3d 364f eabc
00000090: 880c 033d b4b7 83bd 2be8 413d 0331 76bd
000000a0: 50ea 303d c215 9dbd 2bbb 4abd 2bb9 92bd
000000b0: 80a0 5ebc 538a 303d d3fe 00bd 5676 6ebc
000000c0: 6e23 253d eb6e 50bc 7e7f a8bd 3642 c0bc
000000d0: bb8b 9d3c a097 f23c 3060 913c c850 89bd
000000e0: 9042 6ebd f0f1 673d e385 073d 4276 803d
000000f0: 2b23 a0bd a6f4 b03c 76d1 123d a2e0 9a3d
00000100: a061 44bc ebd9 8fbd b4a7 883d 4b86 d43c
00000110: 00f1 443b 20d8 923c cb45 483c 5e74 03bd
00000120: 102c 51bd eb53 89bb 2e8f 893d b6be 3abd
00000130: 9b62 bebc abc8 993c a6e1 4fbd 0b6c 9c3c
00000140: 9ebc 83bd 5b6e 51bd 4b76 893d a069 4e3c
00000150: 20c8 0e3d d6d6 cc3b 6edb 513d d6f3 d33b
00000160: ab38 553d 2bfa 413c b610 16bc 90da ccbc
00000170: 06dd a93c bbac acbc 86b7 5f3d bb44 acbc
00000180: ab00 84ba 785f 2ebd 0888 7dbd 7698 973c
00000190: e6db d1bc 0601 603d 8ad0 9abd c69c 60bd
000001a0: d0c7 a23d 40ef e1bb 8808 92bd 2824 67bd
000001b0: 0066 1a3b 602a 313d ce67 88bd 28b0 7ebd
000001c0: 230e 16bd 3e62 51bd f8a7 19bd 33bd 35bd
000001d0: 339f 9fbd ebbc 8d3c 2be4 f3bb 934f 5dbd
000001e0: 5465 84bd 4633 af3c 54b3 95bd d6f2 cabc
000001f0: 80d6 773b db91 883c 0b50 a53c 568a 5abd
00000200: bbb3 d9bc d058 f8bc 7630 34bd e0ba 37bc
00000210: 0015 19bc 9e58 0e3d 80d7 8a3c 4b40 10bd
00000220: 8e3a a63d ae5e 3b3d 0069 943c 52ba 883d
00000230: 00f6 853d 7e33 2dbd 00bb afbc 9b2a e0bc
00000240: 6463 833d 90ed 203d ab7a cdba a8ba 0d3d
00000250: 7318 5dbd c65b 2ebd 0826 0b3d 9b0e 5bbd
00000260: 16bc dc3c 3bf4 12bd 53cf 2cbd 0a05 8dbd
00000270: 7692 b0bc b0c3 d23c 8b85 0b3d 6006 d3bc
00000280: 26bc 09bd f05e 473d 3b91 90bc 806c f93b
00000290: fe1a 2b3d 2bc8 5b3c 4c54 833d dc0f 89bd
000002a0: f6e3 2abc 8083 d83c e036 4f3c 4b44 98bd
000002b0: da5b 81bd 76eb 8e3c 80f7 193b 2395 053d
000002c0: 2ba2 7ebd 6ec2 23bd 8bba 39bc b8ab a03d
000002d0: 3efa 603d 56ca 28bc 62eb 98bd 9b6e dd3c
000002e0: 939e 793d 5685 2ebc 563b baba 98da 873d
000002f0: 485c 58bd 8679 0a3d a3d3 503d f81d 4c3d
00000300: ab40 a9ba ab90 7bbc 7073 1e3d 1640 ddbc
00000310: 562b 7fbd 6096 81bd 16a3 85bb ab0f fabc
00000320: 2080 1abd a62d 833c 0a61 863d 5832 8a3d
00000330: fe4d a73d 9bfa 323d f62f eebc 93a5 a8bd
00000340: 7efc 463d 56d5 4c37 2eb5 7e3d 0372 7fbd
00000350: 4a5d 85bd e854 3d3d ab9f 9a3b e459 a13d
00000360: 3bcd 7e3d eb44 d63b 00bd c43c a6d4 97bc
00000370: 8b9d a0bc 331a 793d 80ad 77bc 8046 3bbc
00000380: 20c5 64bd 2ba3 c43b 50d9 bf3c f240 a4bd
00000390: ea7a 83bd 06af 8cbc d053 96bd 9e23 2d3d
000003a0: abe2 b039 12a9 a63d a657 8bbc a2a8 a0bd
000003b0: 4bff 8a3d 466f 8a3c 7816 85bd dbdc c9bc
000003c0: 1842 013d 2f71 863d 03a1 0bbd e69e 123d
000003d0: d6d4 45bb a062 59bd 28c1 86bd 0bb2 e6bc
000003e0: ebf4 b43b fe30 693d ec2f 89bd f8fd 1b3d
000003f0: 1b17 64bd 4077 d8bb bb1e a43d 0e58 5abd

decoder.2.bias f4 [16]
-0.013471067 0.04842055 0.07346346 0.0490701 0.023980837 -0.03800291 -0.05366063 0.033870272
0.07189482 0.026536196 -0.027059406 0.041709267 0.055531126 0.07027824 0.081817314 0.02601133
00000000: c0b5 5cbc a054 463d 0374 963d bbfd 483d
00000010: 7673 c43c f0a8 1bbd 40cb 5bbd 8ebb 0a3d
00000020: 973d 933d 7062 d93c b0ab ddbc 56d7 2a3d
00000030: 9b74 633d 0aee 8f3d d68f a73d b615 d53c

decoder.4.weight f4 [16, 1, 3, 3]
-0.22049555 0.27904603 -0.21971652 0.07089432 -0.13300252 0.078832865 -0.24455795 -0.15428767
-0.05070349 0.19037275 0.24605088 -0.14539993 0.11123534 0.33286643 0.025498748 0.22257611
-0.17607836 0.10961823 -0.03397759 0.06154573 0.0011776686 0.026382726 -0.26701933 0.10187837
0.18157074 -0.18469477 0.27788097 -0.13210094 -0.033233248 0.2292866 -0.16223244 0.11549505
0.33038622 0.079024516 -0.023847342 -0.19061363 -0.030653 0.021119278 0.32363912 -0.21738124
0.30644366 0.10879652 -0.30282903 0.25503123 0.0014025371 -0.17237997 -0.06249746 0.31565282
0.047505897 0.21601503 -0.114536844 0.16148102 0.27991125 0.048829317 0.2539161 0.22828183
-0.06786513 0.15901244 -0.1711673 -0.097822666 -0.23989372 -0.051760755 0.13622348 -0.2969302
-0.30287802 0.24032128 -0.16642821 -0.14473383 -0.2797467 0.07783171 0.3122482 0.28477988
0.17062625 -0.27549157 -0.003962239 0.13768539 0.080279395 0.22857341 -0.28568992 0.33038658
0.28182754 -0.022888621 -0.24216942 0.12257918 -0.19507846 -0.17493269 -0.06915121 0.14594118
-0.2809767 0.03853528 -0.26802945 0.13499126 0.1981107 0.1329261 -0.023578644 0.044247627
-0.24527764 0.29114494 0.08414459 0.102204084 -0.29487368 0.19787022 -0.15596497 -0.037117362
0.24422774 0.018027902 0.08982973 -0.28443527 0.03532263 0.11938512 0.008641005 -0.19153135
0.31197262 0.26193714 0.066324875 -0.09775933 -0.28025335 0.22256553 0.28045392 -0.063141346
0.14840698 0.09137623 0.08944297 -0.12571971 -0.2965293 0.2644069 0.32375556 0.27654988
0.008155584 -0.24674444 -0.08829749 -0.26651904 0.07723963 0.10587188 -0.15178308 -0.022255223
-0.13124387 -0.33267307 -0.0672373 0.20587203 -0.12557778 -0.12033558 -0.20138654 0.23741941
00000000: 96c9 61be 1fdf 8e3e 5efd 60be 0b31 913d
00000010: d031 08be 2073 a13d 666d 7abe 96fd 1dbe
00000020: 76ae 4fbd 13f1 423e c3f4 7b3e b8e3 14be
00000030: 5bcf e33d 786d aa3e c0e2 d03c feea 633e
00000040: e34d 34be 867f e03d 162c 0bbd 6017 7c3d
00000050: 005c 9a3a 9620 d83c c2b6 88be 9ba5 d03d
00000060: aeed 393e a020 3dbe 6a46 8e3e 7845 07be
00000070: 961f 08bd 1bca 6a3e 4320 26be ab88 ec3d
00000080: 6228 a93e 9bd7 a13d 805b c3bc 3830 43be
00000090: 001c fbbc 5602 ad3c 07b4 a53e 3099 5ebe
000000a0: 2fe6 9c3e b6d0 de3d 680c 9bbe 7493 823e
000000b0: 56d5 b73a 6084 30be 56fd 7fbd 3f9d a13e
000000c0: 8b95 423d 0b33 5d3e 4b92 eabd 485b 253e
000000d0: 8750 8f3e 4001 483d 4b01 823e b6c2 693e
000000e0: e0fc 8abd 28d4 223e 7b46 2fbe 4057 c8bd
000000f0: b3a6 75be 1603 54bd 2b7e 0b3e 3c07 98be
00000100: d412 9bbe c816 763e 286c 2abe 1b35 14be
00000110: f63a 8fbe 3b66 9f3d ffde 9f3e abce 913e
00000120: a6b8 2e3e 3b0d 8dbe abd5 81bb 66fd 0c3e
00000130: 8669 a43d 260f 6a3e f345 92be 6e28 a93e
00000140: b34b 903e eb80 bbbc 43fb 77be cb0a fb3d
00000150: a6c2 47be 8e21 33be 269f 8dbd 9b71 153e
00000160: 2edc 8fbe 2bd7 1d3d 283b 89be 263b 0a3e
00000170: 88dd 4a3e c81d 083e 0028 c1bc 003d 353d
00000180: 102a 7bbe f310 953e 0054 ac3d 6050 d13d
00000190: aff9 96be 7e9e 4a3e 48b5 1fbe 6008 18bd
000001a0: d616 7a3e 40af 933c a6f8 b73d 80a1 91be
000001b0: 76ae 103d 3080 f43d 0093 0d3c cb20 44be
000001c0: e0ba 9f3e a01c 863e 56d5 873d 0b36 c8bd
000001d0: 5e7d 8fbe 38e8 633e a897 8f3e 4050 81bd
000001e0: 00f8 173e 7623 bb3d e02d b73d abbc 00be
000001f0: b0d2 97be 5760 873e 4ac3 a53e f297 8d3e
00000200: 009f 053c 93aa 7cbe 50d5 b4bd 2f75 88be
00000210: d02f 9e3d 5bd3 d83d 066d 1bbe 9650 b6bc
00000220: cb64 06be 2054 aabe b6b3 89bd 1ed0 523e
00000230: 7697 00be 8072 f6bd 4638 4ebe 131e 733e

classifier.1.weight f4 [128, 1024]
0.07558511 -0.034912694 -0.056393195 -0.008020793 -0.17709501 -0.010939307 0.08308482 -0.07094309
-0.120142974 -0.05010554 0.10416745 -0.08308303 0.069846675 0.14818425 0.007140496 -0.0073104943
-0.12044079 -0.045861103 0.10121422 -0.03911974 -0.0036126503 0.10445552 0.0028619315 -0.04102232
0.01947149 -0.02098727 -0.057114426 0.02172359 -0.007892508 -0.25646502 -0.03300919 0.022321528
-0.0029046389 -0.054531556 -0.16561323 0.013882474 -0.017806863 -0.014182708 0.06403449 0.107071124
0.008955048 -0.052242596 -0.03632613 -0.0021058242 0.014034336 0.07723046 0.07913373 0.0056243674
0.11158215 -0.020523772 0.08501101 0.14257856 -0.053143706 0.033600703 -0.17290674 -0.052246515
0.0927049 -0.08453631 -0.0075190132 0.06996781 -0.011731931 -0.09896588 0.1465201 0.0031792794
0.03238317 -0.024291795 0.120659165 0.029750431 -0.048750866 -0.14333186 0.09583243 0.027609246
-0.05140432 -0.16932695 -0.12877598 0.044290718 -0.008669065 0.08829863 0.04362081 -0.09969347
-0.03545249 -0.24897918 -0.070251465 -0.07261267 -0.064917326 0.11374674 0.12619565 -0.051712345
-0.019724285 0.046458133 0.02123218 0.006881332 -0.15522818 -0.09129294 0.00020804998 -0.03323479
-0.038319908 -0.13969982 -0.13664846 -0.056007516 -0.051906575 0.06243407 0.0016982281 -0.14030738
-0.012176418 -0.024576196 -0.09095801 -0.16468832 0.081582315 0.107923456 0.034881152 0.0048722583
0.002706821 0.050284415 0.112529635 0.06388436 0.026211176 0.15624894 -0.14997685 -0.05255622
0.04161538 0.050919257 0.012264239 0.059219588 -0.115591474 -0.08536897 -0.13102904 -0.029112957
-0.048626717 -0.14462735 0.037780285 0.08623281 -0.024785763 0.212861 0.086351424 -0.08677788
-0.064801894 0.11707276 -0.11957752 0.013234097 -0.08900632 -0.08572704 -0.13161641 -0.0474081
0.01584388 -0.10568411 0.004366925 0.010771439 -0.055821028 0.010666373 0.032388125 -0.055413123
0.012776111 0.0024467786 0.03209605 -0.02272536 0.026165012 -0.21211714 -0.06611363 -0.018269472
-0.04148864 -0.093102686 -0.18100052 -0.10162671 0.004074127 0.0019102298 -0.011217592 -0.059616555
-0.015049428 -0.03361684 0.039061636 0.016437316 0.050185226 0.0019368636 -0.11230609 -0.042962555
-0.0752801 0.1770441 0.035430223 -0.012541038 0.049434934 -0.06839412 0.042576544 -0.0021124433
0.13544694 -0.085473806 -0.052053493 0.002677102 -0.21586296 0.014634043 0.03007595 0.04806929
-0.10655221 -0.15228945 0.056397185 0.013693245 -0.12649888 0.0027797853 0.0045473673 -0.04588836
-0.050486404 -0.06847379 -0.08163374 -0.06574134 0.03377588 -0.013799987 0.09047286 -0.027188938
-0.10393667 0.016683377 0.026883068 -0.00034587234 0.004130204 0.14313397 -0.08543638 -0.008927465
0.058398172 -0.0117860865 -0.043024153 -0.054861683 -0.16623117 -0.1201547 0.09918358 0.0144513175
0.008408967 -0.0031053547 -0.04528935 -0.028962411 -0.03996728 -0.027406134 0.07446016 -0.015419122
0.06791728 -0.08370392 -0.04627181 0.018253079 -0.027547205 0.09560485 0.0296443 -0.056742936
0.03111509 -0.029124297 -0.099862 -0.054865096 -0.056283392 0.052322857 0.1557568 0.14288104
-0.114307135 -0.035515003 0.037860133 -0.01688231 -0.01760069 0.10190149 0.053267255 0.049956437
00000000: 5ecc 9a3d 9d00 0fbd 8dfc 66bd a569 03bc
00000010: 6558 35be c73a 33bc 6028 aa3d 9c4a 91bd
00000020: 850d f6bd 773b 4dbd be55 d53d 7027 aabd
00000030: c60b 8f3d 9dbd 173e d2fa e93b df8c efbb
00000040: a9a9 f6bd dad8 3bbd 6749 cf3d 053c 20bd
00000050: 37c2 6cbb c7ec d53d 3e8f 3b3b 0507 28bd
00000060: ad82 9f3c 7fed abbc d1f0 69bd acf5 b13c
00000070: 944f 01bc 624f 83be a534 07bd a3db b63c
00000080: c15b 3ebb 7b5c 5fbd 8496 29be 5173 633c
00000090: b3df 91bc 975e 68bc 8424 833d 1b48 db3d
000000a0: 32b8 123c 55fc 55bd b5ca 14bd de01 0abb
000000b0: 46f0 653c 012b 9e3d dd10 a23d 9d4c b83b
000000c0: 2f85 e43d 7821 a8bc 411a ae3d 1d00 123e
000000d0: 37ad 59bd e4a0 093d 770e 31be 7100 56bd
000000e0: 11dc bd3d 5f21 adbd 0e62 f6bb 484b 8f3d
000000f0: 4937 40bc a0ae cabd 5d09 163e 755b 503b
00000100: 37a4 043d 96ff c6bc 271c f73d 2db7 f33c
00000110: fdae 47bd 96c5 12be cb43 c43d c92c e23c
00000120: 568d 52bd 0b64 2dbe dadd 03be 2f6a 353d
00000130: b208 0ebc ead5 b43d bcab 323d 172c ccbd
00000140: a136 11bd 66f4 7ebe 00e0 8fbd f4b5 94bd
00000150: 60f3 84bd 0df4 e83d 6f39 013e 53d0 53bd
00000160: d394 a1bc e24a 3e3d 1cef ad3c cc7c e13b
00000170: 23f4 1ebe cbf7 babd fe27 5a39 3421 08bd
00000180: 56f5 1cbd 780d 0fbe 93ed 0bbe 2368 65bd
00000190: fd9b 54bd deba 7f3d 1497 de3a bdac 0fbe
000001a0: 997f 47bc 0554 c9bc 3148 babd 0ea4 28be
000001b0: a114 a73d f906 dd3d 8adf 0e3d 77a7 9f3b
000001c0: ec64 313b 08f7 4d3d f075 e63d ced5 823d
000001d0: d2b8 d63c b9ff 1f3e 8893 19be 3145 57bd
000001e0: e474 2a3d b690 503d f2ef 483c 3d90 723d
000001f0: 39bb ecbd edd5 aebd 7a2c 06be 4c7e eebc
00000200: cf2c 47bd 3119 14be 80bf 1a3d d49a b03d
00000210: 830b cbbc 3cf8 593e 04d9 b03d 9ab8 b1bd
00000220: dbb6 84bd d8c3 ef3d 0fe5 f4bd d3d3 583c
00000230: f248 b6bd a991 afbd 74c6 06be ff2e 42bd
00000240: 06cb 813c e970 d8bd 6c18 8f3b b17a 303c
00000250: 97a4 64bd 03c2 2e3c 69a9 043d dff8 62bd
00000260: e552 513c 225a 203b 2677 033d 892a babc
00000270: 0258 d63c 3c35 59be 9566 87bd dca9 95bc
00000280: feef 29bd 9fac bebd 3358 39be aa21 d0bd
00000290: 4180 853b ad60 fa3a fec9 37bc 7d30 74bd
000002a0: e091 76bc d0b1 09bd 18ff 1f3d 8da7 863c
000002b0: 068f 4d3d 5cde fd3a bc00 e6bd 81f9 2fbd
000002c0: 742c 9abd 0c4b 353e 481f 113d ed78 4dbc
000002d0: 497c 4a3d 3712 8cbd be64 2e3d eb70 0abb
000002e0: 9ab2 0a3e e40c afbd 0b36 55bd 5272 2f3b
000002f0: 2e0b 5dbe a0c3 6f3c d761 f63c 4ee4 443d
00000300: 0c38 dabd c4f1 1bbe bc00 673d a259 603c
00000310: ec88 01be 0f2d 363b 1502 953b 6ff5 3bbd
00000320: d5ca 4ebd fd3b 8cbd 972f a7bd 65a3 86bd
00000330: 9458 0a3d 5719 62bc d649 b93d 56bb debc
00000340: c0dc d4bd 94ab 883c e139 dc3c 3356 b5b9
00000350: aa56 873b b691 123e 45f9 aebd 8144 12bc
00000360: ec32 6f3d 6e1a 41bc 183a 30bd a5b6 60bd
00000370: 8138 2abe ab13 f6bd c320 cb3d 38c5 6c3c
00000380: c4c5 093c 3583 4bbb 5381 39bd 9442 edbc
00000390: bbb4 23bd d482 e0bc 927e 983d 7ca0 7cbc
000003a0: 3718 8b3d f66c abbd 8287 3dbd 7b87 953c
000003b0: adaa e1bc 7acc c33d 9ad8 f23c 486b 68bd
000003c0: 13e5 fe3c 1496 eebc 7384 ccbd 39ba 60bd
000003d0: 6a89 66bd 7e50 563d b67e 1f3e 684f 123e
000003e0: dc19 eabd 2e78 11bd 3a13 1b3d c54c 8abc
000003f0: 522f 90bc bab1 d03d c42e 5a3d 1f9f 4c3d

classifier.1.bias f4 [128]
-0.007144124 -0.01448875 -0.0092462655 -0.034858335 -0.023485834 0.01372511 -0.079723716 -0.042772524
0.06065585 -0.01375768 0.04579718 -0.024862748 0.052391518 -0.078589156 -0.0048661833 -0.041870896
-0.039720934 0.015452334 0.022311648 -0.023433154 -0.059476882 0.113020495 -0.023536373 -0.019040355
-0.001655568 -0.054737672 -0.0093442025 0.053514887 -0.03253295 -0.06656138 -0.016317355 0.028028365
-0.05654748 -0.069394365 0.06909334 0.0678636 -0.031701963 0.03275541 0.070128314 0.018830651
0.024879657 -0.044509165 -0.030334918 0.011214296 0.0061015654 0.031444702 -0.08040106 -0.026239863
-0.014501434 0.06945752 -0.024612358 0.03137384 -0.027312286 -0.015478323 -0.066276744 0.05557122
0.069206186 -0.078054294 -0.019267986 0.015628574 -0.029320307 0.011115032 0.008377938 -0.053498317
0.035141796 0.030819038 -0.021936452 -0.03375176 0.066534854 0.01841843 0.06370152 -0.025481433
0.019564621 -0.008886478 0.010363525 0.048669267 0.019913698 -0.0156728 -0.04131888 -0.051421233
0.061932486 0.002353441 -0.022778474 -0.044622887 -0.013037801 -0.0030986997 -0.026880216 0.033762697
0.06260801 -0.029292878 0.09766563 -0.00804862 -0.0588511 -0.12098351 -0.010673141 -0.0357222
0.002909395 0.062957086 0.0043786345 -0.043308362 -0.018669277 -0.025929995 -0.009566 0.01118124
0.007816689 0.018597877 -0.040012978 -0.027720558 -0.025669571 -0.057754837 -0.053796202 -0.0024843607
-0.0049868952 0.014306443 0.052830063 0.024024405 0.09593679 -0.03070492 -0.04176188 0.005046155
-0.04247542 0.10491681 0.020695088 0.0079342285 -0.03772652 0.0075774835 0.021101817 0.04547963
00000000: 4119 eabb 3962 6dbc a67d 17bc 9dc7 0ebd
00000010: 5d65 c0bc 49df 603c 3046 a3bd 3e32 2fbd
00000020: 4572 783d e467 61bc d395 3b3d f6ac cbbc
00000030: 7d98 563d 5af3 a0bd 8174 9fbb d180 2bbd
00000040: 6bb2 22bd c92b 7d3c ebc6 b63c e3f6 bfbc
00000050: 089e 73bd 4a77 e73d 5acf c0bc 85fa 9bbc
00000060: a5ff d8ba 9c34 60bd 6d18 19bc 6d32 5b3d
00000070: 4541 05bd 5551 88bd f9ab 85bc be9b e53c
00000080: 559e 67bd a21e 8ebd cf80 8d3d 12fc 8a3d
00000090: ebd9 01bd 892a 063d 6f9f 8f3d bd42 9a3c
000000a0: 6cd0 cb3c 3e4f 36bd ef80 f8bc 2bbc 373c
000000b0: a4ef c73b 29cc 003d 50a9 a4bd fbf4 d6bc
000000c0: 6c97 6dbc bf3f 8e3d db9f c9bc db81 003d
000000d0: 04be dfbc cb98 7dbc 1abc 87bd a69e 633d
000000e0: f9bb 8d3d eeda 9fbd e5d7 9dbc 7f07 803c
000000f0: 2431 f0bc d31b 363c 9e43 093c 0d21 5bbd
00000100: d8f0 0f3d 3578 fc3c 13b4 b3bc 493f 0abd
00000110: 6d43 883d 3fe2 963c f175 823d 70be d0bc
00000120: fc45 a03c 9798 11bc c6cb 293c 6d59 473d
00000130: 0d22 a33c 3e64 80bc fc3d 29bd 129f 52bd
00000140: ebac 7d3d 303c 1a3b ec99 babc 7dc6 36bd
00000150: 809c 55bc 8e13 4bbb e633 dcbc c14a 0a3d
00000160: a138 803d 9ef7 efbc eb04 c83d 5cde 03bc
00000170: da0d 71bd 34c6 f7bd 66de 2ebc 7151 12bd
00000180: 8cab 3e3b a5ef 803d a67a 8f3b 1c64 31bd
00000190: 50f0 98bc 246b d4bc b6ba 1cbc 8531 373c
000001a0: 9211 003c 935a 983c a6e4 23bd 3916 e3bc
000001b0: fe48 d2bc 5690 6cbd 6859 5cbd a8d0 22bb
000001c0: 1c69 a3bb 9265 6a3c 5664 583d d4ce c43c
000001d0: 827a c43d e288 fbbc 810e 2bbd 375a a53b
000001e0: b5fa 2dbd a0de d63d bf88 a93c 91fe 013c
000001f0: 2087 1abd 8a4c f83b b8dd ac3c d948 3a3d
