best_model_epoch_5.pth (torch, 741122 bytes, 15 tensors)

encoder.0.weight f4 [16, 1, 3, 3]
0.14509255 -0.1787373 -0.23088293 -0.41858536 -0.44763526 -0.28394657 -0.63056856 -0.45657572
0.20595393 -0.056281764 -0.10350906 0.22993359 -0.22866553 -0.12927492 0.5192718 -0.14613596
-0.32501495 0.40762228 0.08532623 0.21791872 -0.39747718 0.46554118 -0.17591964 0.025406403
0.3184578 0.20028928 -0.3644123 0.7322683 -0.0009861471 0.05612781 0.19770394 -0.042575646
-0.021248965 0.20091328 -0.31229284 -0.7007749 0.32646543 0.38861775 0.18131049 0.4965006
0.0413477 -0.14704373 -0.020707648 -0.14983104 -0.093741655 -0.16531083 -0.01888344 -0.38380703
0.44075307 0.6255743 0.42802677 0.0015042338 0.40478864 -0.00038075587 -0.3123175 -0.6015454
-0.7830034 -0.14645965 -0.6956169 -0.04173746 -0.6030507 -0.595757 -0.3743082 -0.078467175
-0.6577663 -0.6498567 -0.6328741 -0.44826964 -0.040615365 -0.50508785 -0.29080668 -0.4870874
0.16585657 -0.6752054 -0.2591379 -0.5762078 -0.12024553 0.27099183 -0.20144776 -0.08714089
0.44982356 0.44200113 -0.20998082 -0.5433033 0.45751944 -0.1761239 -0.2607108 0.1850217
0.029480658 0.3235755 -0.04877577 -0.04935611 0.29399973 0.21484923 0.5375656 0.42031595
0.10679796 0.54348 0.35441518 -0.29800057 -0.3904731 -0.45799214 0.0015940738 -0.1540466
0.32083175 0.45173946 0.47350267 0.44675115 0.3104319 0.2147111 0.16859587 -0.070866145
0.38930196 0.18820179 0.16178459 -0.12864137 0.05593067 -0.56544834 -0.18374522 0.36074308
-0.5826587 0.32220107 0.29685393 0.0066288416 0.16347167 0.56972504 0.00028938538 0.49066114
-0.0010550383 0.05422495 0.50155103 -0.11484994 -0.002245264 0.43115017 -0.07852143 -0.3731518
-0.18100782 0.4189098 -0.19266647 0.42152864 -0.07995444 -0.060414426 0.45990613 -0.43346724
00000000: 2493 143e e906 37be 936c 6cbe d250 d6be
00000010: 7330 e5be 7261 91be f16c 21bf 4bc4 e9be
00000020: 96e5 523e b587 66bd 8ffc d3bd b673 6b3e
00000030: 4c27 6abe a560 04be ffee 043f aaa4 15be
00000040: 5c68 a6be deb3 d03e 85bf ae3d 1626 5f3e
00000050: 2182 cbbe 6a5b ee3e 4724 34be 1721 d03c
00000060: e70c a33e a218 4d3e 4094 babe ef75 3b3f
00000070: 9b41 81ba 46e6 653d e772 4a3e cd63 2ebd
00000080: 4f12 aebc 36bc 4d3e d9e4 9fbe fc65 33bf
00000090: 7a26 a73e e8f8 c63e 75a9 393e 5435 fe3e
000000a0: 355c 293d a292 16be 16a3 a9bc 4f6d 19be
000000b0: a0fb bfbd 3e47 29be 72b1 9abc 5b82 c4be
000000c0: 63aa e13e a325 203f 5326 db3e b629 c53a
000000d0: 7540 cf3e 30a0 c7b9 14e8 9fbe e1fe 19bf
000000e0: e972 48bf 85f9 15be f313 32bf e6f4 2abd
000000f0: 8861 1abf 8883 18bf 53a5 bfbe 66b3 a0bd
00000100: 5f63 28bf 025d 26bf 0904 22bf 9983 e5be
00000110: 4c5c 26bd 704d 01bf 9de4 94be 8563 f9be
00000120: 4ed6 293e 43da 2cbf b9ad 84be 5b82 13bf
00000130: 4a43 f6bd 71bf 8a3e 5248 4ebe ec76 b2bd
00000140: 464f e63e f94d e23e 3605 57be ed15 0bbf
00000150: fd3f ea3e d359 34be e37b 85be 5476 3d3e
00000160: 6c81 f13c b0ab a53e 1ac9 47bd a229 4abd
00000170: 2287 963e 7001 5c3e e69d 093f a733 d73e
00000180: e4b8 da3d 8121 0b3f e875 b53e 8893 98be
00000190: 17ec c7be f27d eabe 3ef0 d03a 64be 1dbe
000001a0: 0f44 a43e 654a e73e f16e f23e 91bc e43e
000001b0: eef0 9e3e 3add 5b3e 65a4 2c3e 4522 91bd
000001c0: 9652 c73e f8b7 403e dcaa 253e 90ba 03be
000001d0: 8f17 653d 39c1 10bf b527 3cbe 51b3 b83e
000001e0: 1f29 15bf 8af7 a43e 3dfd 973e c136 d93b
000001f0: 1e65 273e 80d9 113f a6b8 9739 f037 fb3e
00000200: 3649 8aba fb1a 5e3d a665 003f 7236 ebbd
00000210: 4725 13bb b7bf dc3e d8cf a0bd c10d bfbe
00000220: 1d5a 39be 587b d63e 5c4a 45be 9ad2 d73e
00000230: 27bf a3bd 1e75 77bd d178 eb3e 6bef ddbe

encoder.0.bias f4 [16]
0.26801178 0.15737168 0.28034654 0.023491727 0.065450646 -0.0047349953 0.18022898 0.34340817
0.13453372 -0.0045893593 -0.0016884836 0.009059728 0.11200667 -0.0021844143 0.035893098 -0.0049153417
00000000: d738 893e 0b26 213e 9589 8f3e b971 c03c
00000010: fd0a 863d 0528 9bbb f28d 383e 32d3 af3e
00000020: 35c3 093e 5662 96bb 1c50 ddba 416f 143c
00000030: c163 e53d 6428 0fbb a404 133d e010 a1bb

encoder.2.weight f4 [32, 16, 3, 3]
-0.31561813 0.14671794 0.07994871 -0.1605314 0.029676495 0.059695456 -0.19585757 0.1847531
0.12082145 0.075533085 -0.20111556 0.12781498 0.037376784 -0.22795069 -0.005765941 -0.039820336
0.036054637 0.13825275 0.20109864 0.111043125 -0.08781328 0.16224675 0.059334293 -0.187949
0.2587055 -0.0065621817 -0.051681273 0.038530916 0.17027186 -0.16979526 0.19177556 0.16714592
-0.23261772 0.16946177 0.12222135 -0.374554 0.17361566 0.11340196 -0.23221424 0.2662729
0.064615756 -0.16536744 0.27689517 0.018429426 -0.13070984 0.16508105 0.009996955 -0.28757244
0.33344343 -0.12451551 -0.32798558 0.17946447 -0.03539981 -0.046180796 -0.38170606 0.10246901
0.06988895 -0.28900525 0.16144396 0.112383775 -0.06161036 0.22009967 0.06941198 -0.26951826
0.18850173 0.100396566 -0.16853954 0.025109418 0.10428185 -0.14803366 0.09138612 0.047052443
-0.08985991 0.1255327 0.23977153 -0.24776624 -0.10179036 0.17605108 -0.18447354 0.06412984
0.14142478 0.207144 0.23530227 -0.01597869 0.1479158 0.21462004 -0.098362036 0.13382795
0.29510382 -0.074341245 0.23175232 -0.122823045 -0.27290678 0.31919459 -0.06886243 -0.29234225
0.16214152 -0.120131716 0.038619485 0.1548587 -0.20487176 -0.263482 0.21341579 -0.15609477
-0.25617418 0.015535138 -0.11363601 0.10234163 0.15005441 -0.047239542 -0.15290995 0.2687554
-0.05680574 -0.16384111 0.1224515 -0.0970036 -0.11520478 0.3116251 -0.30038738 -0.018629871
0.1817132 -0.38695213 0.046886966 0.10172803 -0.24260631 0.15930341 0.28940412 0.011511466
-0.30682197 0.25284284 -0.06522208 -0.27516764 0.27987227 -0.042639226 -0.07701109 0.25821742
-0.14512792 0.28334245 0.31783137 -0.32029587 0.22875096 0.37314713 -0.7324014 0.017291507
-0.13516793 -0.11419867 -0.11689594 -0.05522564 0.13037474 -0.12976885 0.09587056 0.25262302
0.09996949 -0.01875758 0.05599798 0.13516384 0.071857244 0.10710882 0.1996368 -0.16621551
0.012095901 0.13978708 -0.20309769 0.1341727 0.21348009 -0.12298942 0.04419839 -0.007714343
-0.15985873 -0.13599741 -0.04005219 -0.11707009 -0.054724306 0.13629271 0.083312176 -0.21315356
-0.20054086 0.07989248 -0.190354 -0.16017565 -0.008320675 0.15834199 0.3311668 -0.07465581
0.09301938 0.26083678 -0.14481542 -0.100422926 0.049216688 -0.03293 0.27102178 0.30492365
-0.24209905 0.18068552 0.15731333 -0.30533317 -0.31212556 -0.029831497 -0.11794992 -0.16515413
-0.18018864 -0.0041697696 0.0749071 -0.016071768 0.111319326 0.19642325 0.11713848 -0.1902949
-0.24524352 -0.15369852 -0.023302775 0.23620331 -0.08005627 0.052317303 0.21583326 0.10675323
-0.32346332 -0.2545059 -0.24227373 -0.18540493 -0.18753214 -0.28916726 -0.10891894 0.121897995
-0.050529767 -0.13214797 0.1892542 0.29418367 -0.52581483 -0.29496023 -0.045858815 -0.04026538
-0.43332818 -0.16360088 -0.019530049 0.23359285 0.29107726 -0.11877644 0.088577375 0.25917348
-0.32772598 -0.21454048 -0.07560262 0.06837829 0.16708641 0.3118527 -0.13576558 -0.15745935
0.048139166 -0.13801694 -0.4154487 -0.29463762 -0.024057822 0.23478004 0.29480654 -0.012837088
00000000: b398 a1be 3a3d 163e 26bc a33d 5862 24be
00000010: 1f1c f33c 3983 743d e38e 48be eb2f 3d3e
00000020: 3d71 f73d 17b1 9a3d 3df1 4dbe eee1 023e
00000030: 6618 193d e86b 69be 38f0 bcbb a61a 23bd
00000040: 07ae 133d 2192 0d3e cdec 4d3e 946a e33d
00000050: 73d7 b3bd 0324 263e 8408 733d b475 40be
00000060: 0c75 843e 9207 d7bb beaf 53bd 98d2 1d3d
00000070: bf5b 2e3e cfde 2dbe d060 443e 4d28 2b3e
00000080: 5733 6ebe 6387 2d3e 304f fa3d 8bc5 bfbe
00000090: 4ec8 313e 493f e83d 92c9 6dbe ec54 883e
000000a0: 4455 843d 1556 29be 34c5 8d3e 4ff9 963c
000000b0: cdd8 05be 020b 293e 45ca 233c b23c 93be
000000c0: 19b9 aa3e fd01 ffbd baed a7be 89c5 373e
000000d0: 64ff 10bd 1328 3dbd fa6e c3be 46db d13d
000000e0: f021 8f3d 7ff8 93be 9151 253e 7729 e63d
000000f0: 255b 7cbd cf61 613e de27 8e3d 4cfe 89be
00000100: 9906 413e b79c cd3d a195 2cbe 44b2 cd3c
00000110: b991 d53d 2396 17be a528 bb3d 10ba 403d
00000120: 7908 b8bd a58b 003e ab86 753e 6fb6 7dbe
00000130: 7777 d0bd bc46 343e a2e6 3cbe 8156 833d
00000140: a8d1 103e 8f1d 543e 14f3 703e bee5 82bc
00000150: 3d77 173e 5bc5 5b3e 0972 c9bd 320a 093e
00000160: d917 973e 3940 98bd 7b50 6d3e a68a fbbd
00000170: 70ba 8bbe 796d a33e bf07 8dbd e2ad 95be
00000180: 6d08 263e 9e07 f6bd 772f 1e3d 4793 1e3e
00000190: e7c9 51be 1de7 86be ab89 5a3e 4fd7 1fbe
000001a0: 4329 83be 1787 7e3c ffb9 e8bd 7d98 d13d
000001b0: dda7 193e 407e 41bd 6d94 1cbe 4f9a 893e
000001c0: 23ad 68bd f7c5 27be dac7 fa3d d3a9 c6bd
000001d0: 7cf0 ebbd 538d 9f3e 60cc 99be ac9d 98bc
000001e0: 0613 3a3e 971e c6be 8c0c 403d c956 d03d
000001f0: ca6d 78be 6f20 233e c72c 943e 969a 3c3c
00000200: c517 9dbe 9e74 813e 2793 85bd c6e2 8cbe
00000210: 6b4b 8f3e 78a6 2ebd feb7 9dbd 1335 843e
00000220: 6a9c 14be 4312 913e cbba a23e d2fd a3be
00000230: b13d 6a3e 240d bf3e a87e 3bbf eba6 8d3c
00000240: 7669 0abe fee0 e9bd 2367 efbd 4834 62bd
00000250: f580 053e 20e2 04be c957 c43d ce57 813e
00000260: cebc cc3d 7fa9 99bc 235e 653d 6468 0a3e
00000270: e429 933d de5b db3d 976d 4c3e 6634 2abe
00000280: e32d 463c 5824 0f3e d7f8 4fbe 9164 093e
00000290: 869a 5a3e e1e1 fbbd 5f09 353d 99c8 fcbb
000002a0: 02b2 23be e842 0bbe c40d 24bd 71c2 efbd
000002b0: 9826 60bd 5190 0b3e 939f aa3d ed44 5abe
000002c0: 955a 4dbe ab9e a33d 29ec 42be 1605 24be
000002d0: 7153 08bc 6724 223e b28e a93e 25e5 98bd
000002e0: f280 be3d 668c 853e 7e4a 14be 89aa cdbd
000002f0: 7097 493d 9ce1 06bd 5ec3 8a3e f41e 9c3e
00000300: d0e8 77be a005 393e bf16 213e a154 9cbe
00000310: ecce 9fbe 2f61 f4bc ba8f f1bd 2a1e 29be
00000320: 5f83 38be 90a2 88bb e568 993d f1a8 83bc
00000330: 63fb e33d 2d23 493e 4de6 ef3d abdc 42be
00000340: 1e21 7bbe 2563 1dbe 76e5 bebc 48df 713e
00000350: 8bf4 a3bd ab4a 563d 6503 5d3e 70a1 da3d
00000360: fc9c a5be 994e 82be 9b16 78be cada 3dbe
00000370: 6d08 40be bb0d 94be e510 dfbd a8a5 f93d
00000380: 4df8 4ebd cc51 07be dacb 413e 3e9f 963e
00000390: cd9b 06bf 0705 97be 74d6 3bbd 50ed 24bd
000003a0: 31dd ddbe fd86 27be 7bfd 9fbc f732 6f3e
000003b0: 1408 953e 1041 f3bd 0e68 b53d 63b2 843e
000003c0: b3cb a7be 80b0 5bbe 8cd5 9abd eb09 8c3d
000003d0: b318 2b3e 28ab 9f3e 2206 0bbe 063d 21be
000003e0: 932d 453d 5054 0dbe b1b5 d4be beda 96be
000003f0: e914 c5bc 2e6a 703e e2f0 963e a652 52bc

encoder.2.bias f4 [32]
-0.035646793 0.12627004 0.09213658 0.069343805 0.04671613 0.1014414 0.1163841 0.104084775
0.050970793 -0.014814839 0.13355137 -0.011581507 0.09516158 -0.020495921 0.10229425 0.05814191
-0.005433588 0.0019895965 0.17242128 0.10789244 0.06911059 -0.05900978 0.05027468 -0.05154423
0.22958107 0.10153758 0.07062186 0.1281924 0.20863399 -0.06873412 -0.019280165 0.017803235
00000000: 5f02 12bd ef4c 013e 1ab2 bc3d 2004 8e3d
00000010: 6a59 3f3d 82c0 cf3d c95a ee3d 662a d53d
00000020: c0c6 503d f0b9 72bc b1c1 083e 5cc0 3dbc
00000030: 13e4 c23d 10e7 a7bc a67f d13d 3626 6e3d
00000040: 3d0c b2bb e463 023b 348f 303e b6f6 dc3d
00000050: da89 8d3d 3db4 71bd d3ec 4d3d 0b20 53bd
00000060: 4d17 6b3e eff2 cf3d 32a2 903d de44 033e
00000070: 26a4 553e 79c4 8cbd 70f1 9dbc 17d8 913c

encoder.4.weight f4 [64, 32, 3, 3]
-0.060956683 0.03610457 0.14195265 0.15670922 -0.12120913 0.06886479 -0.25267237 -0.12778102
-0.18375617 0.02762641 0.090312056 -0.2061748 -0.03869754 -0.1219384 0.018129094 0.0038904697
0.09943395 -0.164108 -0.020760635 -0.0111502735 -0.05396335 -0.07356175 0.086584315 0.11435238
0.06280185 0.034201406 -0.06599604 -0.14635512 0.018376406 0.09400897 0.21410127 -0.07101057
-0.18312724 -0.22471361 -0.12975103 -0.036435783 -0.023269154 -0.20705011 0.05140783 0.019520724
0.14427519 -0.0039922823 0.11273694 -0.042640805 0.14714237 0.031156393 0.101177484 -0.09119806
-0.0016931245 -0.17526019 -0.08149583 -0.12474881 -0.0076428503 -0.055532478 -0.0026029928 -0.06743221
-0.058342826 -0.0039684162 0.13003515 0.09378487 0.058208767 0.023790186 -0.16221663 -0.030896349
0.053284463 -0.08630807 -0.073189735 0.077869095 0.0671999 -0.05654207 0.021393895 -0.069972716
-0.11467847 0.04882283 -0.0317136 0.048589993 0.014095825 0.18878022 -0.05123442 -0.01371004
-0.03136734 -0.06920361 0.088910416 0.028221369 -0.075875364 -0.16700807 0.22496563 -0.21924022
0.073969744 -0.050640102 0.0065215686 -0.06898826 -0.09778689 -0.03619129 0.12454316 0.116048574
0.058766324 0.099907696 -0.057893123 -0.05013095 -0.011433901 0.017037109 0.07280968 0.018568855
0.018035458 -0.053155903 0.039558165 0.013275902 -0.112956524 -0.08762368 0.024175815 0.19192332
-0.037716556 -0.14154233 -0.12632664 -0.18257935 0.011357311 0.08032783 -0.025409186 0.10325746
0.15760198 -0.02832899 -0.18270937 0.077599734 -0.28900293 -0.0103548635 -0.03503961 -0.011125607
-0.075446375 -0.045963988 0.026041465 0.056811336 0.04269331 0.051547363 0.058805507 0.016655115
-0.16693743 -0.069478914 -0.031835023 0.05298751 -0.050893918 -0.01873996 -0.02822133 -0.08429751
-0.028470183 0.11537169 -0.17748953 -0.10703416 -0.0065591848 0.08817874 0.067393154 -0.005852936
0.13205782 0.0061471434 0.008943555 0.03733628 -0.022621999 0.0750168 -0.036737744 0.012997439
0.024217475 -0.02732872 0.021692932 0.007825794 -0.12982011 -0.05945438 0.007178202 0.19390164
0.03935462 0.09909491 -0.11757821 -0.020806922 -0.046179917 -0.10762531 0.032587655 0.119787775
0.16504756 0.13067116 -0.09113297 -0.023343662 -0.050553363 0.13533857 0.012478798 0.13569036
-0.23357546 -0.18551348 -0.46072558 -0.2017177 0.08156126 -0.12611465 -0.03502235 0.16434361
0.04871235 -0.13026899 -0.08543725 -0.060178652 0.042382043 -0.21518835 -0.042507425 -0.00094685255
-0.13690539 -0.13594948 -0.38284057 0.193104 -0.013596681 0.22798863 -0.12657508 -0.21378554
-0.06470029 0.11453058 0.1250997 0.008750572 -0.19869407 -0.17537296 -0.09187774 -0.116065785
-0.022518324 -0.09001116 -0.043319557 -0.05411105 0.10834188 0.08403167 0.05502785 0.061722796
-0.06816725 -0.05130432 0.01868083 -0.11197096 0.036372066 0.19522485 -0.21208757 0.04130501
-0.24687502 -0.05350556 -0.045869812 0.036425717 -0.18281242 0.066665575 -0.11122813 0.14581044
0.13655397 0.012386795 -0.0026285385 0.013035148 -0.06911796 -0.030012982 -0.04137158 0.08090949
0.01062484 0.0032054682 -0.07442782 -0.055314917 0.037423793 0.031568624 -0.03664572 -0.031189201
00000000: b7ad 79bd 63e2 133d 095c 113e 6278 203e
00000010: 7e3c f8bd fc08 8d3d 465e 81be 07d9 02be
00000020: 942a 3cbe c850 e23c 87f5 b83d 7d1f 53be
00000030: 5081 1ebd d7ba f9bd 7783 943c 40f7 7e3b
00000040: 07a4 cb3d ed0b 28be 3512 aabc a3af 36bc
00000050: ac08 5dbd 8ba7 96bd 1e53 b13d 9531 ea3d
00000060: 429e 803d c616 0c3d ef28 87bd 1ede 15be
00000070: 1e8a 963c c687 c03d 5d3d 5b3e fd6d 91bd
00000080: b585 3bbe 531b 66be 74dd 04be b03d 15bd
00000090: f49e bebc f204 54be 0491 523d ede9 9f3c
000000a0: e0bc 133e b1d1 82bb a0e2 e63d 20a8 2ebd
000000b0: 7dac 163e b13b ff3c 2436 cf3d 0cc6 babd
000000c0: d5eb ddba 6877 33be 49e7 a6bd 4e7c ffbd
000000d0: e070 fabb 0676 63bd f996 2abb e619 8abd
000000e0: e3f8 6ebd 7d09 82bb ef27 053e 4812 c03d
000000f0: 516c 6e3d a3e3 c23c 1e1c 26be 571a fdbc
00000100: cf40 5a3d 49c2 b0bd 80e4 95bd d579 9f3d
00000110: 1aa0 893d a898 67bd 4042 af3c db4d 8fbd
00000120: 8cdc eabd 73fa 473d 1fe6 01bd 4d06 473d
00000130: 2df2 663c 9a4f 413e 2fdb 51bd 13a0 60bc
00000140: 0a7b 00bd 9fba 8dbd aa16 b63d 8030 e73c
00000150: 8b64 9bbd 2a04 2bbe 645d 663e 8280 60be
00000160: 737d 973d ff6b 4fbd e2b2 d53b b849 8dbd
00000170: 7e44 c8bd 513d 14bd 7c10 ff3d e0aa ed3d
00000180: f5b4 703d 689c cc3d 5721 6dbd 1c56 4dbd
00000190: 4255 3bbc 6891 8b3c 3e1d 953d b61d 983c
000001a0: 19bf 933c 01ba 59bd be07 223d 2b83 593c
000001b0: c055 e7bd 0b74 b3bd 5c0c c63c 8c87 443e
000001c0: ad7c 1abd 79f0 10be c55b 01be 15f6 3abe
000001d0: 0414 3a3c eb82 a43d ed26 d0bc a678 d33d
000001e0: 6a62 213e 3312 e8bc 2a18 3bbe 9cec 9e3d
000001f0: 31f8 93be 72a7 29bc b285 0fbd 2e48 36bc
00000200: a183 9abd bc44 3cbd e954 d53c 01b3 683d
00000210: 2edf 2e3d 5423 533d 0bde 703d 4f70 883c
00000220: a5f1 2abe f64a 8ebd 7165 02bd 6e09 593d
00000230: 2476 50bd 8b84 99bc 6b30 e7bc 2ca4 acbd
00000240: 4d3a e9bc fe47 ec3d d1bf 35be ba34 dbbd
00000250: 6eee d6bb 0e97 b43d 6c05 8a3d fcc9 bfbb
00000260: 2a3a 073e fa6d c93b fd87 123c eded 183d
00000270: c551 b9bc 68a2 993d 517a 16bd 36f3 543c
00000280: ba63 c63c 7be0 dfbc 60b5 b13c c237 003c
00000290: 90ef 04be 7086 73bd 1f37 eb3b 278e 463e
000002a0: 4f32 213d 46f2 ca3d d8cc f0bd 4773 aabc
000002b0: 2727 3dbd a96a dcbd a27a 053d 4b53 f53d
000002c0: 3a02 293e a9ce 053e eca3 babd 353b bfbc
000002d0: 0b11 4fbd 3296 0a3e df73 4c3c 6af2 0a3e
000002e0: 682e 6fbe 3ff7 3dbe 39e4 ebbe 168f 4ebe
000002f0: 9709 a73d 3324 01be 9873 0fbd b149 283e
00000300: 9a86 473d 3c65 05be baf9 aebd e47d 76bd
00000310: cb98 2d3d 565a 5cbe 441c 2ebd 3336 78ba
00000320: ed30 0cbe 5736 0bbe ae03 c4be 0ebd 453e
00000330: 9dc4 5ebc da75 693e e69c 01be 99ea 5abe
00000340: 9681 84bd 028f ea3d 231a 003e 8f5e 0f3c
00000350: 7576 4bbe f894 33be 662a bcbd e6b3 edbd
00000360: 5978 b8bc c557 b8bd d96f 31bd 8ca3 5dbd
00000370: 59e2 dd3d cc18 ac3d e264 613d 0bd1 7c3d
00000380: 459b 8bbd 7b24 52bd 8a08 993c 0851 e5bd
00000390: e0fa 143d 06e9 473e 7c2d 59be 712f 293d
000003a0: cecc 7cbe a528 5bbd fce1 3bbd 2233 153d
000003b0: 2e33 3bbe f687 883d 93cb e3bd 554f 153e
000003c0: ced4 0b3e fcf1 4a3c 8f43 2cbb 6091 553c
000003d0: b88d 8dbd c9dd f5bc 3f75 29bd e0b3 a53d
000003e0: cf13 2e3c d512 523b 9d6d 98bd e591 62bd
000003f0: b149 193d 1a4e 013d d319 16bd 7f80 ffbc

encoder.4.bias f4 [64]
0.0402763 -0.18753894 0.10401246 -0.07295834 0.04975157 -0.1476123 0.076745465 -0.09389068
-0.19971351 0.0014979835 0.12218058 -0.012627754 -0.063861206 -0.17347263 0.13497123 -0.012502374
-0.060542542 0.13016881 0.106042266 0.04569865 0.07531681 0.015987111 -0.11188794 -0.10341948
-0.03315224 0.094224766 0.006046449 -0.013758709 -0.12199011 0.024190428 -0.17101578 0.056092434
0.036827452 -0.034529317 -0.053121354 -0.18831736 0.038242426 -0.09277806 -0.09041243 -0.15036742
-0.034667015 0.007429299 -0.13037908 -0.1702603 -0.019591697 0.06543756 0.010391069 -0.054903906
-0.02342071 -0.033186957 -0.025130127 -0.20981303 -0.15574172 0.11008503 0.13494 0.00013890097
-0.019005412 -0.13389657 0.01968534 -0.1474826 -0.13076782 -0.03262341 0.07670988 -0.14128931
00000000: c3f8 243d 350a 40be 7c04 d53d 2f6b 95bd
00000010: 4dc8 4b3d ae27 17be ba2c 9d3d c249 c0bd
00000020: b381 4cbe fc57 c43a d039 fa3d a4e4 4ebc
00000030: aac9 82bd cfa2 31be e635 0a3e c2d6 4cbc
00000040: 75fb 77bd f94a 053e b02c d93d 822e 3b3d
00000050: b33f 9a3d 67f7 823c 8125 e5bd 98cd d3bd
00000060: a5ca 07bd eaf8 c03d 4a21 c63b 356c 61bc
00000070: f3d5 f9bd 012b c63c c31e 2fbe 2ec1 653d
00000080: 62d8 163d 9d6e 0dbd c795 59bd 44d6 40be
00000090: 17a4 1c3d 6c02 bebd 272a b9bd ebf9 19be
000000a0: 00ff 0dbd 7a71 f33b 1882 05be b758 2ebe
000000b0: c47e a0bc 2104 863d 4d3f 2a3c ebe2 60bd
000000c0: cadc bfbc 0cef 07bd b2dd cdbc 3ad9 56be
000000d0: c27a 1fbe 4374 e13d b62d 0a3e f2a5 1139
000000e0: 3db1 9bbc 2f1c 09be 2643 a13c ae05 17be
000000f0: 00e8 05be 20a0 05bd 121a 9d3d 25ae 10be

decoder.0.weight f4 [64, 32, 3, 3]
0.012400987 0.0032076773 0.0038036196 -0.037770953 0.0060510933 0.02685088 -0.015582364 0.03169091
-0.017207174 0.01576082 0.014789174 0.027809579 0.048828788 -0.027713772 0.020961054 -0.05728662
0.046860088 0.0025714776 -0.0010822538 0.00032597076 -0.05415213 -0.055812508 0.0033401519 -0.049385395
-0.0018242069 -0.019025361 -0.033529706 -0.014180771 0.00019535064 0.05045655 -0.0278596 0.026317455
-0.04260969 0.01575367 0.037972413 0.058463953 0.04553289 -0.012977949 0.045745242 0.02583349
0.020800538 0.040521182 0.022795277 0.032706957 -0.0020019752 -0.007271701 0.0482084 -0.024551403
0.024897808 -0.030696224 -0.04939804 -0.031312495 -0.045536686 0.012040308 0.016997537 0.0565587
0.055071454 -0.05312134 0.009692033 -0.0032933548 -0.029720975 0.005625347 -0.015831642 0.022582639
-0.05693755 0.009529297 -0.023050196 -0.04281054 0.01806801 0.0017687627 -0.052874964 -0.021923112
0.019299401 -0.003396474 0.052631635 -0.0015016571 0.000957183 0.045254033 -0.04448728 0.020185158
-0.056406826 0.058022767 0.016347224 0.011637658 0.053505093 -0.020889418 0.03318135 0.0012516138
0.016138168 0.01775441 0.038216304 0.025829015 0.015612822 0.053177755 -0.04287975 0.044036496
-0.01400884 0.011144217 -0.024608666 -0.024164623 -0.030409506 0.016970113 0.021717645 -0.016137552
0.015645143 -0.016988637 -0.038821265 -0.013226988 0.03004568 0.020088494 -0.053570915 -0.0118365
0.0011532783 0.0389366 -0.010201602 0.0052113524 0.01632948 0.04928291 0.04391056 0.05719307
-0.012770874 -0.05418637 -0.058772307 -0.025299875 -0.0029559974 -0.0012588983 -0.01579397 0.019057155
-0.05389588 0.04029279 -0.03300429 0.058062818 0.021388851 0.011520974 0.041031186 0.05599015
-0.048961185 -0.00280809 0.0048636408 -0.049888354 0.048059482 -0.046019737 -0.03475779 0.03703125
0.055068202 0.05677123 -0.024959244 -0.037201177 -0.034839448 0.03132096 -0.0029333222 -0.016706597
0.02809721 0.026310043 0.05751911 0.055368174 -0.049686506 -0.042164788 0.013912977 0.00019744394
-0.030650362 -0.024107035 -0.026312236 0.00994929 0.058352206 0.02860723 0.055135027 -0.0323774
-0.01884238 0.013492506 0.044984408 -0.037239615 -0.038026087 0.03714727 0.015328374 0.01655996
0.0063108583 -0.038723633 0.035741758 0.041036475 0.026091127 0.03956925 0.0020789846 -0.012140484
0.00720735 0.033145834 -0.05813881 0.05791262 -0.012091144 -0.04943619 0.050511852 0.03081007
0.04703809 0.008370372 0.026102886 0.053886067 0.0009006922 0.04399715 -0.00972509 0.026476461
0.055926964 -0.011566339 -0.04509377 -0.038616277 0.034904405 0.03501959 0.053026017 0.030954493
-0.052756123 -0.056914542 -0.048736334 -0.046548236 0.042502224 -0.0023170651 0.04680938 -0.020871576
0.044919837 0.047753096 0.034807805 -0.05886592 0.021087699 -0.027784264 0.032333896 0.03436497
0.058024928 0.007048379 -0.0124365445 0.04209643 -0.036165986 -0.029824445 -0.018890308 -0.054334354
0.05573936 0.042099595 -0.014359424 0.0075859553 -0.0056065987 0.030188495 -0.028862463 0.038558375
-0.019545145 0.010356148 -0.017973538 -0.010857618 0.04179519 -0.052141137 0.058337778 -0.053705264
-0.024972914 -0.03346875 -0.050962172 0.042957045 0.026409518 0.03381413 0.0092452625 -0.025817951
00000000: 822d 4b3c e537 523b 2646 793b b7b5 1abd
00000010: 4048 c63b 60f6 db3c 2c4d 7fbc 54ce 013d
00000020: 0ff6 8cbc d61c 813c 4b4e 723c ead0 e33c
00000030: b200 483d fe07 e3bc 84b6 ab3c 60a5 6abd
00000040: 5df0 3f3d 3c86 283b 69da 8dba 0ee7 aa39
00000050: a0ce 5dbd a89b 64bd 73e6 5a3b 5748 4abd
00000060: 3a1a efba 13db 9bbc 7256 09bd 7756 68bc
00000070: 0ad7 4c39 87ab 4e3d d139 e4bc b497 d73c
00000080: 8087 2ebd d70d 813c f688 1b3d e677 6f3d
00000090: b280 3a3d 77a1 54bc 5d5f 3b3d c1a0 d33c
000000a0: e465 aa3c 8af9 253d 29bd ba3c bbf7 053d
000000b0: 9233 03bb 7347 eebb 2c76 453d 0620 c9bc
000000c0: 7df6 cb3c a676 fbbc 9955 4abd 8841 00bd
000000d0: ad84 3abd b644 453c 6b3e 8b3c 18aa 673d
000000e0: 9b92 613d c395 59bd 55cb 1e3c 53d5 57bb
000000f0: 6779 f3bc d554 b83b 5cb1 81bc 3aff b83c
00000100: 5937 69bd c520 1c3c c4d3 bcbc 1b5a 2fbd
00000110: 5d03 943c d4d5 e73a 6b93 58bd 1998 b3bc
00000120: c719 9e3c 6197 5ebb 4594 573d 40d3 c4ba
00000130: 77eb 7a3a 4b5c 393d 4b38 36bd 585b a53c
00000140: d80a 67bd 48a9 6d3d 9dea 853c e0ab 3e3c
00000150: 2828 5b3d 4920 abbc 2be9 073d 310d a43a
00000160: 3134 843c b271 913c b388 1c3d 5f97 d33c
00000170: eccc 7f3c ebd0 593d ada2 2fbd 9d5f 343d
00000180: 5585 65bc 3c96 363c 1d98 c9bc e3f4 c5bc
00000190: 5b1d f9bc e804 8b3c 34e9 b13c e632 84bc
000001a0: 3e2a 803c c12b 8bbc 0c03 1fbd 02b6 58bc
000001b0: 5c22 f63c a090 a43c 2d6d 5bbd e1ed 41bc
000001c0: 9929 973a fc7b 1f3d 9f24 27bc fec3 aa3b
000001d0: 67c5 853c e0dc 493d 8fdb 333d 4843 6a3d
000001e0: ee3c 51bc 87f2 5dbd 3bbb 70bd af41 cfbc
000001f0: 68b9 41bb 9e01 a5ba 5b62 81bc c01d 9c3c
00000200: edc1 5cbd 0d0a 253d 822f 07bd 47d3 6d3d
00000210: ac37 af3c 78c2 3c3c 5110 283d ed55 653d
00000220: 868b 48bd ef07 38bb 2d5f 9f3b bb57 4cbd
00000230: 05da 443d 317f 3cbd 2f5e 0ebd 14ae 173d
00000240: 328f 613d f388 683d 5477 ccbc 4360 18bd
00000250: cfb3 0ebd 684a 003d fb3c 40bb 46dc 88bc
00000260: 1f2c e63c 2988 d73c 2999 6b3d bdc9 623d
00000270: 1484 4bbd fcb4 2cbd 41f3 633c f408 4f39
00000280: 7816 fbbc 1e7c c5bc c28c d7bc 5902 233c
00000290: b902 6f3d b659 ea3c 44d5 613d 2a9e 04bd
000002a0: 565b 9abc ac0f 5d3c 9241 383d 9188 18bd
000002b0: 3ec1 1bbd bc27 183d dc23 7b3c c1a8 873c
000002c0: 51cb ce3b ac9c 1ebd f365 123d dd15 283d
000002d0: 0fbd d53c 5e13 223d 933f 083b e1e8 46bc
000002e0: a22b ec3b edc3 073d f622 6ebd c935 6d3d
000002f0: ef19 46bc 9a7d 4abd 84e5 4e3d 6665 fc3c
00000300: 03ab 403d e223 093c b8d5 d53c a3b7 5c3d
00000310: 6e1c 6c3a 5b36 343d fc55 1fbc 2ae5 d83c
00000320: ac13 653d be80 3dbc 3fb4 38bd 1a2c 1ebd
00000330: ecf7 0e3d b470 0f3d cf31 593d 4794 fd3c
00000340: ce16 58bd 391f 69bd c09f 47bd 5da9 3ebd
00000350: d016 2e3d e7d9 17bb 31bb 3f3d defa aabc
00000360: ddfd 373d c098 433d a192 0e3d 641d 71bd
00000370: 1cc0 ac3c d39b e3bc 8c70 043d 48c2 0c3d
00000380: 8cab 6d3d 17f6 e63b a6c2 4bbc 4e6d 2c3d
00000390: c922 14bd 6552 f4bc d9bf 9abc b38d 5ebd
000003a0: f54e 643d a070 2c3d ca43 6bbc 9b93 f83b
000003b0: 8fb7 b7bb dd4d f73c f970 ecbc 63ef 1d3d
000003c0: 241d a0bc d5ac 293c 3e3d 93bc 27e4 31bc
000003d0: 6f31 2b3d f291 55bd 98f3 6e3d 0dfa 5bbd
000003e0: ff93 ccbc 8716 09bd b6bd 50bd baf3 2f3d
000003f0: c658 d83c af80 0a3d 7179 173c 2b80 d3bc

decoder.0.bias f4 [32]
0.04810156 -0.014725596 0.041249122 -0.056401644 -0.034160696 -0.01559281 -0.05687704 -0.031904545
-0.03262621 0.0369247 0.056619197 -0.022722693 0.01284919 0.034797978 -0.058763314 0.057957515
0.026617238 0.020832282 -0.019376775 -0.023964867 0.022814883 -0.051902454 0.044535436 -0.018801013
-0.030825524 -0.042072523 0.051599883 0.012880786 -0.018640883 -0.035222754 -0.054092593 -0.030638125
00000000: 2406 453d a043 71bc d7f4 283d 6905 67bd
00000010: 16ec 0bbd fc78 7fbc e6f7 68bd 57ae 02bd
00000020: 10a3 05bd 5b3e 173d 88e9 673d f124 babc
00000030: 6985 523c 5388 0e3d cdb1 70bd dc64 6d3d
00000040: 650c da3c 76a8 aa3c 0bbc 9ebc f851 c4bc
00000050: 47e6 ba3c ab97 54bd ca6a 363d 9504 9abc
00000060: cf85 fcbc 3d54 2cbd 665a 533d ef09 533c
00000070: c4b4 98bc bc45 10bd 3290 5dbd cefc fabc

decoder.2.weight f4 [32, 16, 3, 3]
-0.017798504 0.06615018 -0.031143498 -0.022957057 0.008554807 -0.07150528 -0.04200097 -0.014072686
-0.06649755 0.03182181 -0.020065218 -0.020136168 0.025088381 -0.020257732 0.0017019908 0.020982873
0.0355122 -0.081886165 -0.07959138 -0.021110734 0.026865533 0.015050381 0.07093857 0.008363118
0.04395911 0.026381632 0.047143668 -0.031127255 0.034819566 -0.022651922 -0.026327174 -0.03714505
0.023493698 0.08049633 0.05830127 -0.028602224 0.031994373 -0.06431523 0.047340553 -0.060105335
0.043192208 -0.076701656 -0.049494904 -0.07164224 -0.013588071 0.043100666 -0.03149302 -0.014554581
0.04031699 -0.012721757 -0.08227442 -0.023469072 0.019231668 0.029613316 0.017746061 -0.06704861
-0.058168948 0.056627214 0.03308667 0.06272556 -0.07819208 0.021601032 0.03584429 0.075623766
-0.011986166 -0.070239864 0.06672612 0.025942942 0.0030050874 0.017925322 0.012223671 -0.0320934
-0.051067412 -0.004190912 0.067167625 -0.045592032 -0.023240378 0.018772444 -0.050752304 0.019094488
-0.0643246 -0.051130634 0.06712016 0.012598425 0.034858823 0.0062511964 0.051234655 0.0064682765
0.052055996 0.01183943 -0.009159258 -0.025006562 0.020735275 -0.021078458 0.05461838 -0.021028867
-0.0010071 -0.042571515 -0.061897308 0.018505316 -0.025617551 0.054688476 -0.07559307 -0.05483701
0.079482675 -0.006894976 -0.071305335 -0.056430966 0.0023559332 0.043253303 -0.06660424 -0.062179714
-0.036634576 -0.05111908 -0.037513703 -0.044369888 -0.07794037 0.017301997 -0.007442971 -0.054030966
-0.06464639 0.021386754 -0.07309595 -0.024773996 0.003781706 0.016671112 0.020179769 -0.053354584
-0.02657496 -0.030315787 -0.04399153 -0.011213988 -0.009343386 0.03475248 0.016948462 -0.035217565
0.08116637 0.04574459 0.018116474 0.06676163 0.065410614 -0.042285435 -0.021451473 -0.027364066
0.06415442 0.039289057 -0.0015676817 0.034601837 -0.053978395 -0.04256799 0.033971816 -0.053480726
0.026945155 -0.035877448 -0.042189907 -0.06885727 -0.021554213 0.025728077 0.034062903 -0.025759876
-0.033626698 0.048674524 -0.017647376 0.007611811 0.04177379 0.013414423 0.06412563 -0.06692478
-0.010430327 0.026429892 0.012647361 -0.07434901 -0.063163474 0.01744626 0.0023493469 0.03261293
-0.062166374 -0.039980344 -0.011335979 0.07845253 0.05492615 -0.010302147 -0.07466771 0.02703028
0.060942244 -0.010651907 -0.0014208357 0.0663349 -0.05282238 0.0338073 0.050983083 0.049833268
-0.0012912949 -0.015354316 0.03868431 -0.027008098 -0.062297188 -0.0632751 -0.0040782792 -0.03052505
-0.037719846 0.016012978 0.065614775 0.067478836 0.08169173 0.043696027 -0.029075604 -0.08234706
0.04858064 1.2209019e-05 0.062184505 -0.06236459 -0.06511934 0.04622355 0.004718741 0.078784734
0.06220744 0.0065389774 0.024015903 -0.018534016 -0.019606372 0.060816 -0.015117049 -0.011430383
-0.055852056 0.0060008965 0.023419052 -0.080202 -0.06419928 -0.017173301 -0.07340205 0.042270295
0.00033738217 0.08137716 -0.017009567 -0.07844664 0.067869745 0.016898762 -0.06498426 -0.024641445
0.031557173 0.06564557 -0.0340891 0.03579607 -0.0030186675 -0.05307257 -0.065798104 -0.02816107
0.0055223606 0.05693149 -0.066985935 0.038084 -0.055686098 -0.0066060126 0.08013674 -0.05330663
00000000: 2bce 91bc bf79 873d a620 ffbc 7010 bcbc
00000010: 7629 0c3c 5c71 92bd 3609 2cbd 2091 66bc
00000020: de2f 88bd 9657 023d d05f a4bc 9bf4 a4bc
00000030: 2686 cd3c 8bf3 a5bc 5615 df3a 46e4 ab3c
00000040: 3e75 113d efb3 a7bd ce00 a3bd 6bf0 acbc
00000050: 1b15 dc3c e095 763c 3e48 913d 7605 093c
00000060: 780e 343d 4b1e d83c b819 413d 96fe febc
00000070: f69e 0e3d 8690 b9bc 16ac d7bc 6825 18bd
00000080: db75 c03c 43db a43d 50cd 6e3d 364f eabc
00000090: 880c 033d b4b7 83bd 2be8 413d 0331 76bd
000000a0: 50ea 303d c215 9dbd 2bbb 4abd 2bb9 92bd
000000b0: 80a0 5ebc 538a 303d d3fe 00bd 5676 6ebc
000000c0: 6e23 253d eb6e 50bc 7e7f a8bd 3642 c0bc
000000d0: bb8b 9d3c a097 f23c 3060 913c c850 89bd
000000e0: 9042 6ebd f0f1 673d e385 073d 4276 803d
000000f0: 2b23 a0bd a6f4 b03c 76d1 123d a2e0 9a3d
00000100: a061 44bc ebd9 8fbd b4a7 883d 4b86 d43c
00000110: 00f1 443b 20d8 923c cb45 483c 5e74 03bd
00000120: 102c 51bd eb53 89bb 2e8f 893d b6be 3abd
00000130: 9b62 bebc abc8 993c a6e1 4fbd 0b6c 9c3c
00000140: 9ebc 83bd 5b6e 51bd 4b76 893d a069 4e3c
00000150: 20c8 0e3d d6d6 cc3b 6edb 513d d6f3 d33b
00000160: ab38 553d 2bfa 413c b610 16bc 90da ccbc
00000170: 06dd a93c bbac acbc 86b7 5f3d bb44 acbc
00000180: ab00 84ba 785f 2ebd 0888 7dbd 7698 973c
00000190: e6db d1bc 0601 603d 8ad0 9abd c69c 60bd
000001a0: d0c7 a23d 40ef e1bb 8808 92bd 2824 67bd
000001b0: 0066 1a3b 602a 313d ce67 88bd 28b0 7ebd
000001c0: 230e 16bd 3e62 51bd f8a7 19bd 33bd 35bd
000001d0: 339f 9fbd ebbc 8d3c 2be4 f3bb 934f 5dbd
000001e0: 5465 84bd 4633 af3c 54b3 95bd d6f2 cabc
000001f0: 80d6 773b db91 883c 0b50 a53c 568a 5abd
00000200: bbb3 d9bc d058 f8bc 7630 34bd e0ba 37bc
00000210: 0015 19bc 9e58 0e3d 80d7 8a3c 4b40 10bd
00000220: 8e3a a63d ae5e 3b3d 0069 943c 52ba 883d
00000230: 00f6 853d 7e33 2dbd 00bb afbc 9b2a e0bc
00000240: 6463 833d 90ed 203d ab7a cdba a8ba 0d3d
00000250: 7318 5dbd c65b 2ebd 0826 0b3d 9b0e 5bbd
00000260: 16bc dc3c 3bf4 12bd 53cf 2cbd 0a05 8dbd
00000270: 7692 b0bc b0c3 d23c 8b85 0b3d 6006 d3bc
00000280: 26bc 09bd f05e 473d 3b91 90bc 806c f93b
00000290: fe1a 2b3d 2bc8 5b3c 4c54 833d dc0f 89bd
000002a0: f6e3 2abc 8083 d83c e036 4f3c 4b44 98bd
000002b0: da5b 81bd 76eb 8e3c 80f7 193b 2395 053d
000002c0: 2ba2 7ebd 6ec2 23bd 8bba 39bc b8ab a03d
000002d0: 3efa 603d 56ca 28bc 62eb 98bd 9b6e dd3c
000002e0: 939e 793d 5685 2ebc 563b baba 98da 873d
000002f0: 485c 58bd 8679 0a3d a3d3 503d f81d 4c3d
00000300: ab40 a9ba ab90 7bbc 7073 1e3d 1640 ddbc
00000310: 562b 7fbd 6096 81bd 16a3 85bb ab0f fabc
00000320: 2080 1abd a62d 833c 0a61 863d 5832 8a3d
00000330: fe4d a73d 9bfa 323d f62f eebc 93a5 a8bd
00000340: 7efc 463d 56d5 4c37 2eb5 7e3d 0372 7fbd
00000350: 4a5d 85bd e854 3d3d ab9f 9a3b e459 a13d
00000360: 3bcd 7e3d eb44 d63b 00bd c43c a6d4 97bc
00000370: 8b9d a0bc 331a 793d 80ad 77bc 8046 3bbc
00000380: 20c5 64bd 2ba3 c43b 50d9 bf3c f240 a4bd
00000390: ea7a 83bd 06af 8cbc d053 96bd 9e23 2d3d
000003a0: abe2 b039 12a9 a63d a657 8bbc a2a8 a0bd
000003b0: 4bff 8a3d 466f 8a3c 7816 85bd dbdc c9bc
000003c0: 1842 013d 2f71 863d 03a1 0bbd e69e 123d
000003d0: d6d4 45bb a062 59bd 28c1 86bd 0bb2 e6bc
000003e0: ebf4 b43b fe30 693d ec2f 89bd f8fd 1b3d
000003f0: 1b17 64bd 4077 d8bb bb1e a43d 0e58 5abd

decoder.2.bias f4 [16]
-0.013471067 0.04842055 0.07346346 0.0490701 0.023980837 -0.03800291 -0.05366063 0.033870272
0.07189482 0.026536196 -0.027059406 0.041709267 0.055531126 0.07027824 0.081817314 0.02601133
00000000: c0b5 5cbc a054 463d 0374 963d bbfd 483d
00000010: 7673 c43c f0a8 1bbd 40cb 5bbd 8ebb 0a3d
00000020: 973d 933d 7062 d93c b0ab ddbc 56d7 2a3d
00000030: 9b74 633d 0aee 8f3d d68f a73d b615 d53c

decoder.4.weight f4 [16, 1, 3, 3]
-0.22049555 0.27904603 -0.21971652 0.07089432 -0.13300252 0.078832865 -0.24455795 -0.15428767
-0.05070349 0.19037275 0.24605088 -0.14539993 0.11123534 0.33286643 0.025498748 0.22257611
-0.17607836 0.10961823 -0.03397759 0.06154573 0.0011776686 0.026382726 -0.26701933 0.10187837
0.18157074 -0.18469477 0.27788097 -0.13210094 -0.033233248 0.2292866 -0.16223244 0.11549505
0.33038622 0.079024516 -0.023847342 -0.19061363 -0.030653 0.021119278 0.32363912 -0.21738124
0.30644366 0.10879652 -0.30282903 0.25503123 0.0014025371 -0.17237997 -0.06249746 0.31565282
0.047505897 0.21601503 -0.114536844 0.16148102 0.27991125 0.048829317 0.2539161 0.22828183
-0.06786513 0.15901244 -0.1711673 -0.097822666 -0.23989372 -0.051760755 0.13622348 -0.2969302
-0.30287802 0.24032128 -0.16642821 -0.14473383 -0.2797467 0.07783171 0.3122482 0.28477988
0.17062625 -0.27549157 -0.003962239 0.13768539 0.080279395 0.22857341 -0.28568992 0.33038658
0.28182754 -0.022888621 -0.24216942 0.12257918 -0.19507846 -0.17493269 -0.06915121 0.14594118
-0.2809767 0.03853528 -0.26802945 0.13499126 0.1981107 0.1329261 -0.023578644 0.044247627
-0.24527764 0.29114494 0.08414459 0.102204084 -0.29487368 0.19787022 -0.15596497 -0.037117362
0.24422774 0.018027902 0.08982973 -0.28443527 0.03532263 0.11938512 0.008641005 -0.19153135
0.31197262 0.26193714 0.066324875 -0.09775933 -0.28025335 0.22256553 0.28045392 -0.063141346
0.14840698 0.09137623 0.08944297 -0.12571971 -0.2965293 0.2644069 0.32375556 0.27654988
0.008155584 -0.24674444 -0.08829749 -0.26651904 0.07723963 0.10587188 -0.15178308 -0.022255223
-0.13124387 -0.33267307 -0.0672373 0.20587203 -0.12557778 -0.12033558 -0.20138654 0.23741941
00000000: 96c9 61be 1fdf 8e3e 5efd 60be 0b31 913d
00000010: d031 08be 2073 a13d 666d 7abe 96fd 1dbe
00000020: 76ae 4fbd 13f1 423e c3f4 7b3e b8e3 14be
00000030: 5bcf e33d 786d aa3e c0e2 d03c feea 633e
00000040: e34d 34be 867f e03d 162c 0bbd 6017 7c3d
00000050: 005c 9a3a 9620 d83c c2b6 88be 9ba5 d03d
00000060: aeed 393e a020 3dbe 6a46 8e3e 7845 07be
00000070: 961f 08bd 1bca 6a3e 4320 26be ab88 ec3d
00000080: 6228 a93e 9bd7 a13d 805b c3bc 3830 43be
00000090: 001c fbbc 5602 ad3c 07b4 a53e 3099 5ebe
000000a0: 2fe6 9c3e b6d0 de3d 680c 9bbe 7493 823e
000000b0: 56d5 b73a 6084 30be 56fd 7fbd 3f9d a13e
000000c0: 8b95 423d 0b33 5d3e 4b92 eabd 485b 253e
000000d0: 8750 8f3e 4001 483d 4b01 823e b6c2 693e
000000e0: e0fc 8abd 28d4 223e 7b46 2fbe 4057 c8bd
000000f0: b3a6 75be 1603 54bd 2b7e 0b3e 3c07 98be
00000100: d412 9bbe c816 763e 286c 2abe 1b35 14be
00000110: f63a 8fbe 3b66 9f3d ffde 9f3e abce 913e
00000120: a6b8 2e3e 3b0d 8dbe abd5 81bb 66fd 0c3e
00000130: 8669 a43d 260f 6a3e f345 92be 6e28 a93e
00000140: b34b 903e eb80 bbbc 43fb 77be cb0a fb3d
00000150: a6c2 47be 8e21 33be 269f 8dbd 9b71 153e
00000160: 2edc 8fbe 2bd7 1d3d 283b 89be 263b 0a3e
00000170: 88dd 4a3e c81d 083e 0028 c1bc 003d 353d
00000180: 102a 7bbe f310 953e 0054 ac3d 6050 d13d
00000190: aff9 96be 7e9e 4a3e 48b5 1fbe 6008 18bd
000001a0: d616 7a3e 40af 933c a6f8 b73d 80a1 91be
000001b0: 76ae 103d 3080 f43d 0093 0d3c cb20 44be
000001c0: e0ba 9f3e a01c 863e 56d5 873d 0b36 c8bd
000001d0: 5e7d 8fbe 38e8 633e a897 8f3e 4050 81bd
000001e0: 00f8 173e 7623 bb3d e02d b73d abbc 00be
000001f0: b0d2 97be 5760 873e 4ac3 a53e f297 8d3e
00000200: 009f 053c 93aa 7cbe 50d5 b4bd 2f75 88be
00000210: d02f 9e3d 5bd3 d83d 066d 1bbe 9650 b6bc
00000220: cb64 06be 2054 aabe b6b3 89bd 1ed0 523e
00000230: 7697 00be 8072 f6bd 4638 4ebe 131e 733e

classifier.1.weight f4 [128, 1024]
0.14209129 -0.014902812 -0.12502302 0.0070797605 -0.22579625 -0.023791796 0.13167804 -0.018612087
-0.19069797 -0.052299924 0.14265694 -0.05670393 0.07930376 0.1611776 0.035247795 -0.00020214141
-0.2184888 -0.05085146 0.07601362 -0.039813686 -0.00265024 0.112074934 0.029286344 -0.06357916
0.010100135 -0.083761275 -0.06369233 0.052169554 -0.017292889 -0.35355198 -0.043791153 0.03582514
-0.0029046389 0.036495883 -0.20473796 0.085152104 -0.050628584 0.14868234 0.12590966 0.121178865
0.057897344 -0.017076531 -0.056060918 0.062237885 0.040236503 0.09852844 0.08188087 0.038646318
0.1477212 0.083163954 0.12699898 0.11740654 -0.12140319 0.010163801 -0.22720122 -0.037363462
0.12978493 -0.055301916 0.05303727 0.0702897 -0.05558046 -0.091901496 0.14112413 -0.03809015
0.2044889 -0.014072093 0.16177884 -0.00043461146 -0.054311458 -0.1834025 0.13583519 -0.031360786
-0.08356427 -0.23727904 -0.17096719 0.14176817 0.06628467 0.11203755 0.017610801 -0.07818118
-0.071950704 -0.28959304 -0.052380547 -0.05358329 -0.10459915 0.10830146 0.1547168 -0.021740051
-0.0025422852 0.06097722 0.030801084 0.0014029492 -0.1365283 -0.18301253 0.036783084 -0.008928795
0.009596567 -0.08143014 -0.16395417 -0.07979739 -0.05408951 0.14246982 -0.014206969 -0.20472722
-0.025258414 -0.011192506 -0.11698741 -0.13501024 0.072943665 0.14043212 0.04544732 -0.0694683
0.06295935 0.036543146 0.052900724 0.068086006 0.012980865 0.15823734 -0.24009828 -0.058935363
0.06559706 -0.032443482 -0.004440262 0.058608703 -0.13948262 -0.15578596 -0.12518294 -0.06064639
-0.1392818 -0.15325755 0.0205472 0.14764218 -0.0092239175 0.2253363 0.1455046 0.006777996
-0.068274714 0.13462703 -0.19135183 0.023652844 -0.10255968 -0.16581221 -0.18677728 -0.063892126
0.057147034 -0.03395277 -0.0045498833 0.009960357 -0.037770554 0.017764915 0.041893687 0.014054567
0.003359152 -0.017653795 0.067425616 -0.0036158739 0.057543844 -0.3318564 -0.10469817 -0.031264506
-0.030310059 0.028158417 -0.18872504 -0.14515547 -0.037913885 -0.012843529 -0.03506869 -0.07155189
0.0013144603 -0.040668033 -0.0066054873 0.028062565 -0.0030492437 0.060006764 -0.16729826 -0.11720455
-0.014773683 0.34929845 0.06792062 -0.006042811 0.04346915 -0.029976727 0.097655244 -0.0289045
0.18268386 -0.044209313 -0.048310634 0.056224324 -0.27519444 0.050913017 0.033033848 0.1306581
-0.14146242 -0.13721521 0.08015167 0.008488725 -0.11910478 -0.028278721 0.059627373 -0.007812951
-0.019908039 -0.06217366 -0.071152456 -0.10894107 0.026666438 -0.029493937 0.11017751 -0.053359725
-0.13887908 0.04752355 0.06296756 0.04451979 -0.025190674 0.18230379 -0.03899139 -0.00034520045
0.101081066 -0.04279407 -0.08722689 -0.10203169 -0.1857829 -0.17723344 0.13344347 -0.011052896
0.0304344 0.079670146 -0.07353403 0.0044275005 -0.008313433 0.012333075 0.10376108 0.0012459682
0.11644545 -0.109290585 -0.050332125 0.06728911 -0.081052676 0.10328963 -0.0020658104 -0.0026272107
0.17674245 0.09486074 -0.13047694 -0.060363058 -0.060075063 0.035717394 0.15454113 0.11680176
-0.18414654 -0.039385833 0.071487285 -0.03950581 0.004928114 0.13629815 0.10494463 0.07860966
00000000: 6180 113e ed2a 74bc 0906 00be 56fd e73b
00000010: 2237 67be 03e7 c2bc 9cd6 063e 6078 98bc
00000020: 5446 43be 7238 56bd a914 123e 6142 68bd
00000030: 026a a23d be0b 253e fe5f 103d ecf5 53b9
00000040: 87bb 5fbe 9f49 50bd 07ad 9b3d ad13 23bd
00000050: a6af 2dbb 8b87 e53d eae9 ef3c ca35 82bd
00000060: 097b 253c 088b abbd 2071 82bd beaf 553d
00000070: d1a9 8dbc c404 b5be 5a5e 33bd 62bd 123d
00000080: c15b 3ebb b57c 153d d4a6 51be 3a64 ae3d
00000090: eb5f 4fbd 2f40 183e 76ee 003e a02c f83d
000000a0: c425 6d3d 15e4 8bbc 22a0 65bd 27ed 7e3d
000000b0: 08cf 243d 47c9 c93d 28b1 a73d 9a4b 1e3d
000000c0: 3a44 173e dd51 aa3d 050c 023e d772 f03d
000000d0: 3ca2 f8bd 1286 263c 70a7 68be 6e0a 19bd
000000e0: 57e6 043e 4384 62bd 9c3d 593d 0cf4 8f3d
000000f0: 56a8 63bd da36 bcbd d882 103e 6b04 1cbd
00000100: 8a65 513e a38e 66bc 5aa9 253e 90dc e3b9
00000110: b175 5ebd ddcd 3bbe 6118 0b3e 2b74 00bd
00000120: be23 abbd 47f9 72be 0612 2fbe ad2b 113e
00000130: 42c0 873d f173 e53d 8744 903c 741d a0bd
00000140: e45a 93bd 8a45 94be fc8c 56bd 277a 5bbd
00000150: 1438 d6bd 28cd dd3d 156e 1e3e 3118 b2bc
00000160: 789c 26bb 40c3 793d 8e52 fc3c 2ae3 b73a
00000170: 13ce 0bbe a367 3bbe dca9 163d 154a 12bc
00000180: eb3a 1d3c d8c4 a6bd 9ae3 27be d06c a3bd
00000190: f68c 5dbd 9ce3 113e 59c4 68bc 03a4 51be
000001a0: bcea cebc c660 37bc 1897 efbd 2040 0abe
000001b0: 7d63 953d 70cd 0f3e f826 3a3d 6545 8ebd
000001c0: d5f0 803d 44ae 153d 6eae 583d ad70 8b3d
000001d0: b2ad 543c f808 223e 53dc 75be 3566 71bd
000001e0: c057 863d 75e3 04bd 9e7f 91bb ae0f 703d
000001f0: 88d4 0ebe 5b86 1fbe f52f 00be 5968 78bd
00000200: e39f 0ebe 8cef 1cbe 9a52 a83c 832f 173e
00000210: ea1f 17bc 8fbe 663e 28ff 143e f419 de3b
00000220: 9dd3 8bbd abdb 093e bcf1 43be 9cc3 c13c
00000230: cf0a d2bd adca 29be 8b42 3fbe e0d9 82bd
00000240: 0213 6a3d 0f12 0bbd 3017 95bb c430 233c
00000250: 4cb5 1abd ba87 913c b798 2b3d 2045 663c
00000260: 3825 5c3b b19e 90bc 7116 8a3d 4cf8 6cbb
00000270: 18b3 6b3d 15e9 a9be ff6b d6bd 360f 00bd
00000280: cd4c f8bc 7bac e63c 2341 41be a3a3 14be
00000290: 974b 1bbd aa6d 52bc 30a4 0fbd cc89 92bd
000002a0: f849 ac3a 8693 26bd d872 d8bb 77e3 e53c
000002b0: d2d5 47bb a7c9 753d 3c50 2bbe f008 f0bd
000002c0: 510d 72bc 3fd7 b23e f719 8b3d c602 c6bb
000002d0: b50c 323d c191 f5bc 79ff c73d 21c9 ecbc
000002e0: 7a11 3b3e d314 35bd 5fe1 45bd 7a4b 663d
000002f0: 49e6 8cbe 2b8a 503d 804e 073d 3dcb 053e
00000300: 86db 10be 2582 0cbe 8f26 a43d 4b14 0b3c
00000310: 35ed f3bd c7a8 e7bc d53b 743d e401 00bc
00000320: 2f16 a3bc cfa9 7ebd 61b8 91bd 7f1c dfbd
00000330: 9373 da3c 459d f1bc bfa4 e13d ba8f 5abd
00000340: 5136 0ebe 0ea8 423d 23f5 803d 625a 363d
00000350: ac5c cebc d8ad 3a3e 70b5 1fbd 05fc b4b9
00000360: 9703 cf3d d648 2fbd 03a4 b2bd fef5 d0bd
00000370: df3d 3ebe af7c 35be 68a5 083e 3517 35bc
00000380: 9051 f93c 1a2a a33d 0299 96bd 9114 913b
00000390: 1135 08bc aa10 4a3c b080 d43d c14f a33a
000003a0: f47a ee3d bed3 dfbd 0f29 4ebd dfce 893d
000003b0: f2fe a5bd 8389 d33d 8c62 07bb 482d 2cbb
000003c0: f9fb 343e 5946 c23d bf9b 05be 413f 77bd
000003d0: 4511 76bd 674c 123d 0840 1e3e c335 ef3d
000003e0: e990 3cbe 0a53 21bd ed67 923d d8d0 21bd
000003f0: 047c a13b be91 0b3e 36ed d63d 1afe a03d

classifier.1.bias f4 [128]
-0.01226975 -0.011924785 -0.0092462655 -0.034858335 -0.057113953 0.024070293 -0.07846902 -0.042772524
0.086151645 -0.017653063 0.054213107 -0.024862748 0.046419732 -0.09167417 -0.0048661833 -0.05469274
-0.102903046 0.026176808 0.049797032 -0.056751512 -0.0627971 0.16223629 -0.025544006 -0.019040355
-0.0064992965 -0.058697958 -0.0093442025 0.056977537 -0.048843198 -0.06919868 -0.016317355 0.022374233
-0.05654748 -0.075170845 0.07836804 0.10862192 -0.035120696 0.03317156 0.08170622 0.018921662
0.031983864 -0.044509165 -0.030334918 0.017695187 -0.024175208 0.043633666 -0.104100406 -0.04791955
-0.039592333 0.086424045 -0.027294869 0.054417465 -0.031119887 -0.021315256 -0.070184514 0.07821819
0.07735351 -0.08849956 -0.007571178 0.011143967 -0.03622198 0.009486629 0.008377938 -0.053498317
0.0497344 0.049314383 -0.031006716 -0.03375176 0.08796142 0.026794586 0.08239971 -0.06908202
0.019564621 -0.021860296 -0.014740481 0.07658615 0.02075093 -0.020152904 -0.07207741 -0.050381884
0.07689101 0.002353441 -0.0053085443 -0.044622887 -0.013037801 -0.012759515 -0.030586956 0.050313875
0.086019136 -0.029292878 0.13516328 -0.013094153 -0.11095147 -0.17304663 -0.010673141 -0.04046164
0.0047872555 0.062033817 0.010853709 -0.043308362 -0.018669277 -0.025929995 -0.010663287 0.045519345
-0.0027516321 0.018597877 -0.040012978 -0.027720558 -0.0465627 -0.062546656 -0.062542394 -0.013462082
-0.011117017 0.022877218 0.07748783 0.021058833 0.1285929 -0.032254267 -0.03344529 -0.013220903
-0.04247542 0.12411446 0.019370997 -0.0048140837 -0.03772652 0.0032621534 0.03538529 0.07556214
00000000: 1007 49bc 2c60 43bc a67d 17bc 9dc7 0ebd
00000010: 52f0 69bd 102f c53c 5eb4 a0bd 3e32 2fbd
00000020: 4670 b03d 289d 90bc 900e 5e3d f6ac cbbc
00000030: 9e22 3e3d abbf bbbd 8174 9fbb 7f05 60bd
00000040: d5be d2bd bf70 d63c f9f7 4b3d 4674 68bd
00000050: c49b 80bd 4521 263e aa41 d1bc 85fa 9bbc
00000060: 0df8 d4bb 456d 70bd 6d18 19bc 4761 693d
00000070: ce0f 48bd 0ab8 8dbd f9ab 85bc 2b4a b73c
00000080: 559e 67bd 2cf3 99bd 6c7f a03d 2b75 de3d
00000090: b8da 0fbd e7de 073d 9755 a73d 9a01 9b3c
000000a0: 8301 033d 3e4f 36bd ef80 f8bc 7ff5 903c
000000b0: 160b c6bc 37b9 323d 9832 d5bd 4a47 44bd
000000c0: 922b 22bd 17ff b03d 7d99 dfbc d9e4 5e3d
000000d0: 22ef febc 559d aebc e6bc 8fbd dc30 a03d
000000e0: 846b 9e3d 423f b5bd a517 f8bb 2f95 363c
000000f0: 805d 14bd ce6d 1b3c 9e43 093c 0d21 5bbd
00000100: 4cb6 4b3d e1fd 493d cc01 febc 493f 0abd
00000110: 1e25 b43d 5280 db3c 2ec1 a83d e07a 8dbd
00000120: fc45 a03c 5d14 b3bc 0f82 71bc 33d9 9c3d
00000130: dbfd a93c b417 a5bc 529d 93bd 3c5d 4ebd
00000140: 0979 9d3d 303c 1a3b 4cf3 adbb 7dc6 36bd
00000150: 809c 55bc 490d 51bc 7f91 fabc ec15 4e3d
00000160: cd2a b03d 9ef7 efbc 3e68 0a3e dc88 56bc
00000170: 863a e3bd 2333 31be 66de 2ebc 1bbb 25bd
00000180: 69de 9c3b 2c17 7e3d c1d3 313c 1c64 31bd
00000190: 50f0 98bc 246b d4bc 11b5 2ebc 7e72 3a3d
000001a0: ba54 34bb 935a 983c a6e4 23bd 3916 e3bc
000001b0: 88b8 3ebd 7618 80bd 3a16 80bd 1090 5cbc
000001c0: 2624 36bc 0169 bb3c f0b1 9e3d 9383 ac3c
000001d0: dbad 033e 0d1d 04bd eefd 08bd 7d9c 58bc
000001e0: b5fa 2dbd b92f fe3d edaf 9e3c 76bf 9dbb
000001f0: 2087 1abd dac9 553b 2af0 103d 53c0 9a3d
